tflite_modelos/SRNN/SRNN-Dropout.tflite (tflite, 45652 bytes, 8 tensors)

arith.constant3 f4 [2, 50]
000000 e1 6f eb 3e d5 e4 01 3f 95 81 63 3c 3d 95 8d bc
       0.45983794 0.50739795 0.013885875 -0.017283076
000010 42 4c 9a 3e c5 87 fa bd 61 18 86 3d 18 ec bc 3d
       0.30136305 -0.12232927 0.06547619 0.09224719
000020 0a 28 cf be 34 75 73 be 23 74 a2 3e ed 2f c7 3e
       -0.40460235 -0.23775178 0.3172923 0.38903752
000030 d4 50 cd be d3 bb d2 3e b3 33 9f 3e f2 93 9d 3e
       -0.4010073 0.41158924 0.3109413 0.30776936
000040 28 58 ce 3e 56 7e 41 bd a4 29 c0 3e bf 68 29 3d
       0.40301633 -0.047239624 0.3753177 0.04135966
000050 02 45 dc 3d 5b 87 cd 3e d7 8b c2 be 8f 8e 69 be
       0.1075535 0.4014233 -0.37997314 -0.22808288
000060 1d e4 1d bc 26 fe b6 3e b0 56 a2 bc 9c b8 d8 bd
       -0.009636906 0.35740775 -0.019816726 -0.105820864
000070 78 e4 2b 3e 79 19 02 3e af a5 71 3e 0d fd 0b 3d
       0.16786373 0.1270503 0.2359836 0.034176875
000080 e1 b5 b5 3e 87 6e 0e 3e 6e 25 bd bd e5 d3 b0 3e
       0.35490325 0.1390935 -0.09235655 0.34536663
000090 2f 4c 38 be f6 56 7f 3e 8c a6 4c 3e 5b e0 cf be
       -0.17997812 0.24935517 0.19985408 -0.40600857
0000a0 11 b1 82 bd 4f d7 c7 3e 02 46 7b be 80 96 6e be
       -0.06381429 0.39031455 -0.24538425 -0.23299599
0000b0 8a 3f db be fd 20 bb 3d 26 46 72 be 02 2c e0 3e
       -0.42821914 0.091371514 -0.23659572 0.43783575
0000c0 95 dd d7 bd 6f 92 c9 3e 16 5d f1 bd e3 68 9b bd
       -0.1054031 0.39369532 -0.11785333 -0.07588365
0000d0 d0 8a d7 be f2 a9 80 be ec f4 65 bd 23 1b a6 3e
       -0.42098093 -0.25129658 -0.05614178 0.3244258
0000e0 ad 21 58 be 0e c0 ba bd 0e 51 6d 3e e2 88 b9 bd
       -0.21106596 -0.09118663 0.23175451 -0.090593114
0000f0 a2 10 0c be e1 20 6a bd be fc b4 bd 8c ad 3e bd
       -0.1367822 -0.057160262 -0.08837269 -0.046552226
000100 fb 48 40 be 44 97 bc be 1d 6b da be 1b 5b 66 be
       -0.1877784 -0.36834157 -0.42659846 -0.22495691
000110 b6 dd b4 be ea fe ed be fe cb 91 3e fb 14 2a bd
       -0.35325402 -0.46483546 0.28475946 -0.041523915
000120 47 64 19 3a 62 3b 3a 3e b4 a3 12 3d 7e d4 9d 3d
       0.00058514293 0.18186715 0.03580065 0.07706545
000130 a3 13 1a 3e a8 e0 ea be da 07 6b 3e 4c 08 45 be
       0.15046553 -0.45874524 0.22952214 -0.19241446
000140 e2 69 94 be e6 b0 be be 3e ff 04 3e fe 91 6b be
       -0.28987032 -0.37244338 0.12987992 -0.2300491
000150 73 7d a4 3e 99 f4 ea 3b c9 93 86 3e f6 26 a6 bd
       0.3212696 0.0071702716 0.26284626 -0.081129
000160 c2 fb b1 3e 34 a2 97 3d 1f ce c6 3e d3 4b ac be
       0.34762388 0.07403985 0.38829133 -0.336516
000170 6d dd 6b 3e a3 81 e0 bc ed 49 19 3e 34 62 c3 3e
       0.23033686 -0.027405566 0.14969607 0.3816086
000180 90 6d 1f 3e 87 91 18 3e 34 3d f1 3e 68 87 9a 3d
       0.15569139 0.14899264 0.47117007 0.07545358

arith.constant4 f4 [2]
000000 e7 8d b5 bc f0 8d b5 3c
       -0.02216239 0.022162408

arith.constant15 f4 [50, 3]
000000 57 3c 5b be e2 e1 4e 3e f7 4a eb 3c df 89 be be
       -0.21409737 0.20203355 0.02872227 -0.37214562
000010 f4 db 08 be 79 27 54 3e 32 90 38 be bb 41 88 be
       -0.13365155 0.20718183 -0.18023756 -0.26612648
000020 ac 4e ec 3d d1 51 16 3f 4e c0 9c be 67 a4 0b 3e
       0.11538443 0.5871859 -0.30615467 0.13636933
000030 d1 6e 70 be af fc 97 3d 90 cf 92 3e 3f 97 cf bd
       -0.23479773 0.074212424 0.28673983 -0.1013627
000040 00 d2 05 3f 8d 6a 77 bc 99 78 b6 be 06 74 57 bc
       0.5227356 -0.015101087 -0.35638884 -0.013150221
000050 d3 52 45 be 9d 16 e4 3e 4e 7a ce 39 eb 96 64 be
       -0.19269876 0.44548503 0.00039382506 -0.22323196
000060 b5 11 5f bd 73 4b eb 3e dc c8 48 3e 3d 8c 0e 3f
       -0.054460246 0.45956 0.19607872 0.55682737
000070 b0 7a 13 be c7 a8 d9 3d 98 6f 11 bd fe 69 9b 3e
       -0.1440227 0.10627895 -0.035506815 0.30354303
000080 42 93 b5 be cd db c9 bd 15 13 1c 3e 7e 5d b9 be
       -0.3546391 -0.09856377 0.15241654 -0.3620414
000090 bd 7c 19 3f 6d 1c c6 3d a6 1c aa be 3d 3b 6e be
       0.5995596 0.096733905 -0.33224982 -0.23264785
0000a0 d8 a9 63 bd ae e1 af be ed d2 13 be b7 36 38 3e
       -0.055581897 -0.34351867 -0.1443593 0.17989622
0000b0 80 78 4c 3e 8e aa 11 3f a3 c4 2e be 40 2b 3e 3e
       0.19967842 0.5690087 -0.17067198 0.18571186
0000c0 34 66 97 3e 72 7b a8 be 8a 1b 9a 3e f1 c2 87 3e
       0.29570162 -0.3290668 0.30099136 0.26515916
0000d0 b0 cf 19 be 2c bc 67 3e fd a6 e7 be eb d2 83 be
       -0.15020633 0.22630376 -0.4524459 -0.25746855
0000e0 14 eb ed 3d 35 9e b9 3e 6f bd cb be a1 32 ad be
       0.11617103 0.36253515 -0.39792964 -0.3382769
0000f0 e4 06 a9 3e f8 24 a7 bc 94 b7 1a 3d 23 20 86 bd
       0.3301307 -0.02040337 0.03777273 -0.06549098
000100 dc 5b 0c 3e cd a6 e2 3d 71 71 6d 3e 7f 75 c5 3d
       0.13706917 0.11066971 0.23187806 0.09641551
000110 d4 1b 22 3e 94 dd 1a 3f f4 0f f4 bd fd a0 20 be
       0.15830928 0.6049435 -0.11917105 -0.15686412
000120 bb 84 21 3d bb ff 81 be 58 b3 6d be 4f 2a d8 3e
       0.039433222 -0.2539042 -0.23212945 0.4221978
000130 a1 dc c7 bd 92 93 25 3d 0c da 18 3e 3c fd ad 3e
       -0.097588785 0.040423937 0.14926928 0.33982265
000140 8b 84 c1 be 7a e0 a6 3e 77 f4 5b bd 9b ff 83 3d
       -0.37796435 0.32593137 -0.053699937 0.06445237
000150 b5 4e 5e 3e a9 cf b5 3e 1a fe d8 be f7 8a 11 3f
       0.21709712 0.35509995 -0.42381364 0.5685267
000160 37 7d b3 3d 52 ba 9a be 03 b0 dd 3e d1 62 f7 3d
       0.08764117 -0.30220276 0.4329835 0.120793946
000170 9b c0 3e 3e 1e 16 c8 bc c0 e8 b8 3e b2 f5 11 3e
       0.1862816 -0.024424609 0.36115074 0.14253882
000180 be 38 16 3f 00 7e 20 bd d3 b8 57 be be f8 0e 3f
       0.5868033 -0.039182663 -0.21066599 0.558483
000190 72 ff 46 bb da e5 5e be 0d da af 3d 4c 39 1f 3e
       -0.003036466 -0.21767369 0.08586512 0.15549201
0001a0 e1 e7 c5 be 3a d2 1a 3f 6d 82 57 bd a7 09 08 bd
       -0.38653472 0.6047703 -0.052614618 -0.03321233
0001b0 83 a6 00 bd 04 cd 26 3e 98 50 e4 3d c9 99 9e 3d
       -0.031408798 0.16289145 0.111481845 0.07744176
0001c0 c4 36 78 be dc 66 e7 bb eb e1 a0 3e 2b b8 0f 3b
       -0.24239641 -0.0070618223 0.31422362 0.002192984
0001d0 2a 20 2d 3e 8a 13 b9 3e 80 c1 8b bd c0 5d 44 be
       0.16906801 0.3614772 -0.068240166 -0.19176388
0001e0 67 eb 9d be b0 a1 3b be 23 b3 9c 3d d8 f3 a4 bd
       -0.3084366 -0.18323398 0.07651355 -0.08054322
0001f0 40 3d a1 be 79 d2 5d 3e 2b da 71 3d 91 c5 04 3f
       -0.31492043 0.2166232 0.05904595 0.5186396
000200 3a 88 2e 3e 2c 03 8c be 37 ff 31 be ab f1 bc 3d
       0.17044154 -0.2734617 -0.17382513 0.09225782
000210 65 70 f3 3d 49 88 df 3e d4 0b bc 3d 0e e3 1c 3f
       0.11886672 0.43658665 0.091819435 0.6128396
000220 2a ed 73 3c c9 84 7e be d3 25 3c 3e 57 a4 8f 3e
       0.014888087 -0.24855341 0.18373804 0.2805507
000230 aa 94 02 be bb 85 91 3e 1d 37 98 3e 92 fd 03 3d
       -0.12752023 0.2842234 0.29729548 0.032224245
000240 80 fd b3 3d e4 66 ad be d5 aa 9c 3e 76 0a 75 3e
       0.08788586 -0.33867562 0.30599084 0.23929772
000250 6c b2 84 be 39 3d 4c be
       -0.25917375 -0.1994523

arith.constant16 f4 [50, 50]
000000 18 11 8b be e8 e5 3a 3d b2 ae 95 bd 3e 92 ee bd
       -0.2716148 0.045629412 -0.07308711 -0.11648987
000010 36 28 16 bd ea c1 55 bd 95 9c 15 be 26 6c 6d bd
       -0.036659442 -0.052186884 -0.14610513 -0.057964467
000020 b7 ff 88 3d 14 25 a7 be 88 6e b1 bd 23 09 27 be
       0.06689399 -0.32645476 -0.0866366 -0.16312079
000030 71 87 3b 3d 8d 59 7d bd 52 a4 61 bd f0 de fc 3d
       0.045783464 -0.06185298 -0.05508835 0.123472095
000040 0e 4c 44 3e 68 3a bc bb c0 c8 03 be 92 2c f5 3c
       0.19169638 -0.0057442673 -0.12869549 0.02992848
000050 5d 34 76 3d 17 6c a9 bc c3 41 18 3d 41 a7 4b 3e
       0.06010853 -0.020681424 0.03717209 0.19888021
000060 38 ce 06 3e 35 ca f8 bb 82 1c 7b be 33 d9 80 bd
       0.13164604 -0.0075924643 -0.24522594 -0.062914275
000070 ec cf 66 be 51 32 5e 3e 93 9d 90 bc 7c 09 35 3d
       -0.22540253 0.21698882 -0.017653262 0.044198498
000080 26 36 fb bc c7 e5 45 be 57 ff 9d 3d 97 80 21 be
       -0.030665468 -0.19325934 0.07714718 -0.1577171
000090 9e 5e 17 3e 93 bd 40 3d 54 41 37 bd 26 6d 24 3d
       0.14782187 0.047055792 -0.044740036 0.040143155
0000a0 81 40 14 3e f6 b5 72 bd 78 f8 39 3e 7d 74 bb be
       0.14477731 -0.059255563 0.1816119 -0.3661231
0000b0 d5 19 c1 3d ef a4 8d 3d 29 09 1f be b2 dd 67 be
       0.09428755 0.06916224 -0.15530838 -0.22643164
0000c0 e5 90 c5 bd 46 b5 4b be 7c 45 4a 3d 80 a2 87 3c
       -0.09646777 -0.19893369 0.04938267 0.016556978
0000d0 c8 c5 73 bc 0b c0 6d 3d cc 55 a8 bd d0 0f d7 bd
       -0.014878698 0.058044475 -0.082194895 -0.10501063
0000e0 89 78 f1 bd c8 16 55 3d c7 ba 1f 3e 2a e4 a4 3c
       -0.117905684 0.05202368 0.15598594 0.020128328
0000f0 da bb 89 be 4a d9 b8 3d 7a ff 8a bd 68 9c 96 bd
       -0.26901132 0.090258196 -0.067870095 -0.07354051
000100 6b ef b1 3d 70 18 4c 3e 36 7c 11 be 11 67 55 3e
       0.086882435 0.19931197 -0.14207539 0.20840098
000110 62 2d 09 bd 22 e2 63 bd 03 f4 50 be 58 5f 77 3e
       -0.033490546 -0.05563558 -0.20405583 0.24157465
000120 0f a8 2b 3e 62 6c 79 3d 74 4d 15 3c d0 03 6e 3b
       0.16763328 0.060894378 0.009112705 0.003631819
000130 07 37 44 be 2e a1 10 3e ba dc 60 3e 2a e6 98 bb
       -0.19161616 0.14123985 0.219592 -0.0046661096
000140 3b d5 5f be 29 6c 5a be 46 e9 56 3c 52 19 82 bd
       -0.21858685 -0.21330322 0.01311714 -0.06352486
000150 7f 3a 88 be 79 bd 12 be d1 2b 89 bd 61 37 c0 3d
       -0.2660713 -0.1433009 -0.066978104 0.09385563
000160 9a 43 e7 bd 98 7a b9 bc 6c 80 b6 be bc a1 35 3d
       -0.11292191 -0.022641465 -0.35644853 0.044343695
000170 72 2f b5 3d 18 74 37 3e a5 2c 83 bd 08 4a 30 3d
       0.0884694 0.1791538 -0.06405 0.04303935
000180 2a 22 98 bd 75 10 99 be 5c 13 27 bd 1b 03 95 bd
       -0.07428391 -0.29895368 -0.040789947 -0.07275983
000190 f1 f7 b0 bd ad ca bb 3d 90 40 cc bd e9 32 1a 3d
       -0.08641041 0.09169517 -0.09973252 0.037646208
0001a0 1f d8 9d 3d ae 47 4a bc 00 ef 5e bc 9e fb da 3d
       0.077072375 -0.012346191 -0.013606787 0.106925234
0001b0 72 68 d6 3d b1 8f 26 3e 85 16 e0 be 45 2d 30 bd
       0.1046914 0.16265751 -0.4376718 -0.043011922
0001c0 df ce a9 3d a8 05 50 3d 0d a1 88 3c ac 4a 5f be
       0.08291411 0.050786644 0.016678357 -0.21805829
0001d0 be 18 bb 3c d6 2c f3 bc 73 61 8f be 98 c7 f8 bd
       0.022838946 -0.029684465 -0.28004035 -0.121474445
0001e0 49 c7 62 be ee 19 a3 be 6e 10 1b be 17 5a c2 bd
       -0.22146334 -0.3185572 -0.15142986 -0.094898395
0001f0 89 15 db bd d4 88 52 bd 66 76 56 3e 4a ea 3f 3e
       -0.10697467 -0.05140002 0.20943603 0.18741718
000200 78 51 0a bd 3b cd cf bd 69 c3 7f 3e 69 4d 6d bd
       -0.0337691 -0.101465665 0.24976887 -0.057935152
000210 b9 72 5b 3e f4 78 31 bd 4c d4 0c bd fc d8 1c 3d
       0.21430482 -0.04332824 -0.03438215 0.03829287
000220 ea 3d 77 3e 89 f7 04 be cd 7f 2e be 7b 28 d2 3d
       0.24144712 -0.12985052 -0.1704094 0.10261627
000230 bc 5a db bd e4 9b 2b bc 60 27 15 3e b6 2a da bd
       -0.107106656 -0.010474179 0.14565802 -0.10652678
000240 ea 1c 54 3c 96 7d 0b 3b 32 54 31 3c f0 ed 35 bc
       0.012946347 0.0021284572 0.010823296 -0.011104092
000250 99 e7 cb bd 98 ae 31 3a d4 c3 8d be 94 a5 f8 3d
       -0.09956283 0.00067780307 -0.27688468 0.121409565
000260 81 c8 91 bd 44 f3 96 3e 12 69 2f 3d fa 26 3c 3e
       -0.07118321 0.29482472 0.042824812 0.18374243
000270 aa 4a 91 bd dd b5 60 bd 80 1f 3b 3c 53 48 97 3d
       -0.07094319 -0.05486094 0.011421084 0.073868416
000280 a7 83 b8 bd 69 11 0f be 20 73 9d 3b 00 da f1 3c
       -0.09009486 -0.13971485 0.0048049837 0.029522896
000290 05 f3 01 3e d5 16 99 3d f3 d2 18 3e 0b 09 f7 3d
       0.12690361 0.07475058 0.1492422 0.12062272
0002a0 05 68 af 3e 6a 79 9c 3d 56 92 59 be 3f bd d3 3d
       0.34259048 0.076403454 -0.21247229 0.1033883
0002b0 5d 3b ca bd 56 a8 01 3d 60 42 08 be 88 2e a9 3d
       -0.09874604 0.03165468 -0.1330657 0.08260828
0002c0 58 c4 ff 3d 22 81 fc bd 0a 49 13 3c 30 59 f6 bc
       0.124886215 -0.12329318 0.008989582 -0.030071825
0002d0 12 4e 9f 3c 1a 03 65 3e d7 70 3f 3e 6b 2e 37 3d
       0.019446407 0.22364464 0.18695389 0.044722002
0002e0 c4 f2 5e 3c 44 fa 09 be ec eb 9e bd ec 32 ed bb
       0.0136076845 -0.13474375 -0.07759842 -0.0072387364
0002f0 39 44 c0 3e b0 90 8e bd fd 24 95 be 16 0c 04 be
       0.3755205 -0.06961191 -0.29129782 -0.12895235
000300 37 09 a3 bd 89 9c 48 be eb 2c bc 3c 16 88 b9 3d
       -0.07960742 -0.19590963 0.022970637 0.090591595
000310 97 e8 c9 bd 85 0a 8c 3d 35 ca a7 3d 8e 23 c2 bc
       -0.09858816 0.06837944 0.08192865 -0.023698594
000320 60 f3 36 3d f2 36 e6 3d 7f 50 4f be 55 1b 19 bd
       0.044665694 0.11240949 -0.2024555 -0.03737958
000330 68 fa 3f be 00 25 dd 39 f0 73 5f be 33 1c 42 bd
       -0.18747866 0.00042179972 -0.2182157 -0.047390174
000340 fe 81 30 bd 94 d2 bc bc 40 9a 14 3d ae 25 c3 bd
       -0.04309272 -0.02304963 0.036279917 -0.09528671
000350 01 cc c5 bd d5 c4 8d 3e 43 da b8 bd 94 0e 85 3d
       -0.09658051 0.27689233 -0.09026005 0.06496921
000360 66 29 c7 3d 70 0c c3 bd 0c 64 b7 3d 4c c4 99 3e
       0.09724693 -0.09523857 0.08954629 0.30032575
000370 66 1b b8 3d b6 00 85 be c0 23 fa 3d 86 e6 f9 bd
       0.08989601 -0.25977105 0.1221385 -0.12202172
000380 d6 85 f3 bc f5 46 3c 3e 00 eb 4d bd 8f 87 01 3e
       -0.029726904 0.18386443 -0.05027294 0.12649368
000390 18 b4 01 3e d6 0c 79 be 45 be 81 bd e2 94 42 3e
       0.12666357 -0.24321303 -0.06335119 0.19002107
0003a0 c8 a9 4f be a7 d6 08 be f8 38 8f 3d c3 4d 30 3e
       -0.2027961 -0.13363133 0.06993288 0.17217164
0003b0 c8 1b be 3c a6 01 83 be a0 f6 ab bd 52 c6 18 bd
       0.023206607 -0.25587195 -0.08396649 -0.037298508
0003c0 d8 1b 35 be 9d bc 04 bd 00 33 f3 3a 12 7b 10 3e
       -0.17686403 -0.03240644 0.0018554628 0.14109448
0003d0 0a 5f 4e 3e 71 97 02 be a2 c2 57 be b0 16 39 be
       0.20153442 -0.12753083 -0.2107034 -0.18075061
0003e0 0c 63 5f 3c 83 5d 2f 3d c7 b3 b0 bd 7c 73 1c bc
       0.013634454 0.04281379 -0.0862804 -0.009549018
0003f0 ae 20 56 bc b3 18 25 bd 75 7f b5 3c 00 65 9e 3b
       -0.013069315 -0.040306758 0.022155503 0.0048338175

arith.constant17 f4 [50]
000000 a4 ad 00 bc a6 57 c6 3d 5d 53 91 bd 7c 5e 5e bc
       -0.007853899 0.09684686 -0.070959784 -0.0135723315
000010 c8 8d 45 bd 85 5e 01 bb 1a f7 2e 3e 51 48 03 3d
       -0.048230916 -0.0019740176 0.1708645 0.03205139
000020 09 f1 b3 bd 20 0c 33 3d 7b 31 d8 bb 3d ac ac bd
       -0.08786208 0.043712735 -0.0065976954 -0.08431289
000030 d7 68 94 bc ea 77 0e 3d e9 e9 ad 3c aa f8 87 3d
       -0.018116398 0.034782328 0.021229701 0.06639226
000040 97 6b 8f bc fc c4 44 3d 67 3f 49 3d 2a e1 f3 3d
       -0.017507358 0.04803942 0.04913273 0.11908181
000050 08 4c 49 3d b2 7c 12 3d d9 16 6f 3c 97 a5 85 3c
       0.049144775 0.03576345 0.01459285 0.016314311
000060 30 11 93 3d 85 3d d2 3c b7 d2 ee bc 10 0e 1a 3d
       0.07181013 0.0256641 -0.029153211 0.037611067
000070 97 e1 70 bc 4d be e4 bc e1 98 04 3c 0c 14 34 bc
       -0.014702222 -0.027922774 0.00809309 -0.010991108
000080 96 c2 ae bc 7b be b7 bc 12 c3 83 bd 76 87 21 3d
       -0.02133302 -0.022429695 -0.06433691 0.039435826
000090 5e 4e 3f 3d 87 ba 84 3d 5b 55 08 bd 01 dc 9f bd
       0.046705596 0.0648089 -0.033284526 -0.07805634
0000a0 19 ce 50 3d ef d5 81 bc ac 15 ac bd 32 6a 92 3c
       0.0509778 -0.015849082 -0.08402571 0.017872903
0000b0 fe db 8a 3d ca 96 00 bd 3f ad 7f 3c 72 e7 b4 bc
       0.067802414 -0.031393804 0.01560527 -0.022083018
0000c0 14 72 51 bd 99 bb f1 3d
       -0.051134184 0.118033595

arith.constant21 f4 [50, 50]
000000 bd ed 2e bd 32 ab 5d be fd 87 5d be 4a 6e ab 3e
       -0.042707194 -0.21647337 -0.21633907 0.3348258
000010 3f 20 1e 3d e3 c9 63 3d 12 68 b9 be 51 01 86 3e
       0.03860497 0.055612456 -0.36212212 0.2617288
000020 e0 9b ad bc 88 c7 eb 3d 95 3e 4c 3d 18 83 19 bd
       -0.021192491 0.11512667 0.04986437 -0.037478536
000030 85 24 11 3e c1 b3 5e be aa 9f 2e bd 2e 02 6b bc
       0.14174087 -0.21748258 -0.042632736 -0.014343781
000040 c0 40 cb 3d 86 4b 9c 3e da 98 97 be a4 0a 7d 3e
       0.099244595 0.3052637 -0.29608804 0.2471109
000050 5e b7 b3 3e 7b 1b e5 3d 6f 85 d7 3d 10 08 00 3e
       0.35100836 0.11186882 0.10523497 0.12503076
000060 31 b6 fd bd 8c c4 56 3b 71 e4 24 bd fc 29 0d 3e
       -0.12388266 0.003277096 -0.04025692 0.13785547
000070 a4 84 1d be cd e4 e9 bb 34 8f 6f 3e e7 fc a4 bd
       -0.1538263 -0.007137871 0.23394471 -0.0805605
000080 ad df 5d 3e 2e 88 ce 3d ee 76 0e 3d 62 3e c1 3e
       0.21667357 0.10084568 0.03478139 0.37742907
000090 b2 20 34 3e 96 d9 3f 3e 1c 16 87 3e ba 5f e7 3d
       0.17590597 0.18735346 0.26384056 0.11297555
0000a0 24 60 f4 bb 67 81 ce bd b9 dd 68 3e 7a 96 a9 be
       -0.00745775 -0.10083275 0.2274083 -0.33122617
0000b0 22 ee 6c 3e b8 2a 7d 3e b7 eb c7 bd ff a3 95 3b
       0.23137715 0.24723327 -0.09761756 0.004566669
0000c0 66 0b e7 3d 1a 53 92 3e b6 5f 1c 3e 90 93 4b be
       0.11281471 0.28579026 0.15270886 -0.1988051
0000d0 ed 16 86 be 1b 55 a7 3d 3d be b5 bd be f9 b4 3d
       -0.26189366 0.081705295 -0.08874176 0.08836697
0000e0 fb 8c 96 bb ce 38 0a 3e 5c f2 9c 3c 36 fb dd 3c
       -0.004594443 0.13498232 0.019158535 0.027097326
0000f0 31 3d a7 3d 37 a1 ec 3b 04 ea 19 3d 57 2b 3d 3e
       0.08165968 0.0072213667 0.03757669 0.18473564
000100 4f 8b d5 3c cd 49 64 3e 0b db 0e 3f 81 1f 0c 3e
       0.026067404 0.22293778 0.55802983 0.13683893
000110 93 f0 8a be 74 6e 49 3e 79 35 9a 3e 4d 3d 47 be
       -0.2713667 0.19671041 0.3011892 -0.19456978
000120 80 dc f0 bc be 8d 7c 3e c2 b7 4a be 58 91 8c 3e
       -0.029402018 0.24663445 -0.1979666 0.27454638
000130 8e 99 1b 3e 72 b9 0d bd 8a 54 c1 3e 09 1f 36 3e
       0.15195295 -0.034600683 0.3775981 0.17785276
000140 bc 5f 54 be c6 12 8f 3e b4 07 2b 3e 77 b3 57 3e
       -0.20739645 0.2794401 0.16702157 0.21064554
000150 d4 1c c4 3e d1 e4 89 3e be 06 03 3e 0c 5e 8e bd
       0.38303244 0.26932386 0.1279554 -0.06951532
000160 2a 2f f6 3c c2 df 4f bc bc 79 b9 be bd 4d 77 3d
       0.030051786 -0.012687625 -0.36225688 0.06037687
000170 8b b9 4b 3e 1d ad 0d be 98 e0 35 bd 0f e8 b9 3c
       0.19894998 -0.13835569 -0.044403642 0.022693662
000180 85 42 6f 3d 83 90 06 3e d7 f5 1d 3d ea 72 a5 3d
       0.058413047 0.13141064 0.03856453 0.08078559
000190 cd f9 2e be 9d e9 27 be 8b bd c2 3d 4c e0 87 bb
       -0.17087479 -0.1639771 0.09508809 -0.0041466113
0001a0 7d 3a 28 3e 92 0c 86 3e 4f c0 69 bd 90 3e d0 3e
       0.16428562 0.26181465 -0.057068165 0.4067273
0001b0 13 bc e7 3d 09 cc 83 3e c9 65 07 3d 87 c1 dc 3e
       0.11315169 0.25741604 0.033056054 0.431164
0001c0 ca e8 25 3c be 7e 2a be 9b 0c f7 bd c3 96 d1 3e
       0.010126302 -0.16649911 -0.12062951 0.40935335
0001d0 cf 9b ef 3d 89 b7 c9 3e 5e 4b 94 be 52 b7 99 3d
       0.1169964 0.3939784 -0.2896375 0.07505669
0001e0 d9 b8 12 bc 95 a5 a1 bd f2 d6 e9 bc a6 3e 0b 3e
       -0.008955204 -0.078929104 -0.028544877 0.13598117
0001f0 83 79 01 be d0 63 6b 3e df a6 80 3e 48 e2 7b 3e
       -0.1264401 0.22987294 0.25127313 0.24598038
000200 a0 37 3f 3c 25 2a 1b 3e 18 fe 8a 3e 8a 9e 90 bd
       0.011670977 0.15152796 0.27146983 -0.07061489
000210 33 ec 2d 3e 7e 33 95 3e 97 5c b2 3e 1d 17 3d 3e
       0.16984634 0.29140848 0.34836265 0.18465848
000220 ef a8 33 3e b0 56 37 bc 78 02 9b 3d f4 c4 92 3e
       0.17544912 -0.0111901015 0.0756883 0.28665888
000230 bc 8e 06 3b 04 5f a6 3e 9e 97 8e bd 02 1c 9a be
       0.0020531854 0.32494366 -0.069625124 -0.30099493
000240 2f 08 2a 3e ec 27 1a 3f 70 59 1d be 5c 3e db 3d
       0.16604684 0.60217166 -0.15366149 0.107052535
000250 03 64 1f 3e f4 49 17 3e a9 d4 84 bd 06 e5 11 3d
       0.15565495 0.14774305 -0.06485874 0.035618804
000260 a0 2a 43 be a7 a8 85 3e f5 af fe 3d ee e2 c0 3d
       -0.19059229 0.26105234 0.12435905 0.094182834
000270 13 5e 5b be 84 ee 93 3e 03 3f d0 bd 4c 88 89 3d
       -0.21422605 0.2889291 -0.101682685 0.0671545
000280 97 e4 7d 3e de f3 16 bc 28 8e ae 3e 50 51 cb 3d
       0.24794231 -0.009213416 0.34092832 0.099276185
000290 05 4d 89 3c 44 56 15 bd 30 45 ea 3e 6a bf 45 3e
       0.016760359 -0.036459222 0.4575591 0.193113
0002a0 3a b3 2a be 77 c9 25 3e 93 a3 c8 3e 16 18 0c bd
       -0.16669932 0.16190134 0.39187297 -0.034202658
0002b0 49 cf 07 bd dc 2e 9c 3e a2 5a 83 bd f3 20 ac 3e
       -0.033156667 0.305045 -0.06413771 0.33618888
0002c0 c8 7e 4b 3e fa 4c 4e bd d9 4a c7 3e 9e 19 c1 3e
       0.19872582 -0.05036638 0.38924292 0.37714857
0002d0 55 94 cc bc 7a 66 4a 3e bf 1c cd 3e 61 a1 cd 3e
       -0.024973074 0.19765654 0.40060994 0.40162185
0002e0 6a 3c b9 3e c3 1d c3 bc d9 23 d6 3c f2 a3 c0 bd
       0.36178905 -0.023817902 0.02614014 -0.0940627
0002f0 b1 24 a3 3e 33 07 ad 3e 68 40 08 be c9 c1 3e be
       0.3186393 0.33794555 -0.13305819 -0.1862861
000300 54 d8 a7 3a 77 75 47 be 02 bc 1e 3d 68 7a 86 3e
       0.001280556 -0.19478403 0.038753517 0.26265264
000310 66 88 f6 3d 64 fc 90 3e ef f4 45 3e d4 26 b1 3d
       0.12037735 0.2831756 0.19331716 0.08649984
000320 9e ca c8 3d f8 59 83 3e 81 d7 13 be 00 b1 17 be
       0.09804271 0.25654578 -0.14437677 -0.14813614
000330 bc 7a 19 be 9b 83 aa 3d 6a 47 f0 bd 0c dd e6 3d
       -0.14988226 0.08325883 -0.11732371 0.1127263
000340 51 ae da bd 71 3d ad 3c 06 54 1f 3c 79 f4 4f 3e
       -0.106777795 0.021147462 0.009724623 0.20308103
000350 ed 70 48 bd 30 71 43 3e ba f2 c6 bd f9 08 f3 bd
       -0.04893582 0.19086146 -0.09714265 -0.11866946
000360 e9 a6 08 3e ad e7 bc 3e 71 93 5e bd 2e 4b 0f be
       0.13344921 0.36895505 -0.05433983 -0.13993523
000370 60 66 9a 3e 74 91 60 3e 6e 4a 39 be 3c 45 62 3c
       0.3015623 0.21930486 -0.18094799 0.013810452
000380 8a 1e ef 3d c9 4e 1c 3d 6a ea ae 3e aa 48 63 bd
       0.11675747 0.038161073 0.3416322 -0.05548922
000390 24 c9 b8 3e b3 b5 2e 3e fe c8 5d 3e 24 44 41 3c
       0.36090958 0.170615 0.21658704 0.011796031
0003a0 bc 58 83 3c 27 f1 89 bd 1f 21 29 3e 79 43 6a 3e
       0.016033523 -0.06735449 0.16516541 0.22877301
0003b0 b6 28 58 be b8 28 f0 3d 94 c4 0d be f2 4e aa 3e
       -0.2110928 0.117265165 -0.1384452 0.33263355
0003c0 16 aa 63 3c 35 ce 02 bd 2d 84 96 bd ed f0 a4 3d
       0.013895532 -0.031934936 -0.07349429 0.080537654
0003d0 39 54 f0 3d 9c 58 54 3e db 2c 52 3e 2e d8 1b 3e
       0.11734814 0.20736927 0.20524924 0.15219185
0003e0 75 1e 55 3d 63 1c ea bd 8e c9 20 3c b2 b0 74 bd
       0.052031 -0.114311956 0.009813679 -0.059738822
0003f0 51 66 5b be 1b b3 3b 3e 79 80 2c bd e7 7d 7e 3e
       -0.2142575 0.18330042 -0.04211471 0.24852715

arith.constant22 f4 [50, 50]
000000 f0 32 cb 3d b6 ac 0c 3e 89 10 4f 3e 6b 11 e7 3d
       0.09921825 0.13737759 0.20221151 0.11282619
000010 fb 11 4f 3c f5 a1 54 3e ab 81 3a be 1d 86 4e 3e
       0.012638564 0.20764907 -0.18213527 0.20168348
000020 35 85 55 ba 84 c4 1f 3d 99 d5 b0 3b cb c2 0a be
       -0.00081451546 0.03900577 0.0053965566 -0.1355087
000030 14 ce b2 3c 0e e2 ed bd 6b f0 15 be 66 00 c8 bd
       0.021826781 -0.11615382 -0.14642493 -0.09765701
000040 97 98 0a be 1a 4b 58 be 5f 92 74 3e f9 02 94 3d
       -0.13534771 -0.21122399 0.23883961 0.072271295
000050 34 0d b2 bd ad 2d c0 3d 7b e5 ae 3d 40 01 6f bb
       -0.086939245 0.09383712 0.08539864 -0.003646925
000060 62 53 77 3e 37 e9 01 be 3c 13 4d bd c9 ea 6d 3e
       0.24152902 -0.1268662 -0.05006717 0.23234095
000070 5d 43 56 3d 8c 4e bc 3c 71 61 9c bc 40 17 30 bd
       0.052310336 0.022986673 -0.019089432 -0.042990923
000080 2b 2b 46 bd bc 7f bf 3d 5a 2b a8 bd 6b 39 bc 3e
       -0.048381012 0.09350535 -0.08211394 0.36762556
000090 39 d7 52 3e 33 6f 1e 3e 4f 58 73 be f3 f2 17 be
       0.20589913 0.15472107 -0.23764156 -0.14838772
0000a0 f3 8c 1d 3e 19 13 3b 3e 10 63 2a 3e 5a df 79 bd
       0.15385799 0.18269004 0.16639352 -0.06100402
0000b0 46 05 1a 3e 6a 46 4d be fa 18 79 bc 41 b9 4a 3c
       0.15041074 -0.20046392 -0.015203709 0.01237327
0000c0 25 4d f4 bc 9b eb 06 3c be 1b 23 3d 10 ff 88 3e
       -0.029821942 0.008234884 0.03982138 0.26757097
0000d0 48 cb f6 bd 49 d3 81 bd e8 16 85 3e 46 6d 27 3e
       -0.120504916 -0.063391276 0.2599404 0.16350278
0000e0 c7 bd 2b bd 1c 86 fa 3d f4 6c 38 be 7d 98 85 bd
       -0.041929033 0.122326106 -0.18010312 -0.065232255
0000f0 8e 93 38 3e ba 88 4c be f7 73 b0 bd f4 c2 8c 3d
       0.18025038 -0.19974032 -0.086158685 0.06873122
000100 92 b6 4f 3d 83 4e 51 bd 26 b5 58 3c 4f 5d 3e 3e
       0.050711222 -0.051100265 0.013226783 0.18590282
000110 f1 c9 de bd 8d 0d e0 bd bd 15 ff 3d 4f 01 c9 bc
       -0.10878361 -0.109400846 0.12455318 -0.024536757
000120 c7 1f 0d 3e f4 a4 39 3e 0f 75 a3 be 5f 0c ce 3c
       0.13781653 0.18129331 -0.31925246 0.025152383
000130 5b 7a 42 be 76 e6 ed 3b 4f f1 9f 3d 4f c4 36 3e
       -0.18991987 0.007260139 0.07809698 0.17848323
000140 66 74 c2 3c e4 dd 78 3d 05 bb 80 3e a7 b3 3c 3e
       0.023737144 0.060758486 0.25142685 0.18427907
000150 6b 2b 6a 3d 04 e8 83 bd 3a 13 fe 3d 19 15 5c be
       0.057170313 -0.06440738 0.12406011 -0.21492423
000160 b9 50 36 bd 36 a8 14 3d 36 01 10 be 2c 42 89 3e
       -0.044510577 0.03629323 -0.14062962 0.26808298
000170 89 ba b5 bd ac 80 63 3d 2f 99 2e 3d 22 a4 96 be
       -0.088734694 0.055542633 0.042626556 -0.29422098
000180 4e 4d 2d 3d 09 78 7f bc 98 85 f6 bc a1 5e e2 3b
       0.04231005 -0.015592583 -0.030093 0.0069082533
000190 06 65 8f be 1c 67 50 3e e0 09 39 3e 65 06 64 3e
       -0.28006762 0.20351833 0.18070173 0.22268064
0001a0 3e 06 d3 bd 40 e6 1a 3d 74 96 b7 3d 8a 8b 3a 3e
       -0.10303925 0.03781724 0.089642435 0.18217292
0001b0 d1 6f 0a 3e a7 85 21 bd a5 06 0f 3e 18 db 3d be
       0.13519217 -0.0394341 0.13967378 -0.18540609
0001c0 72 d8 99 bd ac da d1 bc 91 ca 2a 3e 8f f3 d7 bd
       -0.07511987 -0.025616966 0.16678835 -0.10544502
0001d0 23 38 ca 3d 3b 33 c9 3d e4 8b 34 3e 3e 54 7d 3e
       0.098739885 0.098242246 0.17631489 0.24739167
0001e0 6a b9 22 be 73 1d 27 be d5 9f 85 be 4e 5a 92 bc
       -0.15891042 -0.16319828 -0.26098505 -0.017865326
0001f0 58 ca f8 bd 44 72 2e 3e dc 1c c1 bd 34 71 d7 3c
       -0.12147969 0.17035776 -0.094293326 0.026299097
000200 31 a3 16 3d d8 e1 1a bb 51 22 23 bd ea 57 2f bd
       0.036776725 -0.0023633149 -0.03982765 -0.04280845
000210 c5 b1 54 3d fd f4 49 be 75 2d da 3d 36 15 d0 bd
       0.051927347 -0.19722362 0.106532015 -0.10160296
000220 92 d1 da 3d b0 7a 40 bc 10 f8 c6 bc 36 e1 0b be
       0.106845036 -0.011748001 -0.024288207 -0.1366013
000230 9e 6f 83 3e ce ba bc bd 24 8e 96 be c8 73 a3 bd
       0.25671095 -0.09215318 -0.2940532 -0.07981068
000240 c0 58 af bd 44 d2 fe 3c 00 04 01 3e e2 ba 5d be
       -0.085618496 0.031106122 0.12599182 -0.21653321
000250 d8 c0 41 3c ac 9f 61 bd f2 9b ab bc 35 7b 40 bd
       0.011825763 -0.055083916 -0.020948384 -0.0469925
000260 8b 1b 40 3d 38 91 14 3e 7e 66 12 3e cc 51 40 3e
       0.046901267 0.14508522 0.1429691 0.18781203
000270 05 0a b2 3d 98 b3 da bd 54 84 52 bd 1a 21 11 be
       0.08693317 -0.10678786 -0.05139573 -0.14172783
000280 20 15 43 3d 7d b4 34 be ef ff 39 be c6 75 25 3d
       0.04762757 -0.17646976 -0.18164037 0.04039552
000290 f9 e5 47 bc 0d ac 07 3e 6e 77 83 3e 69 47 6c bd
       -0.012200826 0.13249226 0.25677055 -0.05768529
0002a0 59 b7 98 3d da 68 8f 3c ec 86 75 bb 14 55 21 bc
       0.07456846 0.017506052 -0.0037464453 -0.009846944
0002b0 be 17 96 3c be f5 40 3e 40 54 2d 39 95 a0 54 bc
       0.018321868 0.18843743 0.00016529951 -0.012977739
0002c0 c1 15 a1 bd 34 45 a2 bd e8 81 59 3e b2 fc ae bd
       -0.07865477 -0.07923356 0.21240962 -0.085442916
0002d0 14 80 ad 3d 60 ed 0e 3e dd e4 9e be 0c 8b 1a be
       0.084716946 0.13957739 -0.31033984 -0.15092105
0002e0 4a cf 7a be 76 7e c3 bd 7c a4 40 be 2a 25 7c 3d
       -0.24493137 -0.09545605 -0.18812746 0.06155888
0002f0 bb fc 32 bc 9a 70 3c 3e cd 8c 60 3e c2 0a 18 be
       -0.010924513 0.18402329 0.21928711 -0.14847854
000300 0a 71 2f 3d 4b 91 d4 3d eb d5 35 3c 4c 22 87 be
       0.04283241 0.10379275 0.011098365 -0.26393354
000310 a4 dd 47 3c c8 67 a0 3e 95 6a 21 3e 9b 92 67 3e
       0.012198839 0.3132918 0.15763314 0.2261452
000320 f4 18 b4 bd 6b 37 35 be ce b8 a6 3d 15 f6 11 be
       -0.08793822 -0.17696922 0.081407174 -0.14254029
000330 c8 b2 42 3e 50 35 cc 3b a2 18 65 be c8 e0 d5 bd
       0.19013512 0.0062319413 -0.22372678 -0.10443264
000340 7c 3e 7c 3d 2c 1e 0c 3e ed 2f b8 3c ee 24 7d 3d
       0.061583027 0.13683385 0.02248379 0.061802797
000350 40 f5 28 be f8 8f 3a bd 9c 7d 84 3d 8f cd 3c 3c
       -0.16499805 -0.045547456 0.064692706 0.011523618
000360 a6 60 99 bd b5 05 e0 be ad 53 a6 3e 2c d8 05 be
       -0.07489137 -0.43754354 0.32485715 -0.13070744
000370 86 33 d4 bd 17 1c 58 be e7 c1 b5 bc 1c a3 d5 bd
       -0.1036139 -0.21104465 -0.022187186 -0.10431501
000380 da 3b ca bd 52 f2 d1 3d 55 de 57 be f8 b8 87 3d
       -0.09874697 0.10251297 -0.21080907 0.06627077
000390 1e 18 a5 3c 27 89 53 3e f1 64 87 bd f9 a8 24 3d
       0.020153102 0.20657788 -0.0661105 0.040200207
0003a0 c1 8b 20 3d 3d 58 63 3e 0d 13 3a bd 27 55 49 be
       0.03919578 0.22201629 -0.045428324 -0.1966139
0003b0 fb 50 16 3e ac 11 15 be 4c 0a 34 3d 26 5b 0e 3d
       0.14679329 -0.14557523 0.043955132 0.034754895
0003c0 54 4a ce bd 30 cc 40 be 7c 1d 8e 3c 8e 56 1a bd
       -0.10072771 -0.18827891 0.017348044 -0.0376802
0003d0 6a 99 0b bd e8 1b ec 3d c2 8a a5 3d e4 a4 db bc
       -0.034081854 0.1152876 0.080831066 -0.026812024
0003e0 85 7e 60 3d f6 ec 7f 3e a6 43 dd 3d dc b8 5d be
       0.05480816 0.24992737 0.108039185 -0.2165255
0003f0 4e 7b 98 3d 3a 64 a7 3d 8c 6c 25 3d 78 7f 7c 3e
       0.074453935 0.081734136 0.04038672 0.24658

arith.constant23 f4 [50]
000000 51 64 14 3d 88 5b e0 3c d1 3d 1d 3d e1 c1 84 bc
       0.03622848 0.027387396 0.03838903 -0.01620573
000010 b2 78 a4 3b ff 30 89 3d f8 a8 25 bd 46 7d 8e bd
       0.005019271 0.066987984 -0.040444344 -0.06957488
000020 4e fa 97 3d 4a a6 02 bd 23 26 9e bc 9f b8 a6 bc
       0.07420789 -0.031896867 -0.019305294 -0.020351706
000030 47 1a 97 3d 45 6e 4a 3b 8f 8e 0c bd ca 5e e0 3c
       0.07378059 0.003088848 -0.034315642 0.027388949
000040 bf de f9 3c bf 21 8a bd 2d b4 be bc 8a dc e7 3c
       0.030501721 -0.06744718 -0.023279274 0.028303403
000050 6d 7d 30 3e 84 5b 27 3d d7 55 1d 3e d4 4e 51 3e
       0.17235346 0.04085876 0.15364777 0.20440227
000060 b0 51 27 3d 1e 07 bc bc 16 67 be 3c ec 41 06 3d
       0.040849388 -0.022952612 0.023242515 0.03277771
000070 5b 60 ce bb 89 cb 1e bd 3a 7d 99 bb b8 f6 09 bd
       -0.0062981076 -0.038768325 -0.0046841176 -0.033682555
000080 c2 4f 21 bc 5f 47 89 bc 86 69 3b 3e 0a 0c 89 bd
       -0.009845676 -0.016757665 0.18301973 -0.066917494
000090 ec 5b a3 3d 49 fe 05 be 63 b2 f1 3d 0b 86 b6 3d
       0.07976517 -0.13085283 0.11801603 0.089122854
0000a0 af 57 ab 3d ec 19 5d 3d e7 38 cf 3d 92 b6 fe bb
       0.08366334 0.0539798 0.10118275 -0.007773229
0000b0 f1 cd 3a 3e e6 5b 96 3e 8a ab 62 3e a7 ef 44 3c
       0.18242623 0.29366988 0.2213575 0.012020028
0000c0 ca 70 0a 3e 13 c4 3c 3b
       0.13519588 0.0028803393
