models/tflite/SRNN/SRN.tflite (tflite, 19752 bytes, 5 tensors)

arith.constant3 f4 [2, 50]
0.41716364 -0.052774396 -0.29079825 -0.057067107 0.7553687 0.033721358 -0.30988583 0.51821154
0.69900686 0.51275826 -0.37529984 1.0667261 0.34958768 0.442033 -0.4305355 -0.45517462
0.31140864 0.60055625 0.6942288 1.0225581 -0.24810548 0.39422 -0.3918892 -0.44839922
0.4649546 0.3145946 0.4437993 -0.10942997 0.50262475 0.06518557 -0.062121686 0.16461623
0.7044213 -0.26540667 -0.43801233 0.36197624 0.6226457 -0.56701124 -0.35904092 0.7358464
0.27854928 -0.12703963 -0.24794742 0.056090295 0.4044639 0.61254567 0.08049272 -0.41073355
0.78279674 0.15549223 -0.48372015 0.27900344 0.6546624 0.16250436 -0.71533257 -0.059561145
-0.04757019 -0.43139932 -0.32699138 -0.6103851 0.07463008 -0.5179506 -0.7425769 -0.38711387
0.064308435 0.03000552 -0.47842637 -0.61917996 -0.85292554 -0.6589956 0.382849 -0.15986352
0.22987598 0.18257326 -0.58887744 -0.21957298 -0.4508485 -0.38123786 -0.14588429 -0.36833018
-0.28767532 -0.109932475 -0.77867496 -0.22737285 0.21596423 -0.3500118 -0.4710349 0.33700383
-0.119948305 -0.60990167 0.02585942 0.48386073 0.29967475 0.24057451 -0.43874553 -0.63581055
-0.30051485 0.31787333 -0.783705 -0.52308714
00000000: 7996 d53e f729 58bd 82e3 94be 33bf 69bd
00000010: d85f 413f 681f 0a3d 5ba9 9ebe 83a9 043f
00000020: 1df2 323f 2044 033f 4d27 c0be 7b8a 883f
00000030: 28fd b23e 2652 e23e 266f dcbe a60c e9be
00000040: f470 9f3e 0ebe 193f fbb8 313f 2fe3 823f
00000050: 5d0f 7ebe 34d7 c93e b4a5 c8be 9594 e5be
00000060: 880e ee3e 8b12 a13e a939 e33e d21c e0bd
00000070: 04ac 003f 0380 853d 4f73 7ebd 2891 283e
00000080: f454 343f 62e3 87be 2743 e0be f354 b93e
00000090: b565 1f3f a627 11bf 36d4 b7be 6e60 3c3f
000000a0: 039e 8e3e ad16 02be eee5 7dbe f0be 653d
000000b0: e415 cf3e cbcf 1c3f 5ed9 a43d ab4b d2be
000000c0: 5e65 483f 5b39 1f3e 2baa f7be 8ad9 8e3e
000000d0: f497 273f 8b67 263e 0920 37bf 63f6 73bd
000000e0: f6d8 42bd 5fe0 dcbe 6a6b a7be 3342 1cbf
000000f0: a8d7 983d 6998 04bf 8519 3ebf ca33 c6be
00000100: 24b4 833d 23ce f53c 4df4 f4be 9482 1ebf
00000110: 5459 5abf f0b3 28bf c904 c43e 43b3 23be
00000120: 9c64 6b3e 7cf4 3a3e acc0 16bf bdd7 60be
00000130: 9dd5 e6be 9c31 c3be b162 15be c695 bcbe
00000140: 2e4a 93be 4724 e1bd 3e57 47bf 6ed4 68be
00000150: ba25 5d3e bf34 b3be 7d2b f1be c48b ac3e
00000160: 75a7 f5bd 8422 1cbf 22d7 d33c 98bc f73e
00000170: f86e 993e 2a59 763e 41a3 e0be 7bc4 22bf
00000180: 15dd 99be 4bc0 a23e e4a0 48bf 0ae9 05bf

arith.constant4 f4 [2]
-0.0973621 0.09736213
00000000: c865 c7bd cc65 c73d

arith.constant16 f4 [50, 3]
0.9035626 -0.10111159 -0.2597199 -0.16770129 0.49586183 0.24013177 0.09805811 0.7164692
0.13722703 -0.1886245 0.41258642 0.024231726 0.3759796 0.48705566 -0.6198522 0.18734907
0.27448678 -0.06455756 0.25006726 -0.17385912 -0.23016423 0.3569361 0.40577754 -0.42980576
1.2383617 0.059781123 -0.023225123 0.04833618 -0.2855989 0.32005465 0.24578282 -0.38377342
-0.37212276 1.3654252 -0.42820606 0.46913904 1.5998683 -0.15696159 -0.3764047 1.1510851
-0.14502512 -0.25688422 0.18876547 0.39863366 0.271991 -0.07392765 -0.82223356 -0.42266554
0.7598462 -0.06785957 0.17482868 0.5052991 0.5469623 -0.7663396 0.93590665 -0.07860209
-0.26255122 -0.35874152 0.40440422 -0.82333124 -0.21986969 0.41894946 0.20293632 -0.20486088
-0.34350085 0.058348402 -0.19596474 0.38215184 0.28468356 -0.24576995 0.023154045 -0.02414076
1.4664978 0.094594784 -0.045283493 0.9439909 -0.07549575 0.10308959 0.33060357 0.3901377
-0.49967048 0.51311165 -0.15203702 -0.1357886 0.8636141 -0.28425992 -0.059242718 0.2083315
-0.24596429 0.5253753 -0.25516105 -0.23878266 0.09093927 0.44503334 -0.22163853 -0.03862326
0.8857805 -0.25598472 0.24680895 0.010473638 0.015543773 -0.0027352236 0.13277733 0.66879416
0.2381043 -0.19461867 -0.39665857 0.19828403 0.7889297 0.3737145 -0.6879713 0.0978996
0.6771543 0.1278297 -0.37906465 -0.18222803 0.009511418 -0.13356715 0.61847794 -0.7265428
-0.3337153 0.06494854 0.1335003 0.044987667 -0.5780877 -0.12741224 0.06825017 0.0067656175
0.0012895402 -0.41285127 -0.1337449 -0.12154398 -0.04293943 -0.4539418 0.53068787 1.4873949
0.08384557 -0.098261654 -0.26771328 -0.2874537 0.25762987 -0.34689006 -0.019738398 0.1332024
0.9719086 -0.5091297 0.7245388 0.72599936 -0.109088786 -0.015056563
00000000: e14f 673f 9813 cfbd 02fa 84be e3b9 2bbe
00000010: 9ae1 fd3e 1ae5 753e b1d2 c83d 876a 373f
00000020: 3e85 0c3e c826 41be 873e d33e 9d81 c63c
00000030: 6680 c03e 5c5f f93e a2ae 1ebf 6fd8 3f3e
00000040: 8889 8c3e c136 84bd d108 803e 2008 32be
00000050: 2cb0 6bbe 54c0 b63e 13c2 cf3e 800f dcbe
00000060: a382 9e3f 0ddd 743d 9d42 bebc 29fc 453d
00000070: 053a 92be 34de a33e 7eae 7b3e f37d c4be
00000080: e086 bebe 41c6 ae3f d33d dbbe fe32 f03e
00000090: 7cc8 cc3f 8aba 20be 1eb8 c0be c256 933f
000000a0: 7781 14be 5486 83be bc4b 413e b619 cc3e
000000b0: 6842 8b3e 6167 97bd e67d 52bf 9e67 d8be
000000c0: 4885 423f f5f9 8abd 4a06 333e 485b 013f
000000d0: b905 0c3f d52e 44bf 9497 6f3f 22fa a0bd
000000e0: 1d6d 86be f8ac b7be 120e cf3e d6c5 52bf
000000f0: 8525 61be 8b80 d63e 8ace 4f3e 0dc7 51be
00000100: 58df afbe bcfe 6e3d fbaa 48be 68a9 c33e
00000110: 0bc2 913e 1eab 7bbe 8dad bd3c d8c2 c5bc
00000120: 33b6 bb3f e9ba c13d 2f7b 39bd 63a9 713f
00000130: 849d 9abd a320 d33d df44 a93e 21c0 c73e
00000140: cfd4 ffbe 495b 033f 98af 1bbe 2b0c 0bbe
00000150: d015 5d3f 848a 91be 7ea8 72bd da54 553e
00000160: 10de 7bbe ff7e 063f 78a4 82be 7183 74be
00000170: 5e3e ba3d 69db e33e 36f5 62be 6c33 1ebd
00000180: 83c2 623f 6e10 83be 7cbb 7c3e 9f99 2b3c
00000190: 4fab 7e3c 7041 33bb c8f6 073e 1836 2b3f
000001a0: 9dd1 733e 1e4a 47be d516 cbbe f80a 4b3e
000001b0: 4cf7 493f 8257 bf3e e31e 30bf 967f c83d
000001c0: fc59 2d3f cae5 023e c314 c2be fc99 3abe
000001d0: c7d5 1b3c d4c5 08be 9254 1e3f b5fe 39bf
000001e0: bbdc aabe bd03 853d 4db4 083e fd44 383d
000001f0: 8efd 13bf 5b78 02be bfc6 8b3d 1db2 dd3b
00000200: ca05 a93a 3e61 d3be 6cf4 08be 0dec f8bd
00000210: 41e1 2fbd 0f6b e8be 29db 073f f562 be3f
00000220: 3ab7 ab3d 683d c9bd b711 89be 222d 93be
00000230: 10e8 833e 939b b1be 6cb2 a1bc 3666 083e
00000240: 01cf 783f 5356 02bf 607b 393f 18db 393f
00000250: f169 dfbd cdaf 76bc

arith.constant17 f4 [50, 50]
-0.11385143 -0.057363007 0.34392226 -0.07086595 -0.053059395 -0.0625971 0.15134712 0.18832791
0.14313255 0.048753403 -0.057338946 0.021958224 -0.23889819 0.42045438 0.05639756 0.099551395
-0.013174037 0.13980213 -0.052882947 0.20934093 0.12387695 0.08477022 0.010686035 -0.07463243
-0.11522236 0.1276063 -0.21113542 -0.024129547 -0.005229225 0.2963809 -0.092117615 -0.06725021
0.046386592 -0.12842496 -0.18342867 -0.04422825 0.0036310903 -0.09493631 -0.14887822 0.08413062
0.099639066 -0.27051154 0.07027327 0.101581074 -0.14786932 -0.1622703 -0.006219964 0.0027712835
0.087246954 -0.06980744 -0.2346564 0.10292816 -0.11997741 0.19372319 -0.12016742 0.0863983
-0.06642978 -0.06915234 -0.17179626 -0.21637456 -0.13428038 0.38170728 -0.14244488 -0.027178496
0.08342546 -0.098625235 0.15633541 -0.064562306 0.087494604 -0.15795563 0.29396582 -0.102823846
-0.22259833 -0.02402185 -0.19203696 0.08475982 -0.014567597 -0.1154007 0.057046205 0.16379502
0.100783594 0.056646734 -0.09796597 -0.1456908 -0.012544416 -0.20104268 -0.0149538815 -0.0071503185
0.22230726 0.016608164 -0.11233991 0.05222638 0.16074076 0.15847385 0.084650755 -0.06287884
0.09750228 -0.20049594 0.12161772 -0.02972509 0.0024344027 0.18027717 -0.3091017 -0.21534508
0.06616074 -0.2787431 -0.008419485 0.45613402 -0.011818849 0.036457825 0.056902558 0.19377947
0.20928308 0.13807863 -0.12222608 0.12290529 -0.0028902814 0.04213746 0.09132759 0.038689114
0.021659685 0.11083103 0.054342587 -0.1997512 0.2011174 -0.074165106 -0.16296983 -0.081315994
0.0132707 -0.0031593572 0.14766128 0.06736386 -0.00405568 -0.023733662 -0.09893406 0.019862885
-0.006980472 0.009889776 -0.012357105 -0.20238066 -0.21919252 0.0961275 0.09064476 0.119534425
-0.06926521 0.22476536 -0.04606197 -0.09811325 0.13643637 -0.09919488 0.04842352 -0.07512435
-0.078965664 0.15734458 -0.052287877 -0.076220155 -0.009599458 -0.007658068 0.15257676 -0.04522349
0.28817624 0.20210627 0.039468735 -0.15969314 0.13608047 0.051612 -0.06736202 0.038366176
-0.28816438 -0.045927756 -0.011924371 -0.28966954 -0.018649498 0.09906642 0.08231789 -0.31793556
-0.08554379 -0.03752222 -0.09774724 0.18286821 0.047769908 -0.3061386 0.13042554 0.2518706
0.0932158 0.020817226 0.059530083 -0.106593736 -0.09906863 0.14850609 -0.039108735 -0.14484684
0.17272048 -0.045728598 -0.19066499 0.058613524 0.11900485 -0.07835697 0.24862769 0.035005018
-0.21001324 0.09496193 0.011227861 -0.0293631 -0.032302976 -0.039663978 0.09557285 0.021321801
-0.037179954 -0.07514538 0.14663742 -0.32469594 0.28092772 -0.04516793 0.19077894 -0.25023213
0.028360492 -0.07360897 0.15263282 -0.22260298 0.02512495 0.07944604 0.04288947 -0.06786016
0.28950623 0.06621457 -0.11105724 0.073609695 -0.16003133 0.13804483 0.16459475 -0.19909133
0.03096706 -0.2570533 -0.03941436 -0.010632945 -0.1513684 -0.0052949805 0.041926414 0.18218166
-0.030693436 -0.23872085 0.19537732 -0.006145931 0.122842796 -0.055700745 -0.069516264 -0.024574092
-0.12361688 0.21978475 0.051921196 -0.11652103 -0.07020548 0.045911998 0.06314922 -0.06050253
00000000: f02a e9bd 79f5 6abd 9416 b03e 2b22 91bd
00000010: cf54 59bd e932 80bd bdfa 1a3e 08d9 403e
00000020: 5791 123e a6b1 473d 3edc 6abd bce1 b33c
00000030: baa1 74be cc45 d73e 2101 673d 9ae1 cb3d
00000040: ebd7 57bc 4a28 0f3e ca9b 58bd 785d 563e
00000050: 33b3 fd3d 029c ad3d 7b14 2f3c e3d8 98bd
00000060: b3f9 ebbd 3aab 023e e233 58be 54ab c5bc
00000070: eb59 abbb 3dbf 973e 29a8 bcbd 7aba 89bd
00000080: deff 3d3d d581 03be bad4 3bbe ae28 35bd
00000090: 96f7 6d3b f86d c2bd 8873 18be ad4c ac3d
000000a0: 910f cc3d 7d80 8abe 6feb 8f3d bd09 d03d
000000b0: 0e6b 17be 2f2a 26be d7d0 cbbb 6c9e 353b
000000c0: 88ae b23d 34f7 8ebd c449 70be 00cc d23d
000000d0: b7b6 f5bd 5f5f 463e 561a f6bd 98f1 b03d
000000e0: 560c 88bd be9f 8dbd 5ceb 2fbe 4b91 5dbe
000000f0: cc80 09be 236f c33e 12dd 11be 70a5 debc
00000100: f8da aa3d 07fc c9bd 6416 203e 3e39 84bd
00000110: 5f30 b33d 1fbf 21be b082 963e 4f95 d2bd
00000120: d1f0 63be 79c9 c4bc 56a5 44be 8e96 ad3d
00000130: eeac 6ebc 3457 ecbd 48a9 693d e2b9 273e
00000140: a167 ce3d 6806 683d 62a2 c8bd f82f 15be
00000150: 1887 4dbc 22de 4dbe 2001 75bc 384d eabb
00000160: 84a4 633e d80d 883c 7712 e6bd 54eb 553d
00000170: 3a99 243e f846 223e 605d ad3d 9fc6 80bd
00000180: 46af c73d cf4e 4dbe b612 f93d 0882 f3bc
00000190: 808a 1f3b 949a 383e 9442 9ebe 6c83 5cbe
000001a0: 487f 873d 6ab7 8ebe e1f1 09bc 668a e93e
000001b0: d8a3 41bc cd54 153d a812 693d 206e 463e
000001c0: 4e4e 563e 7c64 0d3e ab51 fabd c5b5 fb3d
000001d0: e06a 3dbb 5498 2c3d f609 bb3d 7a78 1e3d
000001e0: a76f b13c 61fb e23d 5596 5e3d 948b 4cbe
000001f0: b8f1 4d3e e0e3 97bd 90e1 26be 0089 a6bd
00000200: 5a6d 593c 380d 4fbb 8534 173e 10f6 893d
00000210: 82e5 84bb 196d c2bc f19d cabd 7db7 a23c
00000220: 71bc e4bb ba08 223c 7475 4abc e03c 4fbe
00000230: 0174 60be 7fde c43d f6a3 b93d 77ce f43d
00000240: ebda 8dbd e428 663e 7aab 3cbd 9aef c8bd
00000250: fab5 0b3e af26 cbbd be57 463d ccda 99bd
00000260: c0b8 a1bd f01e 213e d02b 56bd 5019 9cbd
00000270: 0c47 1dbc 88f0 fabb 153d 1c3e 443c 39bd
00000280: d68b 933e f2f4 4e3e f8a9 213d 9986 23be
00000290: ae58 0b3e 1b67 533d 19f5 89bd da25 1d3d
000002a0: 488a 93be be1e 3cbd 705e 43bc 914f 94be
000002b0: d5c6 98bc 56e3 ca3d 4896 a83d 73c8 a2be
000002c0: 9531 afbd e6b0 19bd b42f c8bd ce41 3b3e
000002d0: 61aa 433d 33be 9cbe 468e 053e 2ff5 803e
000002e0: ede7 be3d e388 aa3c d1d5 733d d14d dabd
000002f0: 7ee4 cabd fb11 183e 7b30 20bd bb52 14be
00000300: a3dd 303e e94d 3bbd af3d 43be bc14 703d
00000310: d1b8 f33d 9e79 a0bd 4298 7e3e 6c61 0f3d
00000320: b60d 57be 667b c23d 10f5 373c e28a f0bc
00000330: 2050 04bd b276 22bd b3bb c33d 0fab ae3c
00000340: 024a 18bd d2e5 99bd 1f28 163e 8c3e a6be
00000350: c2d5 8f3e 0202 39bd 8e5b 433e 6d1e 80be
00000360: 4354 e83c 4dc0 96bd c74b 1c3e 09f2 63be
00000370: d7d2 cd3c 9bb4 a23d deac 2f3d 44fa 8abd
00000380: 293a 943e 819b 873d fa71 e3bd aec0 963d
00000390: 41df 23be a05b 0d3e 878b 283e 99de 4bbe
000003a0: a2ae fd3c 7d9c 83be f470 21bd ce35 2ebc
000003b0: 5100 1bbe 8481 adbb 08bb 2b3d d48d 3a3e
000003c0: cd70 fbbc 3d73 74be fe10 483e ce63 c9bb
000003d0: 0195 fb3d 7726 64bd 8b5e 8ebd 9b4f c9bc
000003e0: d92a fdbd 410f 613e 52ab 543d 94a2 eebd
000003f0: e4c7 8fbd 380e 3c3d 6154 813d 80d1 77bd

arith.constant18 f4 [50]
-0.037493058 0.074270986 0.053759288 0.065926015 -0.06670006 -0.08423913 0.19871351 0.078014575
0.22466299 -0.08771635 0.13532178 0.17988332 0.005133081 -0.007315515 0.03454626 0.35154566
0.16257484 0.05495634 -0.010323369 -0.19603938 0.06447292 -0.040951032 0.09716349 0.41877913
0.278743 0.14811315 -0.0005138693 -0.08071046 -0.06504857 0.08086428 -0.19580035 -0.09153172
0.09538718 -0.035145614 0.023300266 -0.022722472 0.009353315 0.060460478 0.28215545 -0.03100256
0.03665989 0.23727053 -0.051803723 0.34866586 -0.114724316 0.25742015 -0.120141305 0.47704735
0.21106274 0.033293307
00000000: 5292 19bd 631b 983d b332 5c3d 3804 873d
00000010: 0b9a 88bd 9185 acbd 8e7b 4b3e 1bc6 9f3d
00000020: 0e0e 663e a1a4 b3bd cb91 0a3e 5533 383e
00000030: 6833 a83b fdb6 efbb 6180 0d3d cbfd b33e
00000040: 057a 263e e619 613d 5923 29bc 8cbe 48be
00000050: 610a 843d 45bc 27bd a7fd c63d 386a d63e
00000060: 67b7 8e3e f9aa 173e 2fb5 06ba 874b a5bd
00000070: 2f38 85bd 2c9c a53d e37f 48be fb74 bbbd
00000080: 5b5a c33d d9f4 0fbd 33e0 be3c 7a24 babc
00000090: a63e 193c 68a5 773d ae76 903e 15f9 fdbc
000000a0: ae28 163d 0cf7 723e 2430 54bd 5584 b23e
000000b0: 95f4 eabd 93cc 833e a50c f6bd 8d3f f43e
000000c0: d520 583e 905e 083d
