models/tflite/SRNN/SRNN-Large.tflite (tflite, 51156 bytes, 5 tensors)

arith.constant3 f4 [2, 100]
0	0xbe014d87	-0.1262723
1	0x3cfa9b08	0.030591503
2	0x3bcea473	0.006306225
3	0x3ecf38c2	0.4047299
4	0x3f25089a	0.6446625
5	0xbe3a3cb3	-0.18187217
6	0x3eb690bc	0.356573
7	0x3f0b1919	0.5433517
8	0xbaf3d916	-0.0018604125
9	0x3ec46771	0.3836017
10	0x3f0d05ac	0.5508678
11	0x3efa58da	0.48895913
12	0xbd5d06df	-0.05396163
13	0x3ef0bb0f	0.47017714
14	0x3ee7e7ea	0.45294124
15	0xbe7c9547	-0.2466632
16	0x3d25ea90	0.0405069
17	0x3eeda1d2	0.46412522
18	0x3f13ea2c	0.5777919
19	0x3f199235	0.5998872
20	0xbe63c9ed	-0.22244997
21	0x3ed9a4ce	0.42508548
22	0x3f069047	0.525639
23	0xbf01351a	-0.5047165
24	0x3e5c180c	0.21493548
25	0x3d78317f	0.06059408
26	0x3e12079c	0.14260715
27	0x3e2461ec	0.16052979
28	0x3ee1b379	0.4408224
29	0x3f5d2678	0.86386824
30	0xbdec964a	-0.11552103
31	0x3eff7f5a	0.4990185
32	0x3e603a7b	0.21897309
33	0xbe96df20	-0.29467106
34	0x3ea0aac7	0.31380293
35	0x3e82df59	0.25561026
36	0xbe9a986e	-0.3019442
37	0x3f3fc845	0.7491496
38	0xbea50e4d	-0.32237473
39	0x3ecf73f5	0.40518156
40	0xbf2c287e	-0.67249286
41	0x3e32d0dd	0.17462488
42	0xbec03dba	-0.37547094
43	0xbf1e1329	-0.61747986
44	0x3ef0a591	0.47001317
45	0x3d7f1d25	0.062283654
46	0x3e875dfc	0.26438892
47	0x3eff4c49	0.49862888
48	0x3f2f2eb5	0.68430644
49	0xbe8afc9a	-0.27145845
50	0x3f1ad6c1	0.6048394
51	0x3f1fc58f	0.62410825
52	0x3eb9880b	0.36236605
53	0xbdcb52d9	-0.09927911
54	0x3f1afd13	0.6054241
55	0x3f236ef3	0.6384117
56	0xbd1ae2f0	-0.03781408
57	0xbd4ebd12	-0.05047328
58	0xbec9945b	-0.39371
59	0x3f436969	0.7633272
60	0x3edb1a93	0.42793712
61	0x3e3dd2ab	0.18537395
62	0x3ea4cd17	0.3218772
63	0x3e0b88bc	0.13626379
64	0x3f0dc734	0.55382085
65	0xbe844e6a	-0.25841075
66	0x3ac32a75	0.0014889973
67	0x3df759cc	0.12077674
68	0x3df95852	0.12175049
69	0x3f09e328	0.5386224
70	0x3efcb708	0.49358392
71	0x3f4040ee	0.75099075
72	0x3ea19494	0.3155867
73	0x3e2e76d9	0.17037524
74	0x3ebeba8e	0.37251705
75	0xbe85b44d	-0.2611412
76	0x3f4a5956	0.79042566
77	0xbdd816a3	-0.105511926
78	0x3e528c49	0.20561327
79	0xbb008a3c	-0.0019613644
80	0xbde16eca	-0.110074595
81	0x3edad6b8	0.42741942
82	0x3f588cf6	0.8459009
83	0x3f425f44	0.75926614
84	0xbe05c0e8	-0.13061869
85	0x3d9a1906	0.07524304
86	0xbf0a6bce	-0.54070747
87	0x3ebc95e8	0.3683312
88	0x3f14bd77	0.581016
89	0xbec65e52	-0.38743836
90	0xbeceb649	-0.40373448
91	0x3ef0bc34	0.47018588
92	0xbe7ec47f	-0.24879645
93	0x3f14bda5	0.58101875
94	0x3edd3bd3	0.43209705
95	0x3f16f6f5	0.58970577
96	0x3ed54845	0.416567
97	0xbec79d0e	-0.3898701
98	0x3e9c163b	0.3048571
99	0xbe1c86fb	-0.15285866
100	0xbe7436f8	-0.23849094
101	0xbed2883c	-0.41119564
102	0x3daed97f	0.08537578
103	0xbe2f25f4	-0.17104322
104	0xbed17de1	-0.4091635
105	0xbc5a3ea4	-0.013320599
106	0xbebacc4b	-0.36483988
107	0xbf22ce4f	-0.6359605
108	0x3dff8609	0.12476737
109	0xbf0ff33c	-0.5623052
110	0xbee4ec59	-0.4471157
111	0xbebc2a96	-0.3675124
112	0x3ddfda4b	0.10930308
113	0xbf2e5b51	-0.6810809
114	0xbf43e67e	-0.7652358
115	0x3ec056a7	0.3756611
116	0x3e8e6e74	0.27818644
117	0xbf0a5173	-0.5403053
118	0xbec5452a	-0.3852933
119	0xbe1fccd2	-0.15605476
120	0x3e848183	0.2588006
121	0xbf2762e4	-0.6538527
122	0xbf23ad24	-0.63936067
123	0x3ecf2906	0.40460986
124	0xbf0b8e0e	-0.54513633
125	0x3e8e9f0a	0.27855712
126	0xbf1397f0	-0.57653713
127	0xbebea813	-0.37237605
128	0xbf0d5b47	-0.55217403
129	0xbf0877ce	-0.5330781
130	0x3ecb338e	0.3968777
131	0xbf32cfda	-0.69848406
132	0xbeae9c92	-0.3410383
133	0x3ea57f76	0.32323807
134	0xbec8ae33	-0.39195403
135	0xbeb3f21b	-0.3514565
136	0x3f104e7e	0.5636977
137	0xbf3572d5	-0.70878345
138	0x3e6d49f0	0.23172736
139	0xbef71b5a	-0.48263055
140	0x3f0c521c	0.5481279
141	0xbe0968e8	-0.13418925
142	0x3e76b155	0.24091084
143	0x3eb9ba01	0.36274722
144	0xbedf4395	-0.43606248
145	0xbe42bd5d	-0.19017549
146	0xbe686f50	-0.22698712
147	0xbf0fa959	-0.5611778
148	0xbefcc0c3	-0.49365816
149	0x3ead593a	0.33857137
150	0xbf0e5c5c	-0.5560968
151	0xbecdacce	-0.40170902
152	0xbf478896	-0.7794279
153	0xba38c569	-0.00070484594
154	0xbec77529	-0.38956574
155	0xbeded4f8	-0.43521857
156	0xbe7fc4c9	-0.24977411
157	0x3e7f0e43	0.24907784
158	0x3dd413c7	0.10355335
159	0xbf0c27e5	-0.54748374
160	0xbef58fda	-0.47961313
161	0xbeae2174	-0.34009898
162	0x3d6bb3da	0.057544567
163	0xbe083b18	-0.13303792
164	0xbef21301	-0.47280124
165	0x3f04aeee	0.5182942
166	0xbeb185ff	-0.34672543
167	0xbec4a7c4	-0.38409245
168	0xbf0ee5e2	-0.55819523
169	0xbede6492	-0.43436104
170	0xbf1d963c	-0.61557364
171	0xbf27fa1b	-0.65616006
172	0xbeb59597	-0.3546569
173	0xbec0a2b7	-0.37624142
174	0xbeb43be6	-0.3520195
175	0x3e9cf410	0.30654955
176	0xbefccd10	-0.493752
177	0x3d11adcc	0.035566136
178	0xbec15f0a	-0.37767822
179	0xbc72f959	-0.014829957
180	0x3d74283b	0.05960868
181	0xbe808ee5	-0.2510902
182	0xbf5cd4bb	-0.862621
183	0xbef666f9	-0.48125437
184	0xbc8f10d2	-0.017464075
185	0xbea54174	-0.322765
186	0x3f097ac2	0.5370294
187	0xbf348d9d	-0.70528585
188	0xbf49e829	-0.78869873
189	0x3e6a3089	0.22870077
190	0x3e81fb90	0.2538724
191	0xbf1a1588	-0.60189104
192	0x3eb55b4d	0.3542122
193	0xbf142480	-0.57868195
194	0xbf315455	-0.69269305
195	0xbebf101e	-0.37316984
196	0xbf3af87f	-0.73035425
197	0x3e655f55	0.22399648
198	0xbf367dd1	-0.7128573
199	0x3ea6aa04	0.32551587

arith.constant4 f4 [2]
0	0xbe179aee	-0.14805195
1	0x3e179af1	0.14805199

arith.constant16 f4 [100, 3]
0	0xbdb3cf50	-0.08779776
1	0x3d61ad26	0.055096768
2	0xbeb00b39	-0.34383562
3	0x3e9e996a	0.3097642
4	0x3eab1ee5	0.33422008
5	0xbe242624	-0.16030174
6	0x3dfb6084	0.12274268
7	0x3c4d96d2	0.012548165
8	0xbd3c6630	-0.04599589
9	0x3e8638dc	0.26215255
10	0x3ee6722c	0.4500898
11	0xbd595fa4	-0.053069726
12	0x3f46b66e	0.77622116
13	0xbe518254	-0.20459872
14	0x3ea15fbc	0.31518352
15	0x3d92dadb	0.071706496
16	0xbc65d371	-0.014027462
17	0x3baa0087	0.005188051
18	0x3f1716d8	0.5901923
19	0x3d3b9fe0	0.045806766
20	0x3cff898d	0.031193519
21	0x3f60c2fe	0.87797534
22	0xbe6ba4aa	-0.23012033
23	0x3e9e548b	0.30923876
24	0x3dec7fac	0.11547789
25	0xbd827f90	-0.06371987
26	0x3d249795	0.040183622
27	0x3f68fe05	0.91012603
28	0xbc2f018a	-0.010681519
29	0xbead74f7	-0.338783
30	0x3f487cd5	0.7831548
31	0xbbaeb2d2	-0.0053313756
32	0xbe97679f	-0.29571244
33	0xbe423993	-0.18967275
34	0xbeca35fd	-0.39494315
35	0x3eddcca4	0.4332019
36	0x3e0dc760	0.13845587
37	0x3d9a9f7c	0.075499505
38	0xbd90ac3b	-0.070641
39	0x3ef3ef15	0.47643343
40	0xbe3eaa76	-0.18619713
41	0x3eb5d1b4	0.35511553
42	0x3ec921dd	0.39283648
43	0x3f023b0f	0.50871366
44	0xbf166d74	-0.5876076
45	0xbe0787d5	-0.1323541
46	0x3c20ba07	0.009809977
47	0xbde01281	-0.10941029
48	0xbe09faff	-0.13474654
49	0x3e9c519d	0.30531016
50	0x3da6e5d2	0.081493035
51	0x3ec1a740	0.37822914
52	0x3f078e3a	0.52951396
53	0xbf0ef54a	-0.5584303
54	0x3e682c33	0.2267311
55	0x3e9ef9f4	0.31050074
56	0xbeac9d6e	-0.3371386
57	0x3f5c4d0d	0.8605507
58	0x3d995f27	0.07488852
59	0xbece228d	-0.40260735
60	0xbe0f9ae6	-0.14023933
61	0xbe0422a4	-0.1290384
62	0xbddcb94c	-0.1077753
63	0x3f5998e7	0.84998935
64	0xbd78fdc9	-0.060788903
65	0x3e110407	0.14161693
66	0x3f2f77cc	0.6854217
67	0xbb81ca46	-0.0039608805
68	0xbe84ec42	-0.259615
69	0x3de46f85	0.11154083
70	0x3f38ed6f	0.72237295
71	0x3d67f55d	0.05663048
72	0x3f6ad4ee	0.91731155
73	0xbe0000b6	-0.12500271
74	0x3d37cccc	0.044873044
75	0xbe34d21d	-0.17658277
76	0x3eb0eeeb	0.3455728
77	0x3db1c0fe	0.086793885
78	0x3ee362fb	0.44411454
79	0xbe334c7e	-0.17509648
80	0x3ea9cd3b	0.3316439
81	0x3ef972d6	0.48720425
82	0xbe416728	-0.18887007
83	0xbcaed595	-0.021342078
84	0x3ee9ff6d	0.45702687
85	0x3f13e498	0.5777068
86	0xbf2cd1a7	-0.67507404
87	0xbe95ad21	-0.2923365
88	0x3e7c9242	0.24665168
89	0xbf3ddda3	-0.74166316
90	0x3d2dabef	0.042400297
91	0x3f315b28	0.6927972
92	0x3d7bcc48	0.061474115
93	0x3edc9d65	0.43088832
94	0xbe2bfdf6	-0.16796097
95	0x3ea4a716	0.32158726
96	0xbe97221c	-0.2951821
97	0xbeb738e8	-0.35785604
98	0xbc919735	-0.017772296
99	0x3da4746c	0.08030018
100	0x3f2df52a	0.67952216
101	0x3e07191c	0.13193172
102	0x3f69b701	0.91294867
103	0x3e250f54	0.16119128
104	0xbef8f60a	-0.48625213
105	0x3eedc326	0.4643795
106	0xbd4fbef5	-0.05071922
107	0x3deb55cc	0.11490974
108	0x3d8d1cd6	0.06890266
109	0x3f488e7a	0.783424
110	0x3c138846	0.009004658
111	0x3e717134	0.2357834
112	0x3ec115f0	0.3771205
113	0xbea8d881	-0.3297768
114	0xbdf38ca9	-0.11892063
115	0xbb4d85a1	-0.0031360167
116	0xbdc4628a	-0.09589107
117	0x3f85ff49	1.0468532
118	0xbe8075a0	-0.2508974
119	0x3e83dc41	0.25753978
120	0x3da1944d	0.07889614
121	0x3f36269d	0.7115267
122	0x3d1f335e	0.038867347
123	0xbea06bf5	-0.31332365
124	0xbaee7215	-0.0018191958
125	0x3e0f2a36	0.13980946
126	0xbe142b30	-0.144696
127	0xbaebb916	-0.0017984237
128	0xbddc924a	-0.1077009
129	0x3d932c3e	0.07186173
130	0x3f38b237	0.72146934
131	0x3bf5bcf4	0.0074993316
132	0x3f7b2f28	0.9811883
133	0xbe87323d	-0.26405516
134	0x3ebd9664	0.370288
135	0xbeb4b4f7	-0.35294315
136	0xbca343b4	-0.019929744
137	0x3d1d4f72	0.038405843
138	0xbdde0952	-0.108416215
139	0x3db1ae3d	0.086758114
140	0xbea1c538	-0.31595778
141	0x3f138c1d	0.5763567
142	0xbd0f67f0	-0.035011232
143	0x3cfc96c6	0.030833613
144	0xbdd64016	-0.10461442
145	0x3f03e23b	0.51517075
146	0xbf044500	-0.51667786
147	0x3d11afc6	0.03556802
148	0x3f13f6bd	0.5779837
149	0x3cec5ec6	0.028853785
150	0x3f652f4b	0.8952529
151	0xbbf64073	-0.007515007
152	0xbeae2644	-0.3401357
153	0x3edf1865	0.435733
154	0x3f0eea18	0.5582595
155	0xbf24e645	-0.64413863
156	0x3f134407	0.57525676
157	0xbe67f227	-0.22650968
158	0x3edb74dd	0.42862597
159	0x3bebdf2e	0.007198236
160	0x3ca2369f	0.019801436
161	0xbd4210bd	-0.047379244
162	0x3f4f9d93	0.81099814
163	0xbe41b444	-0.18916422
164	0x3e47a241	0.19495489
165	0x3f2ceaeb	0.67545956
166	0xbbe18ba7	-0.006883103
167	0xbe8318e3	-0.25604925
168	0x3e889ac7	0.26680586
169	0x3da45b84	0.08025268
170	0x3e2b54f1	0.16731621
171	0xbe42f2aa	-0.19037881
172	0xbb3de5a2	-0.0028975983
173	0xbdc14b83	-0.09438231
174	0xbe1a5a04	-0.150734
175	0x3c4451a3	0.011982354
176	0xbde5a2ad	-0.112126686
177	0x3f4f7f97	0.8105406
178	0xbb6bae3d	-0.0035962008
179	0xbe9f4fde	-0.3111562
180	0x3f5e8d71	0.8693457
181	0xbbdb0adc	-0.006684644
182	0xbea91a09	-0.33027676
183	0x3f272163	0.6528532
184	0xbe87b8a8	-0.2650807
185	0xbd048762	-0.032355674
186	0xbe7f9df5	-0.249626
187	0xbe865f07	-0.26244375
188	0x3def8154	0.11694589
189	0x3e9e6c6c	0.30942094
190	0xbdd9cd15	-0.106348194
191	0xbdbdb027	-0.09262114
192	0x3f4a5c06	0.79046667
193	0xbe55ecbe	-0.20891091
194	0x3e980385	0.29690185
195	0x3e09de19	0.1346363
196	0x3f8004bc	1.0001445
197	0x3dfca6ab	0.12336477
198	0xbea1c3a3	-0.3159457
199	0xbda1ce2b	-0.079006515
200	0xbb80af81	-0.0039271717
201	0x3ea27f2c	0.3173765
202	0xbd9d3501	-0.07676125
203	0x3e0b0806	0.1357728
204	0x3f12cf1d	0.5734728
205	0xbe121d21	-0.14268924
206	0x3e6bb9f2	0.23020151
207	0xbeb0cbf6	-0.3453061
208	0x3e2d1a9f	0.16904686
209	0xbe824589	-0.25443676
210	0x3ed4605b	0.41479763
211	0x3f07097b	0.5274884
212	0xbf1d7500	-0.6150665
213	0x3eae56b9	0.3405054
214	0x3ee30610	0.44340563
215	0xbf01738d	-0.5056694
216	0x3f469e98	0.77585745
217	0x3cdeda74	0.027203776
218	0x3d95e7d4	0.07319608
219	0x3ea9c4cf	0.33157966
220	0xbdab2b40	-0.08357859
221	0x3e1b0334	0.1513794
222	0x3f37a91c	0.71742415
223	0x3c1311f9	0.008976453
224	0x3dc1a0b1	0.094544776
225	0x3d6f79a9	0.058465634
226	0x3f16c4ee	0.5889424
227	0x3dc1ba9a	0.094594195
228	0x3ea9c49d	0.33157817
229	0x3ee10037	0.43945476
230	0xbeff1232	-0.4981857
231	0xbe4d31d2	-0.20038536
232	0x3eb2e17b	0.34937653
233	0x3e35ad5a	0.1774191
234	0xbe91cd92	-0.2847715
235	0xbecb46b3	-0.39702377
236	0x3e1d90a9	0.15387215
237	0xbd01b2e4	-0.031664744
238	0x3e33ae10	0.17546868
239	0x3dbd686a	0.09248431
240	0x3dbb228d	0.091374494
241	0x3bac7557	0.0052630114
242	0xbd216e1f	-0.03941166
243	0x3f087c1d	0.5331438
244	0x3d50bce5	0.050961394
245	0xbb52fb87	-0.003219338
246	0xbe9566b5	-0.29179922
247	0x3e7d0006	0.2470704
248	0xbf33961c	-0.70150924
249	0x3f4d3b18	0.80168295
250	0xbc9894db	-0.018625667
251	0xbe99280e	-0.29913372
252	0xbe46de09	-0.19420637
253	0xbe4aeb65	-0.19816358
254	0x3b3f728c	0.0029212562
255	0xbded0d37	-0.11574786

arith.constant17 f4 [100, 100]
0	0xbd0aa440	-0.033848047
1	0xbe12a71d	-0.14321561
2	0xbe2df393	-0.16987447
3	0xbdfee625	-0.1244624
4	0x3d913e9f	0.07092022
5	0x3dbb0f77	0.09133809
6	0xbd09d27a	-0.03364799
7	0x3dceac88	0.100915015
8	0xbe11c042	-0.14233497
9	0x3e1cc3d6	0.1530908
10	0xba8065a3	-0.0009795915
11	0x3dd02a79	0.10164351
12	0xbe021968	-0.12705004
13	0xbdcf91c9	-0.10135228
14	0x3c1d9105	0.009617095
15	0x3cdb9f9a	0.026809502
16	0x3e38d6d7	0.18050705
17	0x3e0162bf	0.12635325
18	0xbd499057	-0.04920992
19	0x3e131b42	0.14365867
20	0xbde33c10	-0.110954404
21	0x3c7c77d3	0.015409428
22	0xbd49f34a	-0.049304284
23	0x3d7d5119	0.06184492
24	0x3cddba8c	0.027066492
25	0xbd161dce	-0.036649518
26	0x3d207f45	0.039183874
27	0x3dbdb8b1	0.09263743
28	0xbcc7f268	-0.02440758
29	0x3cd558bc	0.026043288
30	0x3dc94968	0.09828454
31	0xbd994886	-0.07484536
32	0xbe11abb8	-0.14225662
33	0xbc8f3215	-0.017479936
34	0x3da299a1	0.07939459
35	0x3df942f3	0.12170973
36	0xbd6978ec	-0.057000086
37	0xbd9eaf47	-0.07748275
38	0xbe05d5e8	-0.1306988
39	0x3d98a71b	0.07453748
40	0x3e1da197	0.15393673
41	0xbd8d63b5	-0.06903783
42	0x3d8e54d2	0.06949772
43	0x3d141bd9	0.03615937
44	0x3c65ab5a	0.014017904
45	0x3c06c38a	0.008225331
46	0xbdb9b89f	-0.09068417
47	0x3bef0d43	0.007295282
48	0xbd7b9e02	-0.061429985
49	0x3c0deb6d	0.008662087
50	0xbc9f6697	-0.019458098
51	0x3d957b5f	0.07298922
52	0x3e89f316	0.26943272
53	0xbbde0aba	-0.006776181
54	0xbe72ec9c	-0.23723072
55	0xbdae84de	-0.08521436
56	0x3c96d7a1	0.018413367
57	0x3df3c2d0	0.11902392
58	0x3deb6bb3	0.11495151
59	0x3dcdc7a2	0.100478426
60	0x3dc588de	0.09645246
61	0x3d141dd2	0.03616125
62	0xbe5325d3	-0.20619898
63	0x3e80a48c	0.2512554
64	0xbd913fdc	-0.07092258
65	0x3dea9bed	0.11455522
66	0x3c0acab7	0.008471183
67	0xbda95753	-0.08268609
68	0x3d91f35c	0.07126495
69	0xbd99b6bc	-0.07505557
70	0x3df98c8b	0.121850096
71	0xbb427117	-0.0029669458
72	0xbc9a95e8	-0.018870309
73	0x3cc08f3d	0.023505801
74	0xbcd92986	-0.026509058
75	0x3dd5427e	0.10413073
76	0x3e156bc8	0.14591897
77	0x3d066c53	0.03281815
78	0xbd8e4bda	-0.06948061
79	0xbe64bfcd	-0.22338791
80	0xbcb64a92	-0.022252355
81	0x3e39b65b	0.1813597
82	0xbe221805	-0.15829475
83	0xbd6b74c5	-0.057484407
84	0xbd54ed2e	-0.051984005
85	0xbd73ce16	-0.05952271
86	0x3e10ee2b	0.14153354
87	0x3d80a9cb	0.062823854
88	0xbd776e9a	-0.060408212
89	0x3e09cc19	0.13456763
90	0xbd62df8b	-0.05538897
91	0xbac1e61c	-0.0014793309
92	0x3d051abd	0.032496203
93	0xbc107030	-0.00881581
94	0xbdea12cf	-0.11429369
95	0x3d628f88	0.055312663
96	0x3d0b73dc	0.03404604
97	0x3c6f940c	0.0146226995
98	0x3dcdd63f	0.1005063
99	0xbda7a37e	-0.081854805
100	0xbe2b5052	-0.16729859
101	0xbce0d4c0	-0.027445197
102	0xbdfbc010	-0.122924924
103	0xbe0e7014	-0.13909942
104	0x3d32d820	0.043663144
105	0xbc6cd1d1	-0.014454321
106	0xbd9e2b27	-0.077230744
107	0x3df4b8d0	0.11949313
108	0xbd7f36d4	-0.062308148
109	0xbc50b6a6	-0.012738859
110	0x3d8c44fe	0.06849097
111	0x3e19435b	0.149671
112	0x3d087670	0.033316076
113	0x3d9cd256	0.07657306
114	0x3d490204	0.049074188
115	0x3baf25bf	0.005345076
116	0xbe36a866	-0.17837676
117	0xbd1ce0a2	-0.038300164
118	0x3dc56a3d	0.09639404
119	0x3e07a1ad	0.13245268
120	0xbdb2f076	-0.087372705
121	0x3c289804	0.01029015
122	0x3bbcf74e	0.0057667857
123	0x3e03e0d8	0.1287874
124	0x3da5c1b7	0.08093589
125	0xbc55b42e	-0.0130434465
126	0x3d6abeb2	0.057310767
127	0x3d1c0a28	0.038095623
128	0x3e0ec8be	0.13943765
129	0x3e326d0c	0.1742441
130	0x3d4f2242	0.05056978
131	0x3cfa08a2	0.030521695
132	0x3c8e0b62	0.017339412
133	0x3c445b69	0.0119846845
134	0x3d33ee03	0.043928158
135	0xbd184412	-0.037174292
136	0xbdc99986	-0.098437354
137	0x3e496b1b	0.19669764
138	0xbca8855e	-0.020571407
139	0x3eb4585b	0.3522366
140	0xbde57e43	-0.11205723
141	0x3d17d643	0.03706957
142	0x3ac57cd8	0.0015067114
143	0xbb171b64	-0.0023057098
144	0x3ab3b3f0	0.0013710242
145	0xbde09aba	-0.10967012
146	0x3c142855	0.009042819
147	0xbd7d9fa7	-0.061919834
148	0x3d0acf61	0.03388918
149	0x3e02ed65	0.12785871
150	0xbde42f59	-0.11141843
151	0xbca26c32	-0.019826982
152	0xba881e60	-0.0010385029
153	0xbdaa50ce	-0.083161935
154	0x3e54144e	0.2071087
155	0x3d829f4f	0.06378042
156	0xbce7fd48	-0.028319016
157	0xbdf13ba4	-0.11778954
158	0x3d985b26	0.0743926
159	0xbe30c1b5	-0.17261393
160	0xbe22ce62	-0.15899041
161	0xbda8e3e8	-0.08246595
162	0xbd9e0c0c	-0.077171415
163	0xbd8e4988	-0.06947619
164	0x3d057849	0.032585416
165	0x3dbb182c	0.0913547
166	0xbda16466	-0.078804776
167	0x3b300c34	0.0026862742
168	0xbd56eb0b	-0.05247025
169	0x3dedbb03	0.11607935
170	0x3d630a63	0.055429827
171	0xbd646057	-0.05575594
172	0x3d9c2e85	0.076260604
173	0x3e3490cc	0.1763336
174	0x3db0909e	0.086213335
175	0xbce6aa82	-0.028157476
176	0xbdc72d97	-0.097254924
177	0xbda167c2	-0.07881118
178	0xbd5f957c	-0.05458592
179	0xbdc4ecd8	-0.09615487
180	0xbdcdf79b	-0.100569926
181	0x3cc9c2e0	0.024629056
182	0xbd3fe4f9	-0.046849225
183	0x3de8398f	0.113391034
184	0x3dac6a3d	0.08418701
185	0xbd89ceee	-0.06728922
186	0x3d89f108	0.06735426
187	0xbe57c872	-0.21072558
188	0x3d0bc268	0.034120947
189	0xbcf4e60b	-0.02989485
190	0xbe636679	-0.22207059
191	0xbdc823ea	-0.09772475
192	0xbd812a67	-0.06306916
193	0x3d2b5d62	0.041837104
194	0x3d7944cc	0.060856625
195	0x3dbc0961	0.091814764
196	0x3e7f0a49	0.24906267
197	0xbd55e488	-0.052219898
198	0x3c4e471a	0.012590194
199	0x3b050ec8	0.0020303
200	0x3c196fd0	0.009365037
201	0xbd300fe4	-0.042983904
202	0xbe402758	-0.18765008
203	0x3db8f2f4	0.09030715
204	0x3e2dba5f	0.16965626
205	0x3e153c94	0.1457389
206	0xbdea08d0	-0.11427462
207	0x3c072d00	0.008250475
208	0xbd97a1c9	-0.07403905
209	0x3de3cebd	0.111234166
210	0x3b219861	0.0024657475
211	0xbdcc5935	-0.099779524
212	0xbe1aa9d5	-0.15103848
213	0xbd2b4e76	-0.041822873
214	0x3dfb3023	0.12265041
215	0x3d478da9	0.048719082
216	0xbe07946f	-0.13240217
217	0xbe64777d	-0.22311206
218	0xbd9c2b72	-0.07625474
219	0xbd08a525	-0.03336062
220	0x3e3a14fe	0.1817207
221	0x3d78dfd6	0.06076034
222	0x3bbe7b50	0.00581304
223	0xbc1c85be	-0.009553371
224	0x3c81933a	0.015817273
225	0xbdcc3eec	-0.09972939
226	0xbd7c1bb3	-0.061549854
227	0xbd893d66	-0.06701164
228	0xbd635c8f	-0.055508193
229	0x3e0f763c	0.14009947
230	0xbd19dae6	-0.037562273
231	0x3d890f81	0.0669241
232	0xbd1d6271	-0.03842396
233	0x3bb603b0	0.005554639
234	0x3d8ce6e9	0.0687998
235	0xbe0ae850	-0.13565183
236	0x3e04c01f	0.12963913
237	0xbc9bd21a	-0.019021083
238	0xbd8417ab	-0.06449827
239	0xbd747183	-0.059678566
240	0x3d70a823	0.058754098
241	0xbc68be44	-0.014205519
242	0xbe12892c	-0.1431014
243	0x3d9bcab3	0.07607021
244	0x3ce9e58c	0.02855184
245	0xbd853ae4	-0.06505373
246	0x3d9fd3d1	0.07804073
247	0x3d83204e	0.06402646
248	0xbd449203	-0.04799081
249	0x3d713d40	0.058896303
250	0x3d06e7b2	0.032935806
251	0x3bdc9a23	0.0067322417
252	0x3c34b0df	0.0110284975
253	0x3b8349e3	0.0040066107
254	0x3e00888d	0.1255209
255	0xbc5c08e4	-0.013429854

arith.constant18 f4 [100]
0	0xbd32fc8b	-0.043697875
1	0x3e481faf	0.19543336
2	0xbd99dc3e	-0.07512711
3	0x3d0c2dce	0.03422337
4	0x3dab7efe	0.08373831
5	0xbd331d94	-0.04372938
6	0x3df137db	0.11778232
7	0x3db3ff38	0.087889135
8	0xbdc9f5ad	-0.09861312
9	0xbd43dc25	-0.047817368
10	0xbd27b0bc	-0.04094003
11	0xbd685d41	-0.05672956
12	0xbcc2bdcc	-0.023772143
13	0x3dd6301c	0.10458395
14	0xbd13da02	-0.03609658
15	0x3ec537ca	0.38519126
16	0x3dd8a404	0.105781585
17	0xbd912039	-0.07086224
18	0xbd157a56	-0.03649362
19	0xbd06e29d	-0.03293096
20	0x3e6c5aab	0.23081462
21	0x3dfbd2fc	0.122961015
22	0xbd1d17d2	-0.038352795
23	0x3d87eeb0	0.06637323
24	0x3d49950d	0.04921441
25	0x3da2ae76	0.07943432
26	0x3dc60847	0.096695475
27	0xbd5cfb0f	-0.053950366
28	0xbcda5a8d	-0.026654506
29	0xbe44b332	-0.19208983
30	0xbd8682ee	-0.065679416
31	0x3dbfcc5b	0.093651496
32	0xbe132b12	-0.14371899
33	0xbcd812d4	-0.026376165
34	0xbd7408b4	-0.059578612
35	0x3d7bf0b3	0.061508846
36	0xbd091cfb	-0.033474904
37	0xbdb6c819	-0.08924884
38	0x3ec16b92	0.37777382
39	0x3dac4983	0.08412459
40	0x3a62a14c	0.0008645251
41	0xbaa3f72e	-0.0012509578
42	0x3ec0aa07	0.3762972
43	0xbc771e02	-0.015082838
44	0x3dd68c2c	0.104759544
45	0xbda24954	-0.079241425
46	0xbd8fc5e4	-0.070201665
47	0x3d828860	0.06373668
48	0x3c765692	0.015035288
49	0xbd6bc416	-0.05756005
50	0xbd41ec9e	-0.047344796
51	0xbd021f7e	-0.031768315
52	0x3e02e358	0.12782037
53	0xbd69f5ca	-0.05711917
54	0x3d7346e3	0.059393775
55	0xbd174345	-0.036929388
56	0xbdaecfd1	-0.085357316
57	0x3ecd75fe	0.40129083
58	0x3ec9c525	0.39408222
59	0xbd31a3b7	-0.04336902
60	0xbd40b1eb	-0.047044676
61	0xbda86088	-0.08221537
62	0xbe41e181	-0.18933679
63	0xbd91c012	-0.07116713
64	0x3da841e2	0.08215691
65	0x3d81134d	0.063025095
66	0xbe113cf1	-0.14183404
67	0x3d08fc4e	0.03344374
68	0x3d5bfd8d	0.0537086
69	0xbdd94f95	-0.10610882
70	0xbd08f135	-0.033433158
71	0xbd0243ec	-0.031803057
72	0x3e1e4730	0.15456843
73	0x3d127437	0.035755362
74	0x3e0def00	0.13860703
75	0xbd2cc2ea	-0.042178072
76	0xbd21999c	-0.039453134
77	0x3d794be0	0.060863376
78	0xbe15c48a	-0.14625755
79	0x3b1c6b8f	0.002386782
80	0xbd8066a1	-0.06269575
81	0x3dc60f2a	0.09670861
82	0xbe4349af	-0.19071077
83	0xbd0bae61	-0.034101848
84	0x3e23415b	0.159429
85	0xbd973590	-0.07383263
86	0x3e8713e3	0.2638236
87	0x3c853232	0.016259287
88	0xbdb8b7bc	-0.090194196
89	0x3ec0c495	0.3764998
90	0x3ec0a141	0.37623027
91	0xbd733960	-0.05938089
92	0xbe667869	-0.2250687
93	0x3dda1c06	0.10649876
94	0xbdb23bef	-0.08702838
95	0x3de0bea8	0.10973865
96	0xbd58871b	-0.05286322
97	0x3ec22a3d	0.3792285
98	0x3e05f7ef	0.1308286
99	0xbd4423ac	-0.04788558
