models/tflite/SRNN/SRNN-Deep.tflite (tflite, 148580 bytes, 20 tensors)

arith.constant3 f4 [2, 50]
00000000: 6453 553c 04b3 4e3e 1374 81bd 5c64 a83e
00000010: 6a06 60be 419f 4e3e 6b9c 3cbe f81d 59be
00000020: ee20 7b3e 34bc 6abe 8c6c acbe 28b1 a1be
00000030: a8c7 a0bd 08ba 8dbe a07c 2dbe 1483 a0be
00000040: c1ad cdbc a0ed 953e e77a 9cbe 4ccb df3d
00000050: cfeb 983d 9d45 edbd dae6 3e3d d30f 853e
00000060: 8351 193e b50a ad3e d843 a9bd 0c9a 4a3d
00000070: 9cc8 8bbe 9a87 a5be ee19 c53e 2b9f 50be
00000080: 8f35 bb3d fcc2 8c3e 9f95 bcbe c63f 83be
00000090: d061 2abe d154 9b3e 9acf 98bb 344f 9cbd
000000a0: c919 ae3e 02bf 683d d259 3bbc b7ce 55bc
000000b0: b57b b4be 489b 20be 9874 12be d77f f23d
000000c0: d205 99be c265 08be 3cf6 313d 9d70 ecbd
000000d0: 000c 7cbe 3cda 9c3e 115e a13e 9c3f 8b3d
000000e0: 0aeb bb3d 32fb b63e 13c5 b9be 4865 163e
000000f0: f614 6a3e e5e9 443e bd58 35be 43fd 17be
00000100: 7133 58be b377 bc3d dd3c 433e 5bd5 703d
00000110: 930e 07be 94a3 adbe 82c8 69be 9d70 94bd
00000120: 3765 073e 59f2 b63c f8c2 c1bc e291 0f3d
00000130: 5808 c2be f160 303e 6e22 1ebd 1d99 a0bb
00000140: e922 35be bee5 6b3e 825f 43be a3ec c0bd
00000150: fc8e cbbd 5e62 1f3d 68fe 0f3e d321 04be
00000160: cb57 7abe 9884 893e 694c 92bc 3aae 21be
00000170: 5d92 04be ba4b 96be 712b 7f3b dba3 533e
00000180: 3775 25bd f5a2 903e f687 9bbe 71a3 473e
0.01302037 0.20185477 -0.063209675 0.32889068 -0.21877447 0.20177938 -0.18419044 -0.21202838
0.2452428 -0.22923356 -0.33676565 -0.31580472 -0.078505814 -0.27680993 -0.16942072 -0.31350005
-0.025107266 0.29282856 -0.30562517 0.10927448 0.07466852 -0.11585543 0.046606876 0.25988635
0.149725 0.3379723 -0.08264893 0.049463317 -0.2730149 -0.32330018 0.38496345 -0.20373218
0.09141075 0.2749251 -0.36832902 -0.25634593 -0.16638875 0.30338147 -0.00466342 -0.07632294
0.34004048 0.056822784 -0.011434989 -0.013049773 -0.3525063 -0.15684235 -0.1430229 0.1184079
-0.29887253 -0.13320068 0.043447718 -0.11544917 -0.24613953 0.3063525 0.3151708 0.06799242
0.091756895 0.35738522 -0.36283168 0.14687073 0.22859558 0.19229849 -0.17709632 -0.14842705
-0.21113373 0.09202518 0.19066186 0.05879722 -0.13189153 -0.33913863 -0.22830394 -0.07248042
0.13222204 0.022332357 -0.023652539 0.035051234 -0.3789699 0.1722448 -0.038607053 -0.004901065
-0.17689098 0.23036858 -0.19079402 -0.09420135 -0.099393815 0.03891217 0.14061892 -0.12903528
-0.24447553 0.26858974 -0.0178587 -0.15789118 -0.12946458 -0.2935465 0.0038935805 0.20667975
-0.040394988 0.28249326 -0.30377167 0.19495942

arith.constant4 f4 [2]
00000000: 1920 e43c 1720 e4bc
0.027847337 -0.027847333

arith.constant15 f4 [50, 3]
00000000: 09b0 8f3c babc a8be 3c9e bdbc d657 843e
00000010: cff7 2b3e c424 923e 43a1 0dbd e3db 4fbe
00000020: 3516 45bd 6ba0 923d 7e46 96bc ddb3 813e
00000030: 1f79 9ebb 80b4 793d 4179 bbbe 8a08 ebbd
00000040: 74a3 343e ee59 babd 9954 74be b2a4 18be
00000050: 989a 0cbe 82c7 f33e b519 d0bd 1c83 acbe
00000060: fbf4 0e3e 3538 73be dfc8 2fbe a20b c23d
00000070: c39d 99be 9961 373e 7e4d a03e 0821 b4bd
00000080: 92c7 8d3d 75c9 993d d15d 3ebe 1812 8e3d
00000090: bcea 1a3e a7f8 5abe 8e6a aabe a0aa 203e
000000a0: 6c91 8ebd 452e f03d 88a1 793d d5fc 023e
000000b0: a8f7 debd 5737 a4bd 3190 26be fd13 5dbe
000000c0: 5b84 16be 6f36 72be e1b8 43be 8eb2 0b3e
000000d0: 9a5a d9bc 9e2a 313e e7be 2bbe 302a 9e3e
000000e0: be4e 1ebe a5f1 113e bbff 50be a39f 013e
000000f0: 1867 693c 452c 67be 85bf 413e 0481 9ebe
00000100: ef28 2c3e 4c81 c3bc 346a 8abe 7dc1 7c3e
00000110: 51c5 7f3e 9962 823c 38c0 8bbe cfa1 0cbd
00000120: 3078 c73e 3ddc 8fbe 34c3 533d 81c0 253e
00000130: 84dc 963e 1a3c b1be 041b d33e d0b6 a8be
00000140: e994 823e 7d10 933e 602e 37ba f1be e1bd
00000150: d0f3 bb3e ac26 28be 0eb2 0c3e 44e8 b53b
00000160: ad97 b43e fa50 74be af97 bb3d 9cfd 88be
00000170: 4a3a be3d 1e17 633e 6fc2 ac3c 0f86 8a3e
00000180: 80c1 38be 2973 58be b01c 283e bce1 71be
00000190: cf52 9ebe fdb6 da3d e8f8 ac3e 8d0e af3e
000001a0: 1ffa 873d 61c1 89be 4a35 863d 4795 bebe
000001b0: 2516 403e 811f 0bbd 5874 813e 7b59 57be
000001c0: 4e06 0cbd 0ff4 a63e f2bc bbbe 57f8 48bd
000001d0: 8a7f 2fbe c4d2 43be e6fd 083d 46c7 3abe
000001e0: 51be b1be 56ac 20be 95f6 863d bbd4 7a3e
000001f0: d594 9bbe bcfc 893e dcde 85b9 57a4 a13e
00000200: c511 cb3c 7d42 093e 04ac 6dbe 93b8 01be
00000210: a999 ac3e 6fb3 a43e 9cf3 b93d 7cf5 213e
00000220: f9c3 833e 8ade 1fbe 59e1 25be e511 bfbd
00000230: 2260 e6bd bb47 803e ec54 41bd efe4 1ebe
00000240: 4b02 a83e e7a6 f63d 0fda 55be 5225 833d
00000250: 722b a9be f8f8 523d
0.017539995 -0.32956487 -0.023146741 0.25848264 0.1679375 0.28543675 -0.03457762 -0.20298724
-0.04811688 0.071595035 -0.01834416 0.25332537 -0.004836216 0.060963154 -0.36615947 -0.11476238
0.17640477 -0.09099184 -0.23860396 -0.14906576 -0.13730848 0.4761315 -0.10161153 -0.3369378
0.1396064 -0.2375191 -0.1716647 0.09474875 -0.30003175 0.17908324 0.31309122 -0.08795363
0.06922831 0.07509128 -0.18590476 0.06937045 0.15128607 -0.21383916 -0.3328442 0.15690088
-0.06961331 0.11727575 0.060945064 0.1279176 -0.108870804 -0.08018368 -0.16265942 -0.21589656
-0.14698927 -0.23653577 -0.19113494 0.13642332 -0.02653246 0.17301413 -0.16772042 0.30891562
-0.15459725 0.14252336 -0.20410053 0.12658553 0.014245771 -0.22575481 0.18920715 -0.30957806
0.1681249 -0.023865364 -0.27034152 0.24683185 0.24977614 0.015916156 -0.2729509 -0.034334
0.38958883 -0.28097716 0.051699832 0.16186716 0.29465115 -0.34616166 0.4123155 -0.32951975
0.25504234 0.28723517 -0.00069878064 -0.11022747 0.36709452 -0.16421002 0.13739797 0.00555137
0.3527197 -0.23859015 0.09159791 -0.2675599 0.092884615 0.22176787 0.021088807 0.27055404
-0.18042564 -0.2113768 0.16417193 -0.23621267 -0.30922553 0.106794335 0.3378365 0.3419079
0.06639504 -0.2690535 0.06553133 -0.37223265 0.18758447 -0.03396559 0.25284076 -0.21030228
-0.0341857 0.32608077 -0.3666759 -0.04906496 -0.17138496 -0.1912337 0.03344526 -0.1824008
-0.34715512 -0.15690741 0.065900005 0.24495213 -0.30386987 0.26950634 -0.0002553378 0.31570694
0.024788747 0.1340427 -0.2321015 -0.12668066 0.33710983 0.32168147 0.09079668 0.15816301
0.25735453 -0.15612236 -0.16199245 -0.09329585 -0.11248805 0.25054726 -0.04720013 -0.15517019
0.3281425 0.12043553 -0.20883964 0.06403603 -0.3304096 0.051506966

arith.constant16 f4 [50, 50]
00000000: a8cb 22be 4448 8f3d b572 023e 2308 35be
00000010: 8f40 aabd e14f 333e 9d1d 6abd 605a 6dbe
00000020: ae50 1abe 5bdc b83b b9b7 66bb b581 303e
00000030: ed74 573e 8160 98bd 76b0 93bc f925 6abd
00000040: 97aa 083e d986 403e 5734 593d 97aa 03bd
00000050: ca6c a73e f6a4 80be 0632 b83c a012 113d
00000060: 37fb 08be d70b 28bd 4dd5 c73b 48c3 803e
00000070: df12 d7bd 8b63 2fbd 8eaf 233e b5ce 1ebe
00000080: 33c1 2dbe e479 9ebc 840b 303e ca04 e03d
00000090: fdee 2fbd 2ace 3ebe dd41 9abc 9323 eabc
000000a0: b103 bbbd 4bde a9bd eda7 a33e cd0f 65be
000000b0: 5256 3ebd bfcd 343e 79ca b7bd 2001 003e
000000c0: 51fc b8bd 1414 a83d bc23 4abc 4848 413e
000000d0: 662b cb3d fba1 8d3e cf92 b1bd 6baa 02be
000000e0: c313 f6bd 1c7d b13d 3e43 2f3d 2bc5 1d3b
000000f0: 28d6 13be 6dff 32be 77aa cbbd ae03 b2bd
00000100: 1042 143e a33a 03be 92d7 2c3e f313 fabd
00000110: 24c2 0bbe 37e6 5f3e ad6c 3c3e 5dc6 353d
00000120: 0deb 51bd f124 c1bd c071 803e 513e 973c
00000130: 1fd1 16be 4814 303c 1e36 07bd 6822 57bc
00000140: f2bd babd db5b 9bbe 05c5 953d 78f2 bbbd
00000150: 255c f1bc 776e 073e 4e29 07be c2ba 30be
00000160: c2f0 0c3d 88b2 63bc 12a3 a1be 02d8 d23d
00000170: 5817 9aba 5025 073e 0079 5bbe 1e74 81ba
00000180: b0d4 ad3d c5ec 8cbd 8bcd 85be 438d 5a3e
00000190: 2e97 31bd 5f22 963e 6072 483d 430a f83d
000001a0: ab8f 6dbd e9c7 643e 127f 013e d15f 59be
000001b0: 452f 8abd 2a5c a9be f8f5 f9bd 3629 5fbd
000001c0: d4df d83d 280b 56bb 4a39 14be 7c46 4abe
000001d0: 6d55 9abd f673 c73d 3751 acbc 7467 99bd
000001e0: bdf9 07bd 6eec bf3d 342f 29be 975d 4c3e
000001f0: d32f 973d 8733 433e 4ad3 0ebe 1c56 533d
00000200: d8cb 043e 1cfc f8bd c129 b03c 809a 453a
00000210: 9040 4fbe 4271 193e 274d 6cbe c066 8dbd
00000220: a619 823c 402b deba 6e7f c13e 6a8b fabc
00000230: 2175 833d bf41 eabd 8552 02be dab4 323e
00000240: 0311 c8bd 4f1b 6cbd 059b 943d 85f9 203e
00000250: 120e d83d 84ce 77bc c03e f6bc 8593 203e
00000260: 689c ae3b 109a 3f3e 54af ba3d ea4c 853d
00000270: 3eea 683d 1625 853e a143 11be 26e8 fb3a
00000280: 12cf 87bc 741b e03d abea 7abe 314f 12be
00000290: e2b5 a4bd 24d1 463d 13a9 fbbd 1455 3c3e
000002a0: ff0e 803c 81d4 7bbe 076b 10be 3487 813a
000002b0: 0e3f 2c3e a656 1fbe 02c0 b3bd 2b01 02bd
000002c0: f87b 27be a447 82bc 520d bc3c 461f fabd
000002d0: 8825 833b d633 903e 2176 61be b8f8 9abc
000002e0: 5c39 a93c 6c6f 353e 2b5f c5bd 75bb 80be
000002f0: a2bd 293e 9bfb cd3d 8888 16be 89b2 d33c
00000300: fb62 e03d 54bf 19be 4421 183e 4d91 68be
00000310: 0d9b 5cbd 12f7 63be 48c9 5cbe 5499 27bd
00000320: e5ac ff3d 80c4 23be a469 143e e8bf 543b
00000330: 6021 173d 8aab 233d 6bc0 24be dc61 723e
00000340: f0b0 593d 1d56 683d 32dc c33b ac37 c73d
00000350: 3ccc 7bbd b3b3 963d b070 11bd 68c7 bcbe
00000360: 334d 8fbd 3041 35be f861 c93d 55f6 b1bd
00000370: 2ff5 27be 0ea5 1dbd 44ef 81bd 7b7f b23e
00000380: 9170 a8bd 641f 873e 0636 5abe ed8b aa3c
00000390: a8e9 19be 35ad 9cbe cefb 6e3d 76fa 41bd
000003a0: 7eaa 0dbc 388f 80bd c030 5a3b ae4e bb3d
000003b0: d376 053e 8643 44be d1eb 8fbe 8c00 c73d
000003c0: 384c 33bd c43a 24be b5c8 89bd 6b80 86bc
000003d0: de66 dbbd 1fb6 0d3e f2b3 84bd acb7 98bd
000003e0: f608 e03d 3afc 2ebc 4010 6f3b 943e b83c
000003f0: 346c 8d3e a8ba 893e 4007 f1bc 001d 793d
-0.15898001 0.069962054 0.1273907 -0.17678885 -0.08313095 0.1751094 -0.057157148 -0.23179007
-0.1506984 0.005641503 -0.0035204722 0.1723698 0.21040697 -0.07440282 -0.01802848 -0.05716512
0.13346325 0.1880144 0.05302843 -0.03214511 0.32700187 -0.25125855 0.02248479 0.035418153
-0.13377081 -0.041026916 0.0060984255 0.25148988 -0.10501646 -0.04281954 0.15984938 -0.1550854
-0.16968231 -0.019345231 0.17191893 0.109384134 -0.042952526 -0.18633333 -0.018830234 -0.028581416
-0.091315635 -0.08294352 0.31964055 -0.22369309 -0.04646904 0.17656611 -0.089741655 0.12500429
-0.090325005 0.082069546 -0.012337621 0.1887523 0.09920387 0.27662644 -0.0867058 -0.12760322
-0.12015488 0.08666441 0.042788737 0.002407382 -0.14437163 -0.1748025 -0.09944623 -0.08692108
0.14478326 -0.12815337 0.16879109 -0.12210836 -0.13648278 0.21865164 0.18400832 0.044378627
-0.051249553 -0.09430874 0.25086784 0.018462332 -0.14728211 0.010747023 -0.033010595 -0.013130762
-0.091182604 -0.30343518 0.07312969 -0.091771066 -0.029462883 0.13225733 -0.1319935 -0.17258742
0.034409292 -0.013897546 -0.31569725 0.102951065 -0.0011756225 0.13197827 -0.21432877 -0.0009876525
0.084878325 -0.06881098 -0.2613338 0.2134295 -0.043357067 0.29323098 0.0489372 0.12111332
-0.05799834 0.22341885 0.1264613 -0.21227957 -0.06747297 -0.33078128 -0.12205118 -0.05448266
0.10589567 -0.0032660458 -0.14474979 -0.1975345 -0.07535825 0.09738915 -0.02103482 -0.07490435
-0.033197153 0.09371267 -0.16521913 0.19957577 0.073821686 0.19062625 -0.13947788 0.051595792
0.12968385 -0.12157461 0.021504285 0.0007537976 -0.20239472 0.1498461 -0.23076306 -0.06904364
0.01588137 -0.0016950145 0.37792534 -0.030584056 0.06418825 -0.11438321 -0.12726791 0.17451802
-0.0976887 -0.05764323 0.0725613 0.15720184 0.10549559 -0.015124921 -0.030059218 0.15681274
0.0053287037 0.18711114 0.091154724 0.06508811 0.056864016 0.26004857 -0.14185955 0.0019218966
-0.016578231 0.10942736 -0.24503581 -0.14288022 -0.08042504 0.048539296 -0.12288108 0.1839183
0.01563215 -0.24592783 -0.14103328 0.0009882213 0.16820928 -0.15560398 -0.08776857 -0.031739395
-0.16355884 -0.015903302 0.02295557 -0.12212996 0.004002277 0.28164548 -0.22017719 -0.018917426
0.020657234 0.17718285 -0.096372925 -0.25143018 0.16576245 0.100577556 -0.1470052 0.025841968
0.10956379 -0.15014392 0.1485644 -0.22711678 -0.053858805 -0.22262219 -0.21561158 -0.04091771
0.12484149 -0.15992928 0.14493424 0.0032463018 0.036897063 0.039958514 -0.16089027 0.23670143
0.053147256 0.05672275 0.005977177 0.097274154 -0.06147407 0.07358494 -0.035507858 -0.36870885
-0.069971465 -0.17700648 0.09833139 -0.08689562 -0.16402124 -0.038487487 -0.063444644 0.34862885
-0.08224595 0.26391137 -0.21309671 0.020818675 -0.15030539 -0.30600896 0.05834561 -0.047358
-0.008646606 -0.06277317 0.0033293217 0.09145866 0.13033609 -0.19166383 -0.281096 0.09716901
-0.04377386 -0.16038042 -0.06727735 -0.016418656 -0.1071298 0.13839005 -0.06479634 -0.07456908
0.10939209 -0.010680253 0.0036478192 0.022490777 0.27621615 0.2690022 -0.029422402 0.060818672

arith.constant17 f4 [50]
00000000: a26e 5c3d b120 8e3c 11d3 94bc cdda 5e3c
00000010: ea55 c7bb cea6 25bc f03a fc3c ffdc a03a
00000020: 9077 5e3d a676 c43c 3a50 1a3d f27a 8b3c
00000030: 686e 51bb 30ff 273d 10e2 1ebd ed17 1dbd
00000040: 78a5 283d baa3 9a3c d970 693c 8c06 313d
00000050: df03 c93b 4224 7cbc b8fc c13c 7aed 7f3d
00000060: c6cb a33c a5a1 853c 6df7 253c 3615 07bb
00000070: c6df 2a3d 33cc da3c 606a 7f3b 8cf1 263d
00000080: 8bcb 89bc 69aa cf3c 3a93 95bc 2ea7 a33c
00000090: 6c5a 8cbc 2403 28bc 90cb b83c 0fbf e4bb
000000a0: 321e 473d 5cca eabc e382 f5bc eff0 843d
000000b0: 5f40 b6bc 2da0 923c 0f03 7bbc ffa4 a43c
000000c0: 98e6 803d c867 943c
0.053816445 0.017349573 -0.01816705 0.013601971 -0.00608324 -0.01011057 0.030789822 0.0012272893
0.054313242 0.023982357 0.037674166 0.017026398 -0.0031956676 0.04101485 -0.03878981 -0.038352896
0.04117343 0.018876899 0.014248096 0.043219134 0.0061344947 -0.015389504 0.023680076 0.062482335
0.019994628 0.01631243 0.010129792 -0.0020612008 0.041717313 0.026708698 0.0038973317 0.0407577
-0.01682069 0.025349813 -0.01825868 0.019977178 -0.01713296 -0.010254655 0.022558004 -0.006980784
0.04861278 -0.028660946 -0.029969638 0.06491267 -0.022247491 0.017898643 -0.015320553 0.020098208
0.06293982 0.018115893

arith.constant20 f4 [50, 50]
00000000: e3b0 8f3e e7b2 f33c cc7a 173c c4c8 25be
00000010: fccf 4dbe bd46 b7bc cbd1 e33d fd5a 9ebd
00000020: d193 c43d e14b 52be 39b8 d63c e51a 0dbe
00000030: f6b3 403e 09a9 3abe 1e8b c9bc 07b1 1dbe
00000040: 162d 193e f051 acbd 6a93 3c3e ff16 293e
00000050: 5f30 3bbe a4e4 feba fb6d 00bd b79c 4fbd
00000060: 142d 17be f267 1cbe 004f 483e 8e5c 80be
00000070: 508d 22be 9338 8c3e 87d9 8e3d b9e3 3a3e
00000080: fc4e 9ebd 345b 5b3e 3517 593e 32b8 29be
00000090: a323 bd3d 26cb 163e a84b 1e3e 9fff 503e
000000a0: 40d9 c33d 14b0 bdbd 2d76 34be 9a81 273d
000000b0: 1e72 8b3e 1cc8 b4bd 5653 db3d 81f2 923d
000000c0: 1ff7 db3d 02fe 393e 6f76 8bbd e09d 41bc
000000d0: 88f5 373e eb7e 17be 8115 5abe 3e04 5b3e
000000e0: 94de 613d d6e4 903d 2e07 6b3e db1f 533e
000000f0: 27f7 c1bd 8967 af3b 42da 0bbe be63 43be
00000100: 95f0 20be 9403 783d c401 e4bd 39a2 9a3d
00000110: 10d0 3dbe a432 523e 3844 73be 2f81 3dbe
00000120: 5745 523e d4d2 50be 2c1e 7abc 6083 1bbe
00000130: 1574 033e 233e 003e 1b8c 663e 1beb 8cbd
00000140: 3094 483d 0c96 a0bd 4d01 113e bf2e b3bd
00000150: 9c0c 673e 4d22 33be fea3 6bbc 3bb9 443c
00000160: 0aff 193e d780 40be 810a 19bd 2f72 313e
00000170: f914 64be 070b e8bd a37d 8c3e 6db1 c9ba
00000180: 867c d1bd c094 583e de91 e7bd b7cd 4e3e
00000190: f2df 19be 8609 47bd 34a0 883d cdb7 9bbd
000001a0: de63 4f3e dfea cfbd e3d7 75bd 233a 8c3e
000001b0: ac0a 893e 8d38 b63d 283b 52bd 80ae 48bc
000001c0: 4926 b2bb 570d 3dbe 70e8 00bd ef1f 373e
000001d0: b021 d6bd 4ae1 af3d 7232 e6bd 8f26 4d3e
000001e0: e3a0 fe3d b419 12be 45ec 273e 28b6 673e
000001f0: 97df dbbd 1e86 46bd 72dc 873d 87c9 2fbd
00000200: 7203 f9bd 9bb4 003e d33d 953e 7e91 9c3d
00000210: d6fa 103e 617b 30be 981b 703e 09fb 67be
00000220: dd07 69be 6dd3 733e 373a 723e 3339 4cbe
00000230: 7910 f03d b077 74bd 3db2 c9bd f9c6 f0bb
00000240: 2a64 61be 5985 323e edbe 0a3e 542e 093d
00000250: c163 e8bc 8e07 0abe 56ee 4c3e e72e 1fbe
00000260: ea93 16be 08b4 14be 4142 d9bd a5cf 4dbd
00000270: 64db 213e 90f2 373c 7a02 1a3d 6a9e 0dbe
00000280: 778d 013e e68d a2bd 8ab6 3cbe 30c3 5abe
00000290: d205 90be 28d0 1ebe 0a13 2c3e 45be 283e
000002a0: 0da5 373e ae1f 5f3e 8739 dcbd 27f4 14bd
000002b0: 64f8 713e 1760 cd3d 66f6 3fbd 25e0 20be
000002c0: fee2 693d a7b0 78be d472 e6bb 2283 87bc
000002d0: dd34 f8bd 37e8 13bd a891 24be 548b 473e
000002e0: b73a 86be eab9 803e 65e9 2c3e a8bb 803e
000002f0: afce 7f3e 10d0 c7bd b194 793e 07c7 31be
00000300: 1e4e 83bc c40d 963d 1ff7 67be f955 f83d
00000310: 4d91 34be 39eb 86bd d17f b4be e762 dabc
00000320: 7935 053d c7a8 053e 8d1f d53d efab 183d
00000330: ac4c 3bbe 0122 43be 9ee3 1d3e 595d 03be
00000340: 8091 38bd 9f8f 303e a9d6 743e e3b5 6cbc
00000350: 0e0e f63d bce1 083e bbdb ebbd e6bd 9ebc
00000360: dacd f5bd e056 483e 159b afbc cd2f 6e3e
00000370: ba61 3c3e 8692 3c3d 16a5 66be 58f6 ae3d
00000380: 3aa2 0b3d 2cc3 3b3e 33e5 d2ba a114 a4bd
00000390: 434d 863e ca51 a23c d462 16be c9b9 7f3e
000003a0: 9f91 903c 3c20 0f3e 724b 5ebe 1a7b 99bd
000003b0: 95da ba3c 2ec5 68be d399 17be 9f1f 6dbe
000003c0: c886 523e 0736 3a3e f6fe 10be 28ef 66bd
000003d0: 483d 21bd 99fa 0dbe 5b62 723e cc05 5d3e
000003e0: bd3d 083e eec0 563e 919a c7bd 3372 403d
000003f0: 8e22 56bd 7121 593e 58f5 583e a59d 793d
0.2806464 0.029748393 0.009245586 -0.16189867 -0.20098871 -0.022372598 0.11123999 -0.077321984
0.09598506 -0.20536758 0.026210891 -0.1377979 0.1881865 -0.18228544 -0.024602469 -0.15399562
0.14958605 -0.08414066 0.18415609 0.16512679 -0.18280171 -0.0019446802 -0.031354886 -0.050686564
-0.1476329 -0.15274027 0.19561386 -0.25070614 -0.15874219 0.27386913 0.06975084 0.18250932
-0.07729909 0.2142151 0.21200259 -0.16574171 0.09235313 0.14725932 0.15458548 0.20410012
0.095629215 -0.092621 -0.17623205 0.040895082 0.27235502 -0.0882723 0.107092544 0.0717516
0.10740494 0.18163303 -0.06809699 -0.0118174255 0.17964756 -0.14794509 -0.21297266 0.21388337
0.055143908 0.07074897 0.22951958 0.2061762 -0.09470969 0.0053529185 -0.13657477 -0.19081017
-0.15716775 0.060550287 -0.11133149 0.07550473 -0.18536401 0.2052713 -0.23756492 -0.18506311
0.20534264 -0.20392925 -0.015265983 -0.15186834 0.1283725 0.12523703 0.22514383 -0.0688078
0.048969448 -0.07841119 0.14160652 -0.087491505 0.22563404 -0.17493553 -0.0143823605 0.012007053
0.15038696 -0.18799148 -0.037363533 0.17328714 -0.22273625 -0.11330228 0.27439603 -0.001538796
-0.10228829 0.21150494 -0.11307119 0.20195661 -0.15026835 -0.048593067 0.06671181 -0.076034166
0.2025294 -0.1015222 -0.06002034 0.27388105 0.26765954 0.08897505 -0.051325947 -0.012248635
-0.005436693 -0.1846212 -0.03147167 0.17883275 -0.10455644 0.08587892 -0.112400904 0.2003424
0.124330305 -0.14267617 0.16398723 0.22628081 -0.10736006 -0.048467748 0.066338435 -0.0429168
-0.1215886 0.12568896 0.2914873 0.07644938 0.14158186 -0.17234565 0.23448026 -0.22654356
-0.22756906 0.23811121 0.2365502 -0.19943695 0.11721892 -0.059684455 -0.098484494 -0.007347938
-0.22010866 0.1743368 0.13549395 0.033491448 -0.028367879 -0.13479444 0.20012793 -0.15545236
-0.14704862 -0.14521801 -0.1060834 -0.050246853 0.15806347 0.011227265 0.037600018 -0.13829961
0.12651621 -0.07937221 -0.18429008 -0.2136352 -0.2812944 -0.15509093 0.16804138 0.16478832
0.17934056 0.21789429 -0.1075316 -0.036365654 0.2362991 0.10028093 -0.046865843 -0.15710504
0.057101242 -0.24286138 -0.0070327315 -0.016542021 -0.12119458 -0.03611013 -0.16071188 0.19486743
-0.2621667 0.2514184 0.16885908 0.2514317 0.24981187 -0.09756482 0.24373128 -0.17361079
-0.01602846 0.07326844 -0.22652863 0.12125773 -0.17633553 -0.06587834 -0.35253766 -0.026658488
0.0325217 0.13052665 0.104064085 0.037273344 -0.18290967 -0.1905594 0.1541886 -0.12828578
-0.045060635 0.17242287 0.23910011 -0.014447662 0.120143995 0.13367361 -0.1151652 -0.01937766
-0.12002154 0.1956439 -0.021436254 0.23260422 0.18396655 0.046038173 -0.22523913 0.0854308
0.03409026 0.18336171 -0.0016090035 -0.08011747 0.2623082 0.01981439 -0.14686137 0.24973215
0.017647563 0.1397714 -0.21708468 -0.07494183 0.022809306 -0.22731468 -0.14804773 -0.23156594
0.20559227 0.18184672 -0.1415976 -0.05638042 -0.039365083 -0.13865127 0.23670332 0.21584243
0.13304801 0.20972034 -0.09746278 0.04698391 -0.052279048 0.21204163 0.21187341 0.060941357

arith.constant21 f4 [50, 50]
00000000: d0a1 1ebe c7a3 3fbe abed 543e 6b70 06be
00000010: ea40 d7bd affa be3c ab3b 8f3e 1e2c 6c3d
00000020: cd81 95be dac9 913e 8c9b 0ebd d801 7a3e
00000030: 3cfb 22be 96b5 08be a374 203e c559 483e
00000040: 2599 b33d ed1b d03d 0c47 a5bd 4395 5c3d
00000050: d413 ecbd 0f9d b03d 47b4 273d c183 dcbd
00000060: 17dd dcbc 9d5e 0fbe a46c abbd 7e26 e1bd
00000070: 6d0d be3d 7228 2c3d 2670 42bc eef3 23bd
00000080: 6147 123e 5e8b 873e 6047 053e b600 2abd
00000090: 6fd0 29be 3776 8a3d fee4 473e 861d 9c3c
000000a0: 76a3 66bc 5686 49be 70ba 4bbe a682 763d
000000b0: 5f70 bcbd c664 323e e394 f53d d4a4 23be
000000c0: f242 84bc ec82 9fbc caab 9d3d f066 dcbd
000000d0: 2e28 f1bc c1fa 07bd 87e7 1d3e 2c41 5abe
000000e0: b8fd 153c ed98 3cbe e6ff f43d 86f3 4c3c
000000f0: 26f3 e5bd c08d 83bd e54d b03d 7397 0e3e
00000100: e767 84be 5c2a e6bd efa9 3b3e 59cb 90bd
00000110: c8c3 7fbd da32 fe3c c15f 00be 37dd e8bb
00000120: 4144 d03e ec2c f6ba 1c70 01be 701b 55be
00000130: f15e dabc de0e 103d 2859 7e3d 7340 6fbd
00000140: 4e45 68bd 5c6c 05be 7e8a 873e fea9 ebbd
00000150: 83e8 68be 6b5b 76bd a6da 1dbd 70bc f1bd
00000160: 068b 423e 202c 203e 3de6 79bd c31c 80bd
00000170: 9916 72be 9601 93bc 582c d2bd f2e3 2c3e
00000180: 1465 1bbd e163 4b3e 2aa7 6c3e ca57 f73d
00000190: 04fe 8abd 14aa 8ebc 305c c5bd aa09 26bd
000001a0: 1a55 6bbe 13d1 113d b3e8 3cbe 2127 8fbd
000001b0: a89f 4e3b aec4 993c 2bb7 eb3d 7f5b 213e
000001c0: 2642 463d b649 15be 678c 023e 8c9f 27be
000001d0: e498 95bd 6d28 48be 5482 523e cc59 91bd
000001e0: f110 753d 7d88 7f3e 4486 d63d 75ba 1d3e
000001f0: 095c ea3c 04c9 d9bc 61a2 603d bbc9 86be
00000200: c0d2 03bd ac9e 94be 4e55 69be aa6a 8a3d
00000210: f022 b0ba baee 6abd 43fb a4bc 245a be3d
00000220: 082d 613d 7fa0 ebbd 4a46 463d 8bda 263d
00000230: 4b9b aebc 9cef b9be f915 903b 330a d43e
00000240: b2a7 af3d 8583 d4bd 6051 55bb 3614 c63d
00000250: 9280 cd3d 3656 91bd f6b9 debd d8c5 333d
00000260: 083a 4e3e 803f 06be 32f9 7ebc 0862 34be
00000270: 989a 20be c95d 133d b4ad 5cbe 5f66 043e
00000280: e440 f9bd c41a 75bb e965 3cbe 537f 43be
00000290: 9028 81bd bcff 34be e82c 003e 1e69 e8bd
000002a0: e97c f1bd 1783 5a3e 570b 5bbe 3e01 433e
000002b0: f07d 8ebd 9748 0ebd 27b0 d5bd b8b5 e73c
000002c0: 56c1 283e d660 11bd 7280 5a3e c0ee ebba
000002d0: 5dee 3a3d 9ec9 aabd d1d1 f0bc 2296 87be
000002e0: a0d1 e3ba 2686 84be 5da9 1abd caac 57bd
000002f0: 2b1e 4dbe b8e7 1c3d f625 19be bc96 7a3e
00000300: de52 c73d 2415 ff3d 4e2a da3d 27cf f4bd
00000310: c6ac 9bbe ae18 a3bd 10d2 9fbc 53d4 11bd
00000320: 2ea4 a23e e0ff d0bd 86ad aa3d 3237 f93d
00000330: 5838 3bbe a6eb 5b3d 8cd7 fabd 0f4a c53e
00000340: d836 043e 44fe 6d3d c6ee 00bc 324c 26bd
00000350: b85f 403c fc45 06be 3acd 4abe d8bb 6d3d
00000360: aabf afbc c421 5e3e ce8e 26be 921f 153c
00000370: 0a9a 99bb 74c1 2ebd 3a76 e93d 9dce 04bd
00000380: 537e 2b3e e7b9 2c3e ad97 843d d06c 80bc
00000390: bff7 e2bd 06dc 88bd bf24 84bd 9437 2c3e
000003a0: 479a 933d 2045 8cbb d622 9abc 0f37 02be
000003b0: bfbf 1cbd 57f2 b13e 0721 533d 6f76 b03c
000003c0: 8cea e13c 1207 b53d 0224 35be 275b 7b3e
000003d0: a04f 54bd 4e74 13be 9395 8cbd 9811 edbd
000003e0: 67b1 8e3e 8ee8 0c3e ac4f 9a3d fdfe e9bd
000003f0: a82a f63d 1910 03be 0c8f 673e 40f3 523d
-0.15491414 -0.1871482 0.20793788 -0.13128822 -0.10510428 0.023312895 0.2797521 0.05765926
-0.29200593 0.28474313 -0.03481631 0.24414766 -0.15916151 -0.1335052 0.15669493 0.19565494
0.087694444 0.101615764 -0.08070192 0.053853285 -0.115272194 0.086237065 0.04094341 -0.107673176
-0.026960893 -0.14000936 -0.08370331 -0.1099367 0.092799045 0.04203076 -0.011867559 -0.04002755
0.14285041 0.26473516 0.13015509 -0.041504584 -0.16583417 0.06760829 0.19520947 0.019057047
-0.014077058 -0.19680151 -0.19895339 0.06018319 -0.092011206 0.17421255 0.119912885 -0.15980846
-0.016145203 -0.019471608 0.07698782 -0.10761821 -0.029438104 -0.033198122 0.15420352 -0.21313924
0.00915473 -0.18417712 0.11962871 0.012509232 -0.112280175 -0.06423521 0.08608607 0.13924961
-0.2586052 -0.11238548 0.18326543 -0.070700355 -0.06244257 0.031030107 -0.12536527 -0.007106449
0.40677074 -0.0018781698 -0.12640423 -0.20811248 -0.0266566 0.03517043 0.062096745 -0.058411073
-0.05670672 -0.13029617 0.2647285 -0.11507033 -0.22744946 -0.060145777 -0.038538598 -0.1180352
0.18998346 0.15641832 -0.061010588 -0.06255486 -0.23641433 -0.017945092 -0.10262364 0.16883829
-0.037938192 0.1986232 0.23110643 0.12077291 -0.06786731 -0.017415084 -0.09636724 -0.04053656
-0.22981682 0.03559978 -0.18448143 -0.06989885 0.0031528268 0.018770542 0.11509546 0.15757559
0.048402928 -0.145789 0.12748872 -0.16369456 -0.07304552 -0.19546671 0.20557529 -0.070972055
0.05983061 0.2495441 0.10474828 0.15403159 0.028608339 -0.02658511 0.054842357 -0.26325783
-0.03218341 -0.29027307 -0.22786447 0.06758626 -0.0013438147 -0.057356574 -0.020139342 0.09294537
0.054974586 -0.115052216 0.048406877 0.040735763 -0.021314284 -0.3631562 0.0043971506 0.4141403
0.08576907 -0.10376648 -0.0032549724 0.09671824 0.100342885 -0.070965216 -0.10875313 0.04388985
0.20139325 -0.13110161 -0.0155623425 -0.17615521 -0.15683973 0.035978112 -0.21550637 0.12929676
-0.1217058 -0.0037399987 -0.1839825 -0.19091539 -0.06306565 -0.1767568 0.1251713 -0.113481745
-0.11791403 0.2133907 -0.21391045 0.19043443 -0.069576144 -0.034737196 -0.10433989 0.028284892
0.16480002 -0.03549274 0.2133806 -0.001800023 0.045637477 -0.08339237 -0.029396923 -0.2648173
-0.0017381199 -0.25883597 -0.037759174 -0.05265502 -0.2003104 0.03830692 -0.14955887 0.24471563
0.097326025 0.12455204 0.106526 -0.11953574 -0.30405253 -0.07963692 -0.019509345 -0.03560288
0.31765884 -0.10205054 0.08333878 0.12168731 -0.18283212 0.05369153 -0.122481436 0.38533065
0.12911546 0.058103815 -0.007869428 -0.04060001 0.011741571 -0.13112634 -0.1980485 0.05804047
-0.021453697 0.21692568 -0.16265413 0.009101765 -0.0046875523 -0.04266496 0.11399503 -0.032423604
0.16747408 0.16867791 0.06474242 -0.015676886 -0.1108241 -0.06682591 -0.06452321 0.16818076
0.072071604 -0.0042807013 -0.01881544 -0.12716316 -0.0382688 0.34755203 0.05154517 0.021540849
0.027577661 0.08839239 -0.17689517 0.2454649 -0.05183375 -0.14399835 -0.068644665 -0.11575621
0.27869722 0.13760588 0.075347275 -0.11425588 0.12019855 -0.1279911 0.22613162 0.051501513

arith.constant22 f4 [50]
00000000: d2f4 373d a352 dd3a c59c 893d a018 8e3d
00000010: 7289 bb3a 11c7 4c3c 69cc c0bc fec4 cbba
00000020: 4543 92bc 6725 7d3c cb75 91bc ab8f 64bc
00000030: 0d74 5f3c 5ae4 3a3d 2480 6bbb 52f9 b53c
00000040: f7b1 3c3d 069d 273d c08b 5c3b 2055 fc3c
00000050: fe64 8d3c 56a6 83bb 0000 0000 e644 803a
00000060: 37b0 2a3d abf4 82bc d597 75bc 2f1e 983c
00000070: 060c 413d 3f50 843d 0000 0000 4238 9bbc
00000080: ac22 0fbc ae3c 293c 72fa c73c 1ac7 4dbb
00000090: 8875 9c3c 11aa a1bc d238 ab3d 7ef2 773b
000000a0: 915a 603d 5406 903d c138 003d 1045 123d
000000b0: 04cf 0dbd cb53 033d 36e3 f83c f197 9c3b
000000c0: ca40 17bd 45e4 4abb
0.044911213 0.001688559 0.067193545 0.069382906 0.001430793 0.012498633 -0.02353497 -0.0015546379
-0.017854342 0.015450812 -0.017756363 -0.013950269 0.0136385085 0.04562793 -0.0035934532 0.022213612
0.046068158 0.040921234 0.0033652633 0.03080231 0.01726007 -0.0040176315 0.0 0.0009786158
0.041671958 -0.015985807 -0.014989813 0.01856908 0.047130607 0.06460618 0.0 -0.018947724
-0.008736294 0.010329409 0.024411414 -0.0031399191 0.019099012 -0.019734414 0.08360447 0.0037833746
0.05477387 0.07032457 0.031304125 0.035710394 -0.034621254 0.032062333 0.03038178 0.004778855
-0.036927022 -0.0030958813

arith.constant25 f4 [50, 50]
00000000: 6b50 533e 4f18 a3bd 42cf 42be f11c fcbd
00000010: b215 d03d 8ff1 833e 9b19 23be 1bf3 8ebd
00000020: ff63 313e 8dda c3bd dd9b 553e a35f 813d
00000030: 67a2 e43d a4d5 38be 8160 803d ee36 d9bd
00000040: 6056 b03c bb9a f6bd 1b1f 8abc f0c6 70bc
00000050: 10f4 0c3e b40f e2bd a805 1fbd 0419 49be
00000060: 3886 99bd 6c43 2c3d b4ab 4d3d dc45 4bbe
00000070: 08a1 a73d 70b4 8bbd 2038 babd 42c7 6b3e
00000080: f2f1 713e 97a5 d03d 294d 593e 82ea f6bd
00000090: 489f 463e e823 263e 6bbe 88bd 6435 8a3e
000000a0: b384 173e a774 fabc 7810 b5bc 89d8 6b3e
000000b0: 3fd2 b7bd 6c7a 873e 7478 f7bd 06da 53be
000000c0: 06b2 c8bd f834 753e 7585 513e 5f48 87bd
000000d0: b289 7d3e c20a 0bbc 4321 733d bdcf 493d
000000e0: 715b 3c3e cde4 4c3d 74e2 2bbe e96a 583e
000000f0: ab9d 06be 8969 ed3d 814c 0dbe 7a0c 2b3d
00000100: b985 18bc 2de2 553e f4c8 7d3e a00f 913e
00000110: 81a0 0b3d 56dd 12be eab8 133c 31be 00bd
00000120: 7858 dbbd a65f 9c3d 3fd1 243e 7c5d 4abe
00000130: 6f55 60be 7f41 513e 3756 243e 3176 c2bd
00000140: 80af 9dba e823 78be 4bd6 b73d 402d 7c3e
00000150: fa1e 8a3e 60ea f2bd 6f76 003d ea6d 6ebd
00000160: abbc 09be bf28 063e bb3f 323e 625e 843b
00000170: 1457 523e 24fe 883e d462 1e3e 849b 4d3e
00000180: cec6 003c 25a8 4b3d e55f 5bbd e255 10be
00000190: 836d 30be 22e6 4bbe b9d5 01be 70ef 05be
000001a0: eced 3bbe 0053 e0bd 3c19 96bd 9ab3 37be
000001b0: 78af 10be 1adc 6abe 5f42 5e3e d72b 743e
000001c0: 74b7 49be eea8 f53d a513 563e 4837 25bd
000001d0: 4f41 34be 35cb 4bbe 39c1 6b3e 5073 ecbc
000001e0: c4dc 76bd 7487 363d ce6e a23d 2051 adbb
000001f0: 523a c4bd 607d 49bc 90be 46be 2860 b63c
00000200: 330d 1a3e d10f 50be e294 ec3d e05f 97bd
00000210: eacd 07be b471 6abd 2c99 4d3d 6881 8bbd
00000220: 7dca 673e 7e2d e33d 58df efbc 42be babd
00000230: aae9 cb3d 4c5e d3bd 002b d4bb 2835 fe3c
00000240: 7bd1 f9bd 4007 9cbd 5c55 2b3d 4e44 82bd
00000250: 7837 f8bd 409b 5abc 527b 193e dfc8 bc3d
00000260: 379d cc3d 82e1 123e 01a7 92bd 29f1 613d
00000270: 6171 e03d b9fd 22be ee05 32bd fa5e 70bd
00000280: 29cc f23d 5f55 103e d326 54bc 80f0 50be
00000290: ecf9 49be 6d7d 173d 63e1 8d3e 7ba4 8e3e
000002a0: 8b20 cdbd 45fc 5fbe b263 fa3c 6656 113e
000002b0: e0da db3b 90b4 1bbe def9 9a3b 0bb7 4a3e
000002c0: c865 3e3e 91cd 2c3e 5d03 b53c 2b8e 1a3e
000002d0: c4a8 63bd 80ff cf3d 3887 64bd d2ad 4fbe
000002e0: e6bb adbd 7d39 2bbe b555 5a3e 1c3b 2bbe
000002f0: 2f08 5d3e 6414 083e 7d0b 9f3e 77fd d43c
00000300: 2c1e 943e 27e7 8a3e 0628 8cbd 2569 5b3e
00000310: 1267 813e ac50 f73d 98bc 12be 9229 663c
00000320: 1b64 3dbd e622 3abe c3ce 1c3e bcd5 613e
00000330: 981a d63d 53ab 53be 6e06 81be 889d d8ba
00000340: e504 19bd bdcd c03d df34 74be 09b8 8cbe
00000350: aa25 703d b937 333e bbf6 393d 1ece a23d
00000360: 1d12 f53d 47d5 00be 5ba2 11bd 5cfc 3f3e
00000370: 0bbd 00be 6f0b c13c 9eee 3dbe 8c8d 63be
00000380: 822e bc3c d0d9 433e 51aa 60bd 3193 ff3c
00000390: 7f33 5c3e c96f 13be e635 75be 8856 3f3e
000003a0: 1cc3 153e 5905 3bbd 632b 93be d936 e2bd
000003b0: 01ab a13d d19b 47be 6cc7 833d c380 60be
000003c0: cbee 453e 93b8 9a3e 7387 63be 4db2 923d
000003d0: 1feb 983d fc92 ad3b 0570 2b3e 8818 3f3e
000003e0: ef86 02be 177e 3bbe 4392 5bbe 554c 653d
000003f0: 36d4 48bd 9cac 5bbd 2e0f 7fbe 932a 67be
0.20636146 -0.07963621 -0.19024375 -0.12310208 0.10160388 0.25770232 -0.15927736 -0.069799624
0.17323302 -0.0956317 0.20860238 0.063170694 0.11163788 -0.18050247 0.06268407 -0.1060618
0.021525562 -0.12041231 -0.016860535 -0.014695868 0.13764977 -0.110381514 -0.038823754 -0.19638449
-0.07496303 0.042056486 0.050212577 -0.19850868 0.08185011 -0.06821525 -0.09092736 0.2302523
0.23627451 0.10187834 0.2122084 -0.120564476 0.19396698 0.16224635 -0.06676944 0.2699386
0.14796714 -0.030573202 -0.02210258 0.2303182 -0.08975648 0.26460588 -0.120835215 -0.20688638
-0.0979958 0.23945987 0.20461066 -0.066056006 0.24759558 -0.008486452 0.059357893 0.04927038
0.18394257 0.05002289 -0.16785604 0.21134533 -0.13146083 0.11592395 -0.13798715 0.041759945
-0.009309226 0.2088706 0.24783689 0.28332233 0.034088615 -0.14342245 0.009016255 -0.03143138
-0.107102334 0.07635431 0.16095446 -0.19762224 -0.2190759 0.20435141 0.16048513 -0.094951995
-0.0012030452 -0.24232447 0.0897642 0.24626637 0.26976758 -0.1186111 0.031362947 -0.05821029
-0.13450877 0.13101481 0.17407124 0.0040395716 0.2054103 0.26756394 0.15467387 0.20078856
0.007859899 0.049720902 -0.05355825 -0.14095262 -0.17229275 -0.19912007 -0.12679185 -0.1307962
-0.18352479 -0.10953331 -0.07329032 -0.17939606 -0.14129436 -0.22935525 0.21705006 0.23844849
-0.19698888 0.119951114 0.20905931 -0.040335923 -0.17603038 -0.19901736 0.23022927 -0.028863579
-0.060269132 0.044562772 0.079312906 -0.005289212 -0.09581436 -0.012297958 -0.19408631 0.022262648
0.15044098 -0.20318533 0.11551835 -0.073913336 -0.13262144 -0.057237342 0.050194904 -0.06811792
0.22635837 0.11092661 -0.029281303 -0.0911832 0.09956677 -0.1032072 -0.0064748526 0.031031206
-0.12198158 -0.0761857 0.041829452 -0.06360684 -0.12119955 -0.013342679 0.14988449 0.092180006
0.09990924 0.14343837 -0.0716076 0.05516163 0.10959125 -0.159171 -0.043462686 -0.058684327
0.11855347 0.14095066 -0.01294871 -0.20404243 -0.19724244 0.03698485 0.2771102 0.27859864
-0.10015973 -0.21873577 0.030565117 0.14193115 0.0067094415 -0.15205598 0.0047294935 0.19796388
0.18593514 0.16875292 0.02209633 0.15093295 -0.05558087 0.10156155 -0.055793017 -0.20281151
-0.084831044 -0.16721149 0.21321757 -0.16721767 0.21585153 0.13289028 0.31063452 0.025999768
0.2892927 0.2712948 -0.06843571 0.21426828 0.2527395 0.12075934 -0.14329755 0.014047997
-0.046238046 -0.18177375 0.15313248 0.2205419 0.10454291 -0.20670824 -0.25200218 -0.001652644
-0.037358183 0.094142415 -0.23848294 -0.27484158 0.05862967 0.17501725 0.045401316 0.0794947
0.119663455 -0.12581359 -0.035555225 0.18748611 -0.12572114 0.023565022 -0.18548056 -0.22221965
0.022971395 0.19126058 -0.054849926 0.031198116 0.21504019 -0.14398111 -0.23946342 0.18685353
0.1462521 -0.045659397 -0.2874404 -0.110456176 0.078939445 -0.19493033 0.06434521 -0.21924119
0.19329374 0.30218944 -0.22219639 0.071629144 0.07466721 0.005297063 0.16741951 0.18661702
-0.12746786 -0.18309818 -0.21442513 0.055981 -0.049030505 -0.05363141 -0.24908134 -0.22574835

arith.constant26 f4 [50, 50]
00000000: 8034 7ebc 82e9 383e dce1 cebd c975 463e
00000010: 9226 81bd dabd 87bd 9138 f3bd 4587 353e
00000020: e630 9cbd 7ef3 1d3c 6ec0 cb3d 39f9 a8be
00000030: 62d5 7dbe 861a 84be b603 32bd 7fa0 e03d
00000040: f9ee 5fbe 20f1 ea3c 2804 213e 2ae4 673e
00000050: 89b2 a7bb d4aa 26be 7930 edbd 622b c43c
00000060: 7d8a 3b3d 2be1 4d3e 7a81 75bd 5f32 c73d
00000070: db79 803e 6717 3a3c d8ab 003e 9047 893b
00000080: 0a84 1ebc f8f9 3a3e 94ba 293e 00a6 bbbc
00000090: b488 143e 6a93 75bd 5e18 42be d7b5 0d3d
000000a0: 2da3 123e d62d fbbd e239 223e c2f0 c03d
000000b0: 1560 dd3d 630b 18be b5cd bebc 55b2 a3bd
000000c0: 2394 403e 4aae 323e 4019 5f3c e084 48bd
000000d0: eb9f 413e 2541 b0bd 81ea c23d dc07 70be
000000e0: c0cb 643c a24a 30be bde1 63be cf21 fc3c
000000f0: e785 263e 7ca6 313e bbda 9f3d 641e b63d
00000100: a03f acbd ab4b 48be 58c5 a53d 52f5 a03e
00000110: b0ed 1e3d cf1d 4c3e 4a9f bebd 47e9 8b3d
00000120: 64cf 253e c062 04be 2fe4 9fbe b4b5 f73c
00000130: e54b e0bd 5850 cb3b dd98 d13d 55e8 fd3d
00000140: ca60 59be 1ed1 a0bd 4f66 dcbd 7217 3ebe
00000150: b877 6b3e ac44 a1bc 4a08 8b3d f63f e93b
00000160: c812 28be cf74 0c3d b51c b23d aef3 003e
00000170: 2651 cd3d e0ba 3a3e c221 78bb daa4 67bd
00000180: 4cc7 31bd 7859 ea3d 6556 933e 389e 7d3d
00000190: a31a bb3e f01a 1dbd 98a8 893e 4024 213e
000001a0: 946c b53d 487c 8fbe 5281 ce3d 534d 183e
000001b0: 5453 203d 6aeb 32bc 3658 393e 2700 9f3d
000001c0: 9467 a53d 7741 6c3d f81d d53c 63a1 123e
000001d0: 387e f53d e2db 9fbd 5f84 143d 88d3 93be
000001e0: eae8 023e 46a4 963d bd5a 333e 0f4c c73d
000001f0: ad6e 6bbd c057 8bbc 3ea1 87bd 9a65 953d
00000200: d0b5 223e af10 3a3d 8db1 9d3d c9a8 913d
00000210: a3e5 073e f532 c23d e8bc 783d 4859 c63d
00000220: 4713 12be 626f e4bd c803 4b3c 93af 2abd
00000230: ce37 7f3d 5fc2 013e 8ec3 323e 875c 77be
00000240: 3fea 653d 2b92 c5bd 19f0 f0bd ad68 98be
00000250: ad7e aabd 1e60 6e3e ec08 2a3d 21ca cabc
00000260: 3e45 4f3c 3044 f83d 37a9 fe3d 53d0 bfbd
00000270: 35ff 1cbe b4eb 1a3e 9bdb 873b 4954 1bbe
00000280: c1e6 b6bd e823 1dbe da1d 29be 7c18 883e
00000290: 90e2 0dbe 31d5 08be f41c 14bd e1d6 4ebd
000002a0: bfa9 3fbd 14ee ee3c ccdc 48bd 344b 543d
000002b0: a643 c73d d48c f53d 9ea7 12bb 959d 263d
000002c0: 10ce 7bbe 63f8 a8bb 6cdd 8fbe 584b e9bd
000002d0: 3a60 afbc 744f 893e 6eda 8b3d aa62 7fbe
000002e0: 1ab1 abbd e207 b7bd d34e 6cbd 7a37 603d
000002f0: 92d9 d43d cd34 e6bc 0283 423e 6a46 1abe
00000300: f095 323e 26d5 843e 9845 2c3e 1cbb 8c3e
00000310: 5a79 b5bd 9a3b 82be acc8 aa3d 5549 13be
00000320: 6543 243e 9eca 15be b8b3 243e c29a 2e3d
00000330: 483a 503e 46c1 193e 6274 c9bd 188f a9be
00000340: 3cf0 2a3e 7c23 aa3d 966e 4abe 308d 5c3c
00000350: 5385 e13d f2b2 b73d 99b1 553e ccd0 a2bc
00000360: e1fb 8e3c 5827 9cbb c635 8dbd b43c 743e
00000370: ee98 9e3b 0f09 22be b331 ecbd 9387 22be
00000380: 42c7 d53d 44d4 143d 5fd1 cbbc 64d4 efbd
00000390: 48e7 ca3d 3f3f 8d3e 3413 4a3e 7c61 edbc
000003a0: e623 393e 9c21 c23d a144 5b3e 76a8 a53d
000003b0: 74c5 f6bd 0be6 363e aed3 203e e071 08be
000003c0: e01e 3bbd f012 95be a2c8 3f3e 8cf0 9b3d
000003d0: a0ee 873c b07c d43c cf1f 97bd 701b 81bd
000003e0: 812b 253d 10e5 6d3d 588a 49bd a900 423e
000003f0: 4da2 a13d 2802 05be 924c 9a3e e0ba 25be
-0.015515447 0.18057826 -0.10101673 0.19380869 -0.06306185 -0.06628008 -0.118760236 0.17727382
-0.07626514 0.009640573 0.099488124 -0.33002642 -0.2478843 -0.25801486 -0.04346057 0.10968112
-0.21868505 0.02867943 0.15724242 0.22645631 -0.0051177186 -0.16276103 -0.11581511 0.023946468
0.04578637 0.20105426 -0.05993793 0.097264044 0.25092968 0.011358119 0.12565553 0.004189439
-0.009675035 0.18259418 0.1657508 -0.022906303 0.14505273 -0.059955038 -0.18954608 0.034597244
0.14320059 -0.12264602 0.15842393 0.09420921 0.10809342 -0.14848094 -0.023291448 -0.079929985
0.1880651 0.17449299 0.01361686 -0.048954844 0.1890866 -0.08606175 0.09517384 -0.23440498
0.013964593 -0.1721597 -0.22254081 0.03077784 0.16262017 0.17348665 0.078053914 0.08892515
-0.08410573 -0.19560115 0.08094281 0.31437165 0.038800895 0.19933246 -0.09307726 0.068316035
0.16192394 -0.12928295 -0.31228778 0.03023801 -0.10951976 0.006204646 0.102342345 0.123978294
-0.21228328 -0.07852386 -0.10761701 -0.18563631 0.22994888 -0.019686066 0.067886904 0.0071182204
-0.16413414 0.034291085 0.08696882 0.12592956 0.100252435 0.1823535 -0.0037861918 -0.0565537
-0.043402955 0.11442846 0.2877685 0.061918467 0.3654376 -0.038355768 0.2688644 0.15736485
0.088586 -0.28024507 0.1008326 0.14873247 0.039141968 -0.010920385 0.18100056 0.07763701
0.080763966 0.05767962 0.026015267 0.14319377 0.11986965 -0.07805611 0.03625905 -0.28872323
0.12784162 0.073555514 0.17515083 0.09731304 -0.057478596 -0.017009616 -0.066225514 0.072947696
0.15889668 0.045426067 0.07699881 0.07112271 0.13271193 0.094823755 0.06072703 0.09684998
-0.14265166 -0.11154057 0.012391038 -0.041671347 0.06230908 0.12671803 0.1745741 -0.2415639
0.056131598 -0.0964702 -0.11764545 -0.2976736 -0.08324943 0.23278853 0.041512415 -0.024754586
0.012650786 0.12122381 0.12434619 -0.093659066 -0.15331729 0.15128976 0.004146052 -0.15168871
-0.089307316 -0.15345728 -0.16515294 0.2658118 -0.13855958 -0.13362576 -0.036160424 -0.050497893
-0.046792742 0.029166259 -0.049038693 0.05182953 0.097297 0.119897515 -0.002237774 0.040677626
-0.24590325 -0.005156563 -0.2809862 -0.11391324 -0.02140819 0.2681843 0.068287715 -0.24939981
-0.08383389 -0.089370504 -0.05769236 0.054740407 0.10393061 -0.02810135 0.18995288 -0.15065923
0.17440009 0.2594387 0.16823423 0.27486503 -0.088610366 -0.25436097 0.083390564 -0.14383443
0.16041334 -0.14628074 0.16084182 0.042628057 0.20334733 0.15015134 -0.098366514 -0.33116984
0.16693205 0.08307549 -0.19768748 0.013461396 0.11011758 0.08969678 0.2086853 -0.019874953
0.01745409 -0.0047654323 -0.06895022 0.23851281 0.004840008 -0.15823768 -0.11532917 -0.1587203
0.10438396 0.036335245 -0.02488011 -0.11710432 0.09907395 0.27587315 0.19733888 -0.028977148
0.180801 0.09479067 0.21412899 0.08088772 -0.1204938 0.17861192 0.1570575 -0.1332469
-0.04568374 -0.2911601 0.18728879 0.0761424 0.016593277 0.025938362 -0.07379114 -0.063040614
0.04032469 0.05807978 -0.0492042 0.18945564 0.078922845 -0.12989104 0.30136544 -0.16184568

arith.constant27 f4 [50]
00000000: 0a5f bb3b c9c8 013d 0000 0000 9044 743d
00000010: ab40 513c 3ea1 33bc b620 653d 2341 4d3c
00000020: c329 26bc 9d3f 643d 085d 9f3c d607 c13c
00000030: 651c 693c 77ae dc3c 6694 3d3d 4036 9bbb
00000040: 0021 bd3b ec78 313d 0554 1b3b e700 19bc
00000050: d734 fa3c 2bef b7bc 2c20 693c e379 0f3c
00000060: 0000 0000 54cd 2c3d 619f fe3b 3f0b a93c
00000070: c675 963c 0000 0000 b951 8e3c f558 0a3d
00000080: 6403 5dbc c137 3e3d 5531 abbc a938 e3bc
00000090: fdfe 263d 6b15 913c 73cb ba3b 9293 223d
000000a0: a09f 643d 780b 183d a9ee 963c b168 26bb
000000b0: 066b 183c 5854 dc3c 6ebe 463d 9081 2a3c
000000c0: fcad f63c 1803 3f3c
0.0057181166 0.031685624 0.0 0.0596357 0.012771766 -0.010963736 0.0559394 0.012527737
-0.010141793 0.05572473 0.01945354 0.023563307 0.014227961 0.02693866 0.046284102 -0.0047366917
0.005771756 0.04332821 0.0023701203 -0.009338594 0.030542774 -0.022452911 0.014228862 0.008757087
0.0 0.042188004 0.0077704643 0.020635245 0.018366706 0.0 0.017372953 0.033776242
-0.013489578 0.04643989 -0.020897547 -0.027736979 0.04077052 0.017710408 0.0057005226 0.039691515
0.055816293 0.037120312 0.018424349 -0.002539199 0.00930286 0.026895687 0.04852145 0.010406867
0.03011226 0.011658452

arith.constant30 f4 [50, 50]
00000000: ad30 a3bd 9d30 51be 495e 2cbe 1d09 73bd
00000010: 9a68 0eba 2fc3 bf3d 5850 393d 38b1 17be
00000020: 963e 4dbe ce2e 1ebe cfb1 3f3e 6228 b0bd
00000030: 0b11 d03c bd73 4fbe a5ee 51be 4fc6 c63d
00000040: a4fc 5e3c 374a 8f3d c159 513e 13b9 463d
00000050: 9df0 2d3e d312 3bbc ed3b 5b3d f720 89bc
00000060: de31 913d 66b1 b3bd ae0e 3b3d 3a02 3cbe
00000070: b8d1 44be d351 11be fcdc f5bd d90d c93d
00000080: 0ee9 8dbd c2f4 49be 24d9 2b3d 133d 473e
00000090: 05d8 49be d463 043d 891b 5c3e 20d5 72be
000000a0: 30e6 05be c9e1 3a3e 9fd2 5dbe c302 02be
000000b0: 5293 21be 661b 143d 1e6b ed3d 9422 0f3e
000000c0: 22b0 323e 7f14 4ebd 474b 363e a767 2ebe
000000d0: fab2 d9bd 26a2 803e c6f7 5cbd 8480 713d
000000e0: 8f4e 153e 7048 163b a638 2a3c b6dc 683e
000000f0: 0b60 edbd 7e71 26be d4c9 79bc b972 04bd
00000100: 5d2b c13d 3454 563e 55cc 62bd 11cf 13be
00000110: dc25 38bc 7b5b 52be ede3 be3d c382 903d
00000120: c397 563e 17bf 9d3d e02f e13b f3b4 50be
00000130: fca7 193d 37d3 62bc c194 aabe 1124 703e
00000140: b433 89bd 006b 8b3d 6069 29bd 1e07 e2bb
00000150: 36f7 63be 86a2 6ebe 0444 b33d 0509 5ebe
00000160: 73aa 07bd 7b85 313d e0b3 653c 2a2b 9d3d
00000170: 44d8 51bd f945 75be 00ba 023e e9f1 23be
00000180: 0fdd 29be 7350 ec3a ae69 0bbd 7ccc 55be
00000190: 49b9 0c3e 4049 a03d 1709 1fbe a4d8 6c3d
000001a0: bc8e 36be 4798 2b3d b5d0 ff3b b5b5 8b3e
000001b0: cbe8 e73d 8a96 393d 636f 333e 3af3 53be
000001c0: fa06 453e 03bf 63be 44f5 1dbe 1a83 3cbe
000001d0: 4996 253e 88b5 0c3e ac1b e2bd c21d a5bd
000001e0: 6854 66be 6fa8 bfbc ac60 fb3d c0f8 133e
000001f0: 1e18 ea3d 5e11 25bd 7e6f 843e c813 3dbe
00000200: 4ad7 273e 6820 25be f1c1 26bc ce69 50be
00000210: 19b9 673e 19a0 4c3e 5969 c23d 7328 46be
00000220: 3266 00bd ee30 393e 4e99 553e 4b19 c8bd
00000230: d2a1 3cbe d5e1 4d3e 9bc9 3abe d1d6 62bc
00000240: bc74 973e deac b73d 7a9e 283e 1fcc bdbd
00000250: 594d 453d 1892 22bc f2ff 58be f474 46be
00000260: 5556 353e 95bc 4cbe 4d98 07bc f889 99bc
00000270: 9d46 67bc 857f 263d 7a83 86bd e8f6 083d
00000280: 855f 2dbe 80e7 98be b515 4bbe 71ed 153e
00000290: 248a 65be 0d9e 5cbe 146a 09be f39e dbbd
000002a0: b357 59be 9f23 26be c476 6f3e cba8 9c3d
000002b0: 275b 96bd f097 64be 54f0 bbbd c0e9 643d
000002c0: 94df 0f3e b9e9 973d ad45 f33d 9856 a83c
000002d0: e971 1d3d 690b 4dbd f6c4 b93d d13a 823d
000002e0: 2af4 96bd 4f84 65bd 7a7e 1cbe abd5 633e
000002f0: de02 83bd 2f3c eb3d 5443 54bc 9477 f23c
00000300: db7e 043e f3ed 44be fa0b f53d 7fbe 863c
00000310: ec97 633d b69f 663e 76b8 abbd 73e2 d23d
00000320: 0e89 a6bd eac8 7fbd 4857 cd3c e20d 89be
00000330: 5ecd b9bd 14fe 1abe 6cc6 3dbe 061a 6fbe
00000340: 35b7 f2bd 1e54 b13d 4976 6bbe 8686 b53d
00000350: 53ec 9fbd 0255 81be 4dcf 84be fa3a c03d
00000360: 8919 083d 112a 893d 1882 fabc b58d 1f3e
00000370: b04c 033e 8133 193e 7d6f d13d de0a 863d
00000380: 2b12 703e cc8c 20be 338c e83d 8cac a83d
00000390: 89b7 233c b4d2 1bbe eee9 49be 5fb7 8c3d
000003a0: ac20 4bbe 1058 ac3d bcec 883d 56e5 5fbe
000003b0: c635 5d3e 1ff7 54be 9318 cbbd f44f 48be
000003c0: 6dc1 993d 2fa4 a2bc fbbc dd3d f1fd 253e
000003d0: 8aac f43d d749 603e 370c ab3d 8080 43be
000003e0: 8252 7cbe 4c0e 4abe 8141 40be d470 0cbe
000003f0: c6af 16be eea9 19be 584b aabd 7724 403e
-0.079682685 -0.20428701 -0.16832842 -0.059334863 -0.0005432457 0.093634 0.045242637 -0.14813697
-0.20043406 -0.15447542 0.18720172 -0.086014524 0.025398752 -0.20258994 -0.20501192 0.09705793
0.013610039 0.06996577 0.20444395 0.048516344 0.16986318 -0.011418062 0.053523947 -0.016739352
0.070895895 -0.087740704 0.045668297 -0.18360224 -0.19220626 -0.1419137 -0.1200504 0.09817094
-0.06929217 -0.19722274 0.04195513 0.19456892 -0.19711311 0.032321766 0.21494879 -0.23714113
-0.13076091 0.18250193 -0.21662377 -0.12696366 -0.15778854 0.03615894 0.115926966 0.13978034
0.17450002 -0.050312515 0.17802154 -0.17031728 -0.1062984 0.2512371 -0.053947233 0.058960453
0.14580749 0.002293136 0.010389483 0.22740445 -0.11590584 -0.16254231 -0.0152458735 -0.03233597
0.09432099 0.20930558 -0.055370647 -0.14434458 -0.011239495 -0.2054271 0.09320817 0.07056191
0.2095633 0.07702463 0.006872162 -0.20381527 0.037513718 -0.013844303 -0.33316615 0.23451258
-0.06699315 0.06807518 -0.04136026 -0.006897821 -0.22262272 -0.23304185 0.08753207 -0.21683128
-0.033121537 0.043340188 0.014019936 0.076742485 -0.051231638 -0.23952474 0.12766266 -0.1601025
-0.16588233 0.0018029347 -0.03403633 -0.20878786 0.13742556 0.07826471 -0.15530811 0.057823792
-0.17827886 0.04189327 0.0078068622 0.2728707 0.113236986 0.04530958 0.1752296 -0.20698252
0.19240943 -0.22240834 -0.15425593 -0.18409386 0.1617061 0.13741124 -0.11040434 -0.080623165
-0.22493136 -0.023395745 0.12274298 0.1445036 0.11430381 -0.040299766 0.25866312 -0.18464577
0.1639072 -0.16125643 -0.010178075 -0.20352861 0.22629203 0.19982947 0.0949275 -0.19351368
-0.03134746 0.18085071 0.20859262 -0.09770449 -0.18421105 0.2010568 -0.18240969 -0.013845162
0.2958125 0.08968519 0.16466704 -0.09267449 0.048169468 -0.009922527 -0.21191385 -0.19380552
0.17708714 -0.19993813 -0.008276057 -0.018742546 -0.014115957 0.040648956 -0.06568046 0.033438593
-0.16930969 -0.2986412 -0.198325 0.14641358 -0.22415978 -0.21544667 -0.13419372 -0.107236765
-0.21224861 -0.16224526 0.23385149 0.07649382 -0.07341605 -0.22323585 -0.09176698 0.055886984
0.14050132 0.07417626 0.11878524 0.020549104 0.03843871 -0.05005971 0.090707704 0.063588746
-0.07370789 -0.056034382 -0.15282622 0.22249477 -0.06397031 0.114860885 -0.012955505 0.029598035
0.12939017 -0.19231395 0.11965175 0.016448257 0.055564806 0.22521862 -0.083847925 0.10297098
-0.0813161 -0.062447466 0.025066033 -0.26768404 -0.09072374 -0.15135986 -0.18532723 -0.23349771
-0.1185135 0.08658622 -0.22994341 0.08863549 -0.07808747 -0.25260168 -0.25939408 0.09386249
0.033227477 0.06697477 -0.030579612 0.155814 0.12822223 0.14961053 0.10226343 0.065450415
0.2344443 -0.1567871 0.11354866 0.08236036 0.009992489 -0.15217096 -0.19718143 0.06870913
-0.19836682 0.08415234 0.066857785 -0.21864828 0.21602544 -0.20797394 -0.099167965 -0.1956175
0.07507596 -0.01985368 0.10827061 0.16210152 0.11946972 0.21903168 0.08351939 -0.19091988
-0.24640849 -0.19732016 -0.18774988 -0.13714916 -0.1471549 -0.1500623 -0.08315152 0.1876391
