models/tflite/SRNN/SRNN-Bidirectional.tflite (tflite, 38320 bytes, 8 tensors)

arith.constant3 f4 [2, 100]
000000 b2 aa d0 3d 01 c3 bd 3e 0f cf 39 3e cb d2 9e 3e
       0.101888075 0.3706284 0.18145393 0.31020197
000010 c1 2e 23 3e 35 93 4d be ed f7 5d be 55 b9 0e be
       0.15935804 -0.20075686 -0.21676607 -0.13937886
000020 81 fd 77 be b0 a5 14 3f da a6 30 bd c2 a2 87 3e
       -0.24217798 0.5806532 -0.043127872 0.26491362
000030 e4 53 cb bd 99 de 1f be ab 45 b8 3e bb df db bd
       -0.0992811 -0.15612258 0.35990652 -0.107360326
000040 26 05 49 3e 25 e5 9b 3b 0b 1f 0e be 1f 15 ac be
       0.1963087 0.0047575408 -0.1387903 -0.33609864
000050 b5 dc ff bd 23 ae 28 3f b4 61 c0 3e 87 3b 1f 3f
       -0.124932684 0.6589071 0.37574542 0.62200207
000060 0e 0c 86 bb 02 21 8a be 04 d8 e7 3e e9 21 f3 3e
       -0.0040907925 -0.26978308 0.45281994 0.4748681
000070 a0 a3 77 3e 77 49 11 3e 83 0d c3 3e 7c c0 de bd
       0.24183512 0.14188181 0.38096246 -0.10876557
000080 c2 e6 19 3f c2 c1 b6 be d9 68 a3 be 0f 14 e1 3e
       0.60117733 -0.356947 -0.3191593 0.43960616
000090 76 d1 3f 3f 96 df ce 3d 6d 6d 06 3d 97 c3 1d be
       0.7492899 0.101012394 0.0328192 -0.15406643
0000a0 b9 b3 c3 be f8 49 20 be be 15 fe 3d f0 56 a0 3e
       -0.38223055 -0.15653217 0.12406491 0.31316328
0000b0 ac 30 80 3e b7 35 e8 3d 8a 1d b3 3e 59 d6 90 3e
       0.25037134 0.1133837 0.34983474 0.28288534
0000c0 37 d2 0e 3f 81 0b e5 3d 6f 48 2e be f5 96 1d 3f
       0.5578951 0.11183835 -0.17019819 0.6155847
0000d0 c0 a6 df 3e 8f 3b 94 3e 3e 7b 3f bd 01 fd f4 3e
       0.43681908 0.2895169 -0.046748392 0.47849277
0000e0 f6 41 c6 be 41 57 48 be 38 fa 88 3d e5 77 8f 3e
       -0.387222 -0.19564535 0.066883504 0.2802116
0000f0 ba c3 75 3e 12 16 aa be 10 95 2b 3e 77 eb 09 bd
       0.24000445 -0.33219963 0.16756082 -0.033671822
000100 46 73 97 3e 80 23 ca bc 3c 07 ef 3e 32 85 6b be
       0.29580134 -0.02467513 0.46685207 -0.23000029
000110 4e fc f1 3d ab 7f 2e 3e dd 86 2c 3f bf ed cd 3e
       0.118157014 0.17040889 0.67393285 0.40220448
000120 77 f5 ab bd 14 f5 b7 3e 8b e3 a8 bd 22 3a 96 3e
       -0.08396428 0.35929167 -0.082465254 0.29341227
000130 65 09 29 3e 40 6b 41 be dc 61 cb 3e bb 03 b1 3e
       0.1650749 -0.18888569 0.39723098 0.3457316
000140 96 4e 85 be fb a4 5c be 62 42 94 3e 7d 1f 6f be
       -0.2603652 -0.2154731 0.28956896 -0.23351856
000150 13 00 bc 3e 58 a6 99 bd 53 d8 7d be 09 3f bb 3e
       0.36718807 -0.07502431 -0.24789552 0.3657153
000160 5b b6 54 be d6 2a 87 3e 4f 03 81 be f3 df da 3d
       -0.20772688 0.2639987 -0.25197837 0.10687246
000170 22 fb a7 be dd 0d 6b 3d 77 18 0e 3f 1b 61 db 3e
       -0.32808787 0.057386268 0.5550608 0.42847523
000180 48 25 09 3d 85 ed 70 be 74 c5 f3 3e e6 ec 89 be
       0.03348282 -0.23528107 0.47611582 -0.26938552
000190 7f d5 41 3e bb 9a 00 bf 0d 8f 83 be 41 c8 81 bd
       0.18929099 -0.502361 -0.25695077 -0.063370235
0001a0 aa 74 e6 be bb 1d 89 3e ef 3b 17 3d ba 5c 3d bd
       -0.45010883 0.26780495 0.03692239 -0.04623101
0001b0 77 d0 6c 3e 54 af a9 be 2b c7 8c 3e 8d b6 e5 be
       0.23126398 -0.33141577 0.27495703 -0.44865838
0001c0 44 7c 91 3e 70 5f 4c 3e 39 88 ca be 17 72 9d bd
       0.2841512 0.19958282 -0.39557055 -0.076877765
0001d0 30 f9 83 3d 31 6d ac 3e ab 21 55 bd e2 30 af bd
       0.06444013 0.33677056 -0.05203406 -0.085542455
0001e0 34 ba fe 3d 61 e5 f9 be af c3 f9 be 45 1f c1 be
       0.12437859 -0.48807815 -0.48782107 -0.3771917
0001f0 3c 9c de 3d 45 cf 92 3e 47 74 63 be 63 bd fc be
       0.10869643 0.2867376 -0.22212325 -0.4936324
000200 e6 3a 19 3d 5f c0 35 3d 20 9b dc bd ae e4 19 3e
       0.037409686 0.044372912 -0.10771775 0.1502864
000210 74 4e f4 be 10 0d b2 3e 8f d4 9c 3e 31 16 cc be
       -0.47716105 0.3477559 0.3063092 -0.3986068
000220 76 e1 bd be 06 9f 62 be 82 0b 54 be 61 64 a7 bd
       -0.37086076 -0.22130975 -0.20707515 -0.08173443
000230 73 32 9e 3e 2b ec a5 bd 30 80 b5 be 7c 36 d2 be
       0.30897865 -0.08101686 -0.35449362 -0.41057193
000240 c9 54 9d be ee cb a1 3e 9d b2 2d be 48 52 17 bf
       -0.30728748 0.31600899 -0.16962667 -0.59109926
000250 1e eb 0e bf 2e 71 33 3e d6 93 4e 3e 2f 2c 06 bf
       -0.5582751 0.17523643 0.20173582 -0.5241117
000260 5b ef 22 bf ab 32 af be 29 aa 9f 3e 1a 77 56 be
       -0.6364648 -0.34218344 0.3118451 -0.20943871
000270 9a 03 93 3e a5 bd 7f bd 38 81 4e be 76 d1 ea be
       0.28713685 -0.06243672 -0.2016648 -0.4586293
000280 c8 72 44 3c 29 49 89 3e 01 94 19 be 3a c6 5b 3e
       0.011990257 0.2681363 -0.14997865 0.21462336
000290 24 06 db 3d 49 84 07 3e 67 83 e9 be d0 71 7e 3e
       0.106945306 0.13234057 -0.45608065 0.24848104
0002a0 e1 19 a3 be e6 86 b7 be 91 54 0b bf b2 06 16 be
       -0.31855682 -0.35845107 -0.54425913 -0.14650992
0002b0 a3 75 d8 3d 95 a9 9c be 74 ec ed bd ea 0f 46 bd
       0.105693124 -0.3059813 -0.116173655 -0.04835502
0002c0 92 cb ac be 26 82 7d 3e 84 19 f7 be d2 5b 8e bc
       -0.33749062 0.24756679 -0.48261654 -0.017377768
0002d0 97 72 5a 3e 15 bd 16 3e 24 7a 13 bf 0c f5 b6 3e
       0.21332775 0.14720567 -0.57608247 0.3573383
0002e0 dc c4 63 be 03 d9 63 3d 6a 85 27 3e 73 9d a7 be
       -0.22243065 0.05562688 0.16359487 -0.32737312
0002f0 73 25 b7 3e 31 8f 83 be 5d 1a 87 3d 02 8b 9a 3e
       0.3577076 -0.25695184 0.06596825 0.3018418
000300 ef 05 bb 3d 59 d6 bd 3d c1 d9 10 bf 0e 06 f4 be
       0.09131991 0.09269399 -0.56582266 -0.4766087
000310 6c af 40 be 20 1e 60 3e fe fc a1 be 52 12 38 3e
       -0.18816918 0.21886492 -0.3163833 0.17975739

arith.constant4 f4 [2]
000000 3a 33 71 bd 3b 33 71 3d
       -0.058886744 0.058886748

arith.constant16 f4 [50, 3]
000000 cb 9b 1b 3d 3c e3 1d bf 6f a4 1b be 81 4b 14 3f
       0.037990373 -0.6167486 -0.15199445 0.5792771
000010 e2 30 92 be 17 b7 d8 3e f0 6e 4c 3f df 59 cd be
       -0.2855292 0.42327186 0.7985678 -0.4010763
000020 f7 d1 15 3f 9c a3 92 3e a0 fe c4 3e b7 13 8c be
       0.58523506 0.2864045 0.38475513 -0.2735879
000030 72 0e c2 be f2 d2 90 bd 05 46 9e 3d 1d fc a5 3e
       -0.37901646 -0.070714846 0.07728199 0.3241891
000040 dc 9b b9 3e b5 e9 f4 be 6a 7b a2 3d c2 13 04 3f
       0.36251724 -0.47834554 0.079336956 0.5159265
000050 f3 3c 7e 3d e9 a9 59 be 32 2e 9d 3e 17 9a 95 3e
       0.062069844 -0.21256222 0.30699307 0.29219124
000060 35 2f d2 bd 6e 7d a5 3d 91 49 ff 3c b9 dc 0e 3d
       -0.1026291 0.080805644 0.031163009 0.034878466
000070 d3 7f be 3e 02 86 b3 be 82 b5 ec bd 47 f9 09 3e
       0.37206897 -0.35063177 -0.11558057 0.13473998
000080 89 60 fe be 4c 87 81 3d 54 d2 fa 3e 07 eb de 3d
       -0.49683025 0.06324634 0.48988593 0.10884672
000090 f3 a3 b4 be 13 f4 a8 be d9 ea bf 3e ae 33 55 3e
       -0.35281333 -0.32998714 0.37483862 0.20820495
0000a0 31 a0 b6 ba 6c df 09 3c 57 99 8d be 85 b8 b5 be
       -0.0013933239 0.008415084 -0.27656052 -0.3549234
0000b0 e8 c0 85 bd 51 20 94 3e d3 dd fd ba 7e 64 17 3c
       -0.065309346 0.28930905 -0.0019368477 0.009240268
0000c0 12 28 3e 3d cb e8 c4 3e 61 fe c3 be 5b 41 4c be
       0.046424933 0.38458857 -0.38280013 -0.19946806
0000d0 3e 9f aa 3e 45 a5 e4 3d b5 f0 39 3d 05 bd 18 3f
       0.33324617 0.11164335 0.04539557 0.5966342
0000e0 3d 72 1f bf 90 89 61 3c 91 99 8b be 83 16 a6 3e
       -0.6228369 0.013765708 -0.272656 0.3243905
0000f0 21 1a bb 3f 4e 12 d3 be 6e 14 be 3e b1 51 ac bd
       1.4617349 -0.41224903 0.37124962 -0.08414019
000100 b2 c7 ca 3e 2c b7 f0 be 78 ab 83 3d 7c 22 ca 3c
       0.3960548 -0.4701475 0.064291894 0.024674647
000110 d3 fc e1 bd c2 59 9c be b8 f1 9b 3e d5 48 8b be
       -0.110345505 -0.3053723 0.30457854 -0.27204004
000120 6a 62 1c 3e d7 e8 e7 3d 58 cb 66 b9 2b 65 02 be
       0.15271917 0.113237076 -0.0002201026 -0.12733905
000130 db 5d ff 3d 65 d7 95 be 98 b7 9e 3e 13 aa b8 3e
       0.124690734 -0.29265895 0.30999446 0.36067256
000140 81 39 ec be ec cc ad 3c 71 85 e9 be 04 b9 52 bd
       -0.46137622 0.021215878 -0.4560962 -0.051445976
000150 bb 72 35 3f 7e c8 2e bd 41 91 80 be 78 46 1d 3f
       0.7087819 -0.042671673 -0.2511082 0.6143565
000160 a0 bd d2 3c 07 fc 90 be 63 af ae bd fc d7 92 3e
       0.025725186 -0.28317282 -0.08529546 0.28680408
000170 d5 69 3e 3e 8c 87 05 3d df 57 95 3e 84 29 74 3d
       0.18595059 0.03259997 0.29168603 0.059609905
000180 19 99 8a be a7 7a 8a 3e dc b2 18 bf a1 69 55 3d
       -0.2706993 0.270467 -0.5964792 0.05210269
000190 2e bb d7 3e 70 ab 3f 3d 66 f0 86 be 6e 3c 7a 3e
       0.42134994 0.046794355 -0.26355284 0.24437115
0001a0 a0 50 13 bf 20 ae 04 3e d0 f1 d3 3c 00 14 d9 bd
       -0.575449 0.12957048 0.025872141 -0.10599518
0001b0 93 08 76 be e1 82 b9 3e 98 bb 93 3e f9 8d 3e bc
       -0.24026708 0.36232665 0.2885406 -0.011630529
0001c0 cf 02 ab be 1e c2 ae 3e 65 67 1a 3d f6 81 b2 3e
       -0.3340058 0.34132475 0.03769626 0.34864777
0001d0 e6 21 09 3d 57 d6 e2 3d 3f d1 ac be 0d 5c e1 3e
       0.033479594 0.11076038 -0.33753392 0.44015542
0001e0 43 e9 9d 3d a6 32 05 3f e1 99 8d 3e d7 6d 0f be
       0.07710507 0.5203041 0.27656463 -0.14006744
0001f0 9c 62 bf 3e 5c c3 86 3e bd 62 5a 3d aa 79 10 3f
       0.3737992 0.26320922 0.05331682 0.56435645
000200 eb 89 be 3d 79 5c 14 3e 79 2c 4c 3e 37 eb 72 bd
       0.093036495 0.144884 0.1993884 -0.05930635
000210 97 aa 6a 3f 69 3b 91 bc d7 f2 b8 bd 9c 22 e0 3e
       0.9166655 -0.017728524 -0.09030693 0.43776405
000220 41 b7 fe 3e 01 3f 25 bf cd b5 a2 be 43 5b bc 3d
       0.49749187 -0.6454926 -0.31779328 0.09197094
000230 9f 3b 82 3e 8b 9a 30 be 82 9f c4 3c 85 92 47 bd
       0.25436112 -0.17246453 0.02400184 -0.048723716
000240 a8 e5 70 3d f2 40 e8 3e 1a 94 e9 be 84 c8 14 3e
       0.058812767 0.4536205 -0.45620805 0.14529616
000250 f5 ad fe 3e 95 01 68 3e
       0.49742094 0.22656853

arith.constant17 f4 [50, 50]
000000 e0 8a 69 bd 3b be 33 3e 6b 2d 31 3e 42 e0 89 bb
       -0.057017207 0.17553036 0.17302482 -0.004207642
000010 ea 38 2c 3e 73 02 32 bd 1c d8 94 3c 2a 19 23 be
       0.16818586 -0.043459367 0.018169455 -0.15927568
000020 2e f1 d3 3d 28 b0 f3 bd 76 44 1a bc b6 56 a1 be
       0.10348736 -0.118988335 -0.009415736 -0.31511468
000030 48 04 a5 3d 3f eb 0c 3e 4b 56 52 bc ba 98 b8 bd
       0.08057457 0.13761614 -0.012837957 -0.09013505
000040 37 c9 a2 3c d9 e4 62 be 33 c3 79 3e 43 50 c8 bd
       0.019871337 -0.22157611 0.24390869 -0.09780934
000050 63 a1 2f be 99 3b cf bc 0f bc 97 bd 52 e4 0d bc
       -0.17151408 -0.025296973 -0.07408916 -0.008660393
000060 28 37 a5 3d 19 bd af bd 86 6d 0a 3e eb b4 53 3e
       0.08067161 -0.085809894 0.13518342 0.20674483
000070 23 e8 23 be 59 33 7d 3c 08 d8 8a 3d 12 8b e0 bd
       -0.16006522 0.015454137 0.06779486 -0.109640256
000080 5a 7b 7f 3e 51 a3 78 3e 3c ec ee 3d bd 85 4d 3d
       0.24949399 0.2428105 0.11666152 0.05017637
000090 22 ba 1c be 97 0b 3a 3e 2b a9 1d 3e 99 33 4d bd
       -0.15305379 0.18168484 0.15396564 -0.050098035
0000a0 c7 83 c9 3c 8e c1 34 3e d0 92 de bd fa 46 fd 3d
       0.02459897 0.1765196 -0.10867846 0.12367053
0000b0 6e 87 a2 be 02 d2 3b be e5 20 20 be b3 cc 7d 3d
       -0.3174395 -0.1834183 -0.15637548 0.061962795
0000c0 0c da a6 bc ee 40 be 3d 88 91 f0 3d a0 f7 3f be
       -0.020367645 0.09289728 0.11746508 -0.18746805
0000d0 a4 7e 6e be 48 ed c0 3c 8e 47 16 3e fa 81 a7 3d
       -0.23290497 0.023550645 0.14675733 0.08179088
0000e0 cb 5d d4 3d 16 1a 5d bd bf 9d be bc 0a 85 52 3e
       0.10369452 -0.053979956 -0.023268579 0.20558563
0000f0 e5 50 dd 3d 97 39 ba 3d 98 26 0b 3c a0 e1 6a 3e
       0.10806445 0.09093016 0.008493088 0.22937632
000100 b3 83 96 3b 9d bb 3c be 6c f1 3b be 22 57 8d 3d
       0.0045933365 -0.18430944 -0.18353814 0.06901385
000110 a4 8e 87 3d d8 73 97 3d 70 ba f6 bb b5 be d0 bc
       0.066190034 0.07395142 -0.0075295493 -0.025481561
000120 bd 48 2e 3c d0 30 42 3d 1e 9e a2 3e 22 ca 43 be
       0.010637459 0.047409832 0.3176126 -0.19120076
000130 d0 0b 43 be ee 74 de 3d d5 07 c9 bd e0 4d b2 bd
       -0.19047475 0.10862146 -0.09815947 -0.0870626
000140 e1 ae 05 3e 61 60 10 bd fe 42 44 3e b6 d1 52 bd
       0.13054992 -0.035248164 0.1916618 -0.051469527
000150 2c 93 72 3d 0e 65 32 be 69 5a 81 3e 66 4a 83 3c
       0.059222385 -0.17421362 0.2526429 0.016026687
000160 9e de 4c 3d a7 18 d0 3d d3 87 ce bc ef 5b 90 3e
       0.05001699 0.10160952 -0.02521125 0.2819514
000170 65 bf 00 be 03 28 1c bd 0a 98 90 3e 15 71 b2 bd
       -0.12573011 -0.038124096 0.28240997 -0.08712975
000180 59 72 b4 bd fe cd 41 be 51 6a 20 3e bd fb 2f 3e
       -0.088108726 -0.18926236 0.15665556 0.17185874
000190 b0 65 8d bc 9c dc 16 be 80 52 7a 3e e9 25 8a bd
       -0.017260402 -0.14732593 0.24445534 -0.06745512
0001a0 ee d5 50 3d 81 20 c6 3c b6 a7 cb 3d c2 40 df bd
       0.05098527 0.024185421 0.09944098 -0.109010234
0001b0 db f1 ca bd ca 89 59 3e 94 c2 56 be 98 7f d0 3d
       -0.099094115 0.21243969 -0.20972663 0.101805866
0001c0 c6 ed e8 bd 22 55 bf bd 40 e2 e8 bd 27 c1 5f be
       -0.11373477 -0.0934241 -0.11371279 -0.21851026
0001d0 d4 ca 03 3d 42 aa b6 bd bf c1 2b be 53 eb a4 3e
       0.032175854 -0.08919193 -0.16773127 0.32210788
0001e0 c8 d4 07 be 25 bd 8c 3d 7f 71 12 3e 27 ca dc bc
       -0.13264763 0.06872014 0.14301108 -0.026951862
0001f0 0e d5 37 3d e6 ea 08 be 1c 9f b0 3d d8 da ea 3d
       0.04488092 -0.13370857 0.08624098 0.114675224
000200 cd a3 93 be 30 ec 8f be 36 20 73 bd 9a 71 00 be
       -0.28835908 -0.28109884 -0.05935689 -0.12543336
000210 69 aa 3f be 12 8f 89 be 01 31 a9 bd d8 99 e6 3b
       -0.1871735 -0.26866966 -0.082613 0.0070373826
000220 f4 cd 74 bd 44 71 bd 3d d4 f6 b1 bb f4 0c 03 3e
       -0.059766725 0.09250119 -0.0054310355 0.1279791
000230 9c 53 70 be 40 11 f7 3c 95 b6 8e bc 98 46 45 3d
       -0.23469394 0.030159593 -0.017421046 0.048163027
000240 a5 0d 75 be 9b 84 c2 3d f6 e0 16 3d 1c 39 0e 3e
       -0.23930986 0.09497949 0.036835633 0.13888973
000250 90 ae 1b 3b 9c f1 51 bd 2a f4 26 3d 03 7f 51 bd
       0.002375517 -0.051255807 0.040760197 -0.05114652
000260 61 7f da bd 40 16 ba 3c 9f fa 62 3d 70 11 c4 bd
       -0.10668827 0.022715688 0.055414792 -0.095736384
000270 41 36 b0 3d 6b a0 35 bd 48 7f 33 be 27 22 45 3d
       0.08604098 -0.04434244 -0.17529023 0.048128273
000280 dc 81 25 bd 51 c6 d0 bd fb d4 a5 bd 87 fb 77 3e
       -0.040407047 -0.10194076 -0.080972634 0.24217044
000290 62 79 8c be e7 2e ac bd 26 5c 8e 3e a0 b5 33 be
       -0.27436358 -0.084073834 0.2780468 -0.17549753
0002a0 b8 05 fb bd d8 b0 fc bd 07 25 31 3e c0 e5 d1 bd
       -0.1225695 -0.12338418 0.17299281 -0.102488995
0002b0 54 58 eb bc 05 e0 f4 bd 04 40 1b 3d 9a d0 6b 3d
       -0.028728642 -0.11956791 0.037902847 0.057571985
0002c0 bc 3e 46 3e 9c 1b a3 be b1 6e 75 3d 66 44 b5 bd
       0.19359869 -0.31857002 0.059920017 -0.088509366
0002d0 75 48 76 be a5 0c 11 be 40 ed 16 bd 06 dc 35 bd
       -0.24051078 -0.1416498 -0.036847353 -0.044399284
0002e0 18 ef 28 be 98 97 22 be f1 f5 63 3e 72 82 06 3e
       -0.16497457 -0.15878141 0.22261788 0.13135698
0002f0 b3 ea 18 3d 89 bb 69 be cc 12 69 3e 17 61 2e 3d
       0.0373332 -0.22825445 0.22761077 0.04257306
000300 18 50 47 bd b0 c2 bf bd 26 f1 e4 bd 51 e2 05 3e
       -0.048660368 -0.093633056 -0.11178808 0.13074614
000310 14 f6 1f be 64 16 d2 bd 2a 13 09 be be 95 0e 3e
       -0.15621215 -0.10258177 -0.13386217 0.1392431
000320 77 a9 51 be d0 9b 4a bd 0c 35 2e 3e c1 24 60 be
       -0.20474802 -0.049465 0.17012423 -0.2188902
000330 00 70 30 bb de 51 c1 bd c6 31 19 3e 25 fe a0 3d
       -0.0026922226 -0.09439443 0.14960393 0.07860974
000340 e9 75 aa 3d 66 61 10 3c 5c d5 7a 3e 97 f7 9f 3d
       0.08323271 0.008812284 0.24495453 0.07810896
000350 60 88 9c 3d 7c b9 23 be 97 d4 32 bd 8b e3 83 bd
       0.07643199 -0.15988725 -0.043659773 -0.06439885
000360 18 df 11 3c ac 4c 17 3c e1 c1 28 be 08 07 41 be
       0.008903287 0.009234589 -0.16480209 -0.18850338
000370 8a 95 0d be f2 09 ae 3d 00 22 f1 bd 38 1f ae bc
       -0.13826576 0.08497991 -0.11774063 -0.02125512
000380 a6 b0 86 3e ba 6f 33 3d 9e 6e ff bd 28 8c 06 be
       0.26306647 0.043807723 -0.124722704 -0.13139403
000390 94 53 45 3d 8c 18 b2 bd 4c 1d 22 3e f4 9e 75 be
       0.04817541 -0.08696088 0.15831488 -0.23986417
0003a0 1a 08 8c be 4c 69 ac 3d 7d 76 46 bd f6 69 5b bd
       -0.2734993 0.08418521 -0.048452843 -0.05356785
0003b0 02 d0 2c be 23 56 a5 3c 70 6a 2c be 5e 01 00 be
       -0.16876224 0.020182675 -0.16837478 -0.12500522
0003c0 e8 2d 82 3d 2c 36 10 3e a2 02 05 3e 33 70 5f 3d
       0.06356412 0.14083165 0.12989286 0.05455036
0003d0 9c cb 1d bd 09 47 7d be b6 22 77 3e 95 fe 87 be
       -0.038524255 -0.24734129 0.24134335 -0.26561418
0003e0 68 96 b9 bd 51 98 29 3e 85 b7 07 be 1a 8b ca bd
       -0.09061891 0.1656201 -0.13253601 -0.09889813
0003f0 c4 ea e0 bd 81 9e 0e be a4 d4 08 3e b0 eb e8 3d
       -0.10982278 -0.13927652 0.13362366 0.11373079

arith.constant18 f4 [50]
000000 5d 53 8d 3e 1e 9f fe 3d 2d c6 2e 3e 34 5d 11 3d
       0.27602664 0.12432693 0.17067786 0.035489276
000010 54 73 bc 3e b5 2d a9 3c 5d 62 4b 3d 48 72 36 3d
       0.36806738 0.020651678 0.049654353 0.04454258
000020 da 17 41 3d a0 3d 86 3c d7 28 5f bd e2 b9 93 3c
       0.047141887 0.016386807 -0.054482307 0.018032972
000030 3f f9 38 be 99 53 7f bd b0 24 c1 ba 73 c2 ac bd
       -0.1806383 -0.062335584 -0.0014735665 -0.08435526
000040 f7 ab d3 3c 34 5e 81 3c 27 4c 83 3c 70 de a9 bd
       0.025838835 0.01579199 0.016027523 -0.0829438
000050 93 56 1f 3e a0 79 61 bc 66 8f da bd b2 e1 bd bc
       0.15560369 -0.013761908 -0.10671882 -0.023178909
000060 8a 19 88 bd a9 d9 c1 bd bf 8f 6d 3c c7 94 1b 3e
       -0.06645496 -0.094653435 0.014499604 0.15193473
000070 28 61 95 bc 7c 44 ff bc b7 96 a5 3d d0 25 47 3a
       -0.018234804 -0.031160586 0.08085387 0.0007596882
000080 0b f0 34 be 9a 20 82 3c 86 7e 3c be e7 78 eb bd
       -0.17669694 0.015884686 -0.1840764 -0.1149767
000090 8b 50 4a 3d 15 fa 24 bd 29 13 13 bb f6 ff f8 bc
       0.049393218 -0.04027756 -0.002244184 -0.03039549
0000a0 1b d5 b0 3d 86 79 2d 3d 6e 6f 0d bc 9b c1 6b bd
       0.08634397 0.042352222 -0.008632524 -0.057557683
0000b0 05 de f1 3d 98 55 ac 3c 17 55 ac 3d 85 22 b0 3e
       0.11809925 0.021036908 0.08414667 0.34401336
0000c0 2b a3 0a 3d 66 b4 2a 3d
       0.033847015 0.041675948

arith.constant22 f4 [50, 3]
000000 f3 95 51 be 4c c0 cc 3e b2 63 f8 3b 2b d0 d9 3e
       -0.20467357 0.3999046 0.007580244 0.42541632
000010 a5 f9 bc 3e a7 ce 0f bf bd 56 7c be 7a fb c6 be
       0.36909214 -0.561747 -0.24642463 -0.38863736
000020 50 4a b9 3d 05 0d 14 3f b6 76 48 be 14 47 70 bd
       0.09047377 0.57832366 -0.19576535 -0.058661535
000030 46 91 69 3f 1c 74 cc 3e 84 5c 2e bf 0a f6 a1 be
       0.91237295 0.39932334 -0.6810992 -0.31633025
000040 a2 51 07 be fd 88 81 bc 17 e4 99 3d 5b 09 cb 3e
       -0.13214734 -0.015812391 0.07514208 0.39655575
000050 0e 48 c6 3d 9c 0e 9e be 72 fd 72 be b5 65 97 3d
       0.09681712 -0.3087052 -0.23729494 0.07392446
000060 81 87 98 be d5 06 4e bd cb af 28 be d3 39 b0 3f
       -0.2979088 -0.050299484 -0.1647331 1.3767647
000070 61 70 13 bd b5 98 83 bb 10 6a dc be fe 82 c3 b9
       -0.035995845 -0.004016007 -0.4304967 -0.00037290895
000080 9d 70 30 bd 2a 18 56 3d 62 07 0d 3f 12 a4 0d bf
       -0.043076146 0.05226914 0.5508939 -0.55328476
000090 db 4c 75 3e 20 d3 a2 3e 55 6a a3 3e 72 87 b6 be
       0.239551 0.318017 0.31917062 -0.35650212
0000a0 de 04 35 3d 7f 0f 74 be d5 4d 70 3f b0 ec 46 be
       0.044194095 -0.23834036 0.9386876 -0.19426227
0000b0 86 81 4e be 79 91 fd 3c 16 3e da 3c d4 b6 87 3e
       -0.20166597 0.030953156 0.026640933 0.26506674
0000c0 d9 32 be be d4 cc 2a 3e eb 34 41 be c7 a0 c4 3d
       -0.3714817 0.16679698 -0.18867843 0.09600978
0000d0 42 62 1b 3f af 8b 3c 3e 17 e7 00 be 80 c7 4c 3e
       0.60696805 0.1841266 -0.12588154 0.19997978
0000e0 47 5f 6c 3e 31 6f 08 be 36 5a cd 3e 5c cb 0f 3e
       0.2308322 -0.13323666 0.40107888 0.14042419
0000f0 7a 2f 95 3e 4c 7a 0d 3c 55 c9 9d 3c ba e7 43 3f
       0.29137784 0.008635115 0.019261042 0.7652546
000100 bc cf ca bb a3 a5 0a bd df fa b6 3f c9 db a8 3d
       -0.0061893146 -0.03384937 1.429531 0.08245046
000110 7e 56 15 be 25 ff 2f 3f 1e 87 b7 be 71 fc 02 3f
       -0.14583775 0.68748695 -0.35845274 0.51166445
000120 95 36 cb 3d 5e 1b 39 3e 11 e4 a2 bb 4b b5 80 3b
       0.0992252 0.18076846 -0.0049710353 0.003927862
000130 ce ac d6 3e d7 0f b3 bc ea 9d a2 3d 7e b7 86 be
       0.41928715 -0.021858139 0.07940276 -0.26311868
000140 10 2c b8 3e c5 e0 58 3f 8c 78 da be ea 3a 1f 3f
       0.35971117 0.8471797 -0.42670095 0.6219927
000150 12 ce 5d be 9c 68 4e be 51 09 9b 3e fe 0d 1c 3c
       -0.21660641 -0.20157093 0.30280545 0.00952482
000160 9e 77 24 be ce a5 b6 be 62 d9 ee 3e 05 ed ca 3e
       -0.16061255 -0.35673374 0.46650225 0.39633957
000170 34 a5 cd be 06 b5 09 3e d4 9d 3c be 5d 8f 71 be
       -0.40165102 0.13447961 -0.18419582 -0.23589845
000180 6c 99 06 3f be b4 50 3d b2 13 9d bd 74 7f 52 bd
       0.52577853 0.05095362 -0.07669772 -0.05139108
000190 93 b5 d1 be 9a 85 33 be 26 45 05 be 04 20 0a 3d
       -0.40958843 -0.17531434 -0.1301466 0.03372194
0001a0 39 72 f0 bc e4 0f 20 3f 8d 8d 8b 3e f6 e8 0e bf
       -0.02935134 0.6252425 0.27256432 -0.5582422
0001b0 1f 4e a4 3f 00 f0 89 bd d1 6c f2 bc 3b d8 1d bd
       1.2836341 -0.067352295 -0.029592903 -0.03853629
0001c0 17 01 47 3e b7 ad 4b 3e be 76 99 be d3 79 e7 bc
       0.1943401 0.19890486 -0.29973406 -0.028256333
0001d0 6a 71 35 3e 18 57 b9 bd 52 c5 92 3e 5d 60 ec 3d
       0.17719045 -0.09049815 0.28666168 0.11541817
0001e0 72 c5 86 3d f3 40 07 3f ad ff 95 3d 9c 2f 1e be
       0.065806285 0.5283348 0.07324157 -0.15447849
0001f0 14 74 9f 3e bf 6c 05 3d a8 ba e3 be 2a 7a 2f 3e
       0.31143248 0.03257441 -0.44478345 0.17136446
000200 6e 16 3c be f3 b8 90 3a ea 23 86 be 3a c5 9b 3e
       -0.18367931 0.0011041447 -0.26199275 0.3042391
000210 af f4 3f be d5 ea 78 be 3c e8 e3 bc 7f 09 99 be
       -0.18745683 -0.24308331 -0.027820699 -0.29890057
000220 6b 3b 03 bd 7b f8 d6 bc 9c 6e bf 3e d9 7d a9 3e
       -0.032039087 -0.026241532 0.37389076 0.33103827
000230 41 52 a8 be 71 51 75 3f d3 5a 05 bd f8 87 ba be
       -0.32875255 0.95827395 -0.03255732 -0.3643186
000240 ca 70 1c 3f 68 96 9b be 39 20 e5 3e d0 bc 17 3e
       0.611096 -0.30388188 0.44751146 0.1481812
000250 91 f3 eb bc 63 0c 51 3c
       -0.028802665 0.012759301

arith.constant23 f4 [50, 50]
000000 00 e3 42 3d a8 d9 a6 3d 55 f5 1b 3e eb fc 3c bd
       0.047579765 0.081469834 0.15230305 -0.04613964
000010 70 7b f1 bc f5 54 98 bd d4 f4 61 3d 96 18 a4 bd
       -0.029477805 -0.07438079 0.055165127 -0.08012502
000020 cb 36 9c bd c9 20 1a bc 3a c0 1f 3d 5f a5 1e 3e
       -0.076276384 -0.009407231 0.03900168 0.15492772
000030 e0 6c 67 be 28 f8 26 bc a9 da db bd 0d cb d1 3d
       -0.22600126 -0.010191001 -0.107350655 0.10243807
000040 96 f9 94 bc 46 6a 30 3d de 79 ab 3e 94 73 23 3e
       -0.018185418 0.0430701 0.33491415 0.15962058
000050 43 61 5d 3d ec 08 43 be d2 08 32 3e 56 ca 1d 3e
       0.054047834 -0.19046372 0.17386177 0.15409216
000060 66 ad a3 bd 18 81 33 be 3e bd f1 bd 0e 20 05 3e
       -0.079920575 -0.17529714 -0.11803673 0.13000509
000070 57 f5 70 3e 9a 93 66 3e 2d f5 a3 be a4 f2 36 bd
       0.2353109 0.22517243 -0.32022992 -0.044664994
000080 73 55 9c 3d 56 7e c4 3d 5e c3 ea 3c 0e 3b f0 bd
       0.07633486 0.09594409 0.028657611 -0.11730014
000090 c3 49 fe 3d ac 48 7a be d6 cb 28 be d9 f1 c7 bd
       0.12416413 -0.24441785 -0.16484007 -0.09762926
0000a0 62 ec 8e bd 1a ca 61 3e 1e 1c 22 be 9c 92 77 bd
       -0.0697868 0.22049752 -0.15831038 -0.060442552
0000b0 62 63 42 be 98 a6 02 bd fd b9 08 3e 7f 85 96 bd
       -0.18983224 -0.031897157 0.13352199 -0.07349681
0000c0 e4 5d d0 3d ac 41 4b 3e fe e0 06 3e 90 21 c6 bd
       0.10174158 0.1984927 0.13171765 -0.0967437
0000d0 c5 27 ee 3d 65 df 11 be ba ca 70 be 85 46 80 3d
       0.11628679 -0.14245375 -0.23514834 0.062634505
0000e0 a4 a6 7a bd d3 5a 02 be a6 b8 f5 3c 62 cc 69 3e
       -0.061194077 -0.12729959 0.029995274 0.22831872
0000f0 0e 3d e9 3c 5d 27 82 be bc 2b 35 3e 85 d1 81 3d
       0.028471496 -0.25420657 0.17692465 0.06338791
000100 de 76 9d bc c9 7d 4d bc 7a f0 a9 be b1 4e d1 3d
       -0.01922172 -0.012542197 -0.33191282 0.10220087
000110 16 ba 97 be 20 82 c1 bb 26 b9 0a be a8 28 86 bb
       -0.2963416 -0.0059054047 -0.13547191 -0.004094202
000120 71 88 09 3e 58 00 0a 3e c1 34 c9 bd d6 71 36 be
       0.13430955 0.13476694 -0.09824515 -0.17816862
000130 7a 6d 42 bd 63 fa f5 3d a0 85 96 3d b1 3b 11 3e
       -0.047467686 0.12010648 0.07349706 0.14182927
000140 7c 09 87 3d 13 78 8b 3e 28 20 5c be 18 f2 69 bb
       0.06593606 0.27240047 -0.21496642 -0.0035697278
000150 56 b5 57 bd d9 ed 10 3e 2e b9 1a 3d b7 b6 ea bd
       -0.05266317 0.14153232 0.037774257 -0.11460631
000160 c5 35 f2 3d 10 0e 19 3e f2 ad fe bd 34 70 44 3c
       0.11826662 0.1494677 -0.12435521 0.011989642
000170 2d c6 b5 bd fc 6a e1 3d 61 b8 64 be 76 b6 f7 3d
       -0.0887569 0.11006734 -0.2233596 0.120953485
000180 a8 f2 0a bc 98 b0 63 3e 05 41 e6 3c fb af d1 3d
       -0.008480705 0.22235334 0.028107176 0.10238644
000190 16 6b 47 be 15 cd e3 be a0 77 1b bd 40 f7 eb 3c
       -0.19474444 -0.44492403 -0.03795588 0.028804421
0001a0 86 32 e6 bd e2 c7 10 3d 84 68 52 bd ae 7e 7e be
       -0.11240105 0.035346873 -0.051369205 -0.24853012
0001b0 93 1a 82 bd 37 97 0e 3e e7 f1 8c bd 00 c8 d0 b8
       -0.06352725 0.13924871 -0.06882077 -9.955466e-05
0001c0 5a bc 12 be 5b d3 26 3e a4 50 dd 3b 28 1b 71 bb
       -0.14329663 0.16291563 0.006753998 -0.0036789868
0001d0 04 e3 8a bd 2d 01 43 3d 4c 11 24 3e 2b 89 a6 bd
       -0.06781581 0.047608543 0.16022223 -0.081316315
0001e0 90 0b f2 bb ff 76 bc bd 1e e0 af 3d ba ff 98 be
       -0.0073866323 -0.09202384 0.08587669 -0.29882604
0001f0 58 2d 33 3d 63 44 c7 bc 14 48 15 3d 01 ae 0a 3d
       0.043744415 -0.024324602 0.036445692 0.03385735
000200 d5 4c dc 3d 2b 5c 78 bd b4 e1 f5 bd bc 04 03 bd
       0.10756842 -0.060634773 -0.1200594 -0.031986937
000210 02 bc 3b be 51 e3 5a 3e b4 0f ab bd 3a 57 f1 3d
       -0.18333438 0.21375777 -0.083526045 0.11784215
000220 58 96 27 3e 21 35 d9 3d 00 40 89 3c ae 64 1d be
       0.16365945 0.10605837 0.01675415 -0.15370438
000230 1b f2 82 bd f6 80 26 be 2c 4f f3 3d 68 e5 8b 3e
       -0.06393834 -0.16260132 0.11880335 0.2732346
000240 c4 76 71 3e a3 a5 50 be 2c 39 55 bd 27 d7 c6 bd
       0.23580462 -0.20375685 -0.052056476 -0.09709006
000250 0e 5c 82 bd 3d 88 3b 3e fc 6c 28 be bc 71 c2 bc
       -0.06365214 0.1831369 -0.16447824 -0.023735873
000260 e8 a8 56 bd e0 75 04 3d c6 13 33 3e e7 fe ef bd
       -0.052407175 0.032338977 0.17488012 -0.11718541
000270 48 48 64 3e 28 b5 74 3d da b3 f8 bc 0a 67 08 bd
       0.22293198 0.059743077 -0.030359197 -0.03330139
000280 ba fb c8 bd 22 2b 9d be 1b 01 e2 bd e9 1d 04 be
       -0.09813638 -0.3069697 -0.11035367 -0.12902035
000290 ae cc ae bd 52 9b 82 be 16 0f 54 bd 9f e4 06 be
       -0.08535133 -0.25509125 -0.0517722 -0.1317315
0002a0 d8 b7 84 bd 17 a3 39 be 25 41 a4 3d d4 4e c7 bd
       -0.06480378 -0.1812862 0.08020238 -0.09731832
0002b0 9c 2d b6 3c 6a 95 1d be 3c 89 06 bf 36 3f 90 3d
       0.022238545 -0.15389028 -0.52553153 0.070433065
0002c0 d4 cf ea bd 58 ea cd bb 86 ab 4b 3d f2 df 3a be
       -0.11465421 -0.0062840395 0.049724124 -0.18249491
0002d0 ae 8a b6 bd b0 e6 f1 3c 0d fe 05 3e 47 95 fb bd
       -0.0891317 0.029528946 0.13085194 -0.12284332
0002e0 24 b6 b2 bd e4 b6 3b bc 56 5c f9 3d d6 a4 4b 3d
       -0.08726147 -0.011457179 0.12175815 0.049717747
0002f0 3f 3b 1c be 55 69 51 bd 67 1a 31 be 2f 15 55 3d
       -0.15256976 -0.051125843 -0.17295228 0.052022155
000300 a8 b9 b7 bd 22 81 fd 3d 6c 0d 14 be e2 50 4b bd
       -0.08970958 0.12378146 -0.14458245 -0.049637683
000310 f2 46 ff 3d c6 cd 1e 3e 04 9b d2 bd a7 3d fc bd
       0.124647036 0.15508184 -0.10283473 -0.12316447
000320 76 0e e0 3d 95 f7 7d be 36 bd 87 bd 41 cd b8 bc
       0.10940258 -0.24801476 -0.06627886 -0.02255881
000330 80 fd 11 3d 12 b1 00 3e 26 b9 2b 3d e6 fb 0a 3e
       0.035642147 0.12567547 0.04192462 0.13572654
000340 52 a2 c1 be 85 92 72 be 7c 30 9d bd 06 4f 89 bd
       -0.37819153 -0.23688705 -0.07675263 -0.06704526
000350 18 e9 c8 3d f3 60 0d 3d dc 21 70 bd e8 77 e8 3d
       0.09810084 0.034516286 -0.05862604 0.11350995
000360 b3 4e 10 3e 56 68 00 3e 2b 5a ab be 1c 43 b0 3d
       0.14092521 0.12539801 -0.3346723 0.0860655
000370 56 6c 6d bd b8 c7 a3 3d d1 49 95 3e 30 55 10 3d
       -0.057964645 0.07997078 0.2915788 0.03523749
000380 69 b5 60 bd ba ae 8e 3d 7f e8 56 be 94 93 90 3d
       -0.054860506 0.0696692 -0.20987128 0.07059398
000390 c0 dd 29 bd 37 5d c0 bd 06 29 a2 be 5e 49 8f bd
       -0.041471243 -0.09392779 -0.31671923 -0.069964156
0003a0 41 e8 00 3e b0 29 a9 bb da af 02 3e 40 58 81 bd
       0.12588598 -0.0051624402 0.12762395 -0.063156605
0003b0 98 dc 3c be 64 d1 27 3d 8b d9 35 3d 7d f4 1b bd
       -0.18443525 0.040971175 0.04439692 -0.03807496
0003c0 44 73 02 3e fc bb dd bc ff 27 93 3d 26 79 c0 bd
       0.12739283 -0.027067177 0.07185363 -0.09398107
0003d0 54 22 de 3d e8 4e aa bd fe 2d 53 3c 88 a6 40 3e
       0.10846391 -0.083158314 0.012889383 0.18813527
0003e0 f2 6e 7f 3d 1d 33 7a 3e b0 a4 f8 ba b9 14 ab 3d
       0.062361665 0.2443356 -0.0018969979 0.08353562
0003f0 08 7c 3f bd 70 f5 b1 bd 16 fe 41 3c a0 ca 39 3e
       -0.046749145 -0.086893916 0.011840364 0.18143702

arith.constant24 f4 [50]
000000 d8 9f 93 3c d9 4e 57 3d 1e a9 78 bd 02 76 59 bd
       0.018020555 0.05256543 -0.060708158 -0.053091057
000010 5a 00 06 3e 25 a0 73 3e 3a 64 70 3d e0 24 21 3e
       0.13086072 0.23791559 0.058689333 0.15736723
000020 bc 16 8e 3e d9 12 6a 3e 62 f0 cc 3e a1 bd e6 3c
       0.2775172 0.22858752 0.40027148 0.028166594
000030 a7 41 79 bc 1a 5a 8d 3e bd 75 0c bd 0d c7 ed 3d
       -0.015213407 0.27607805 -0.03429197 0.116102315
000040 3e d2 9d bd 8c a1 8a 3c 43 9d 3b 3c 53 f4 8d 3d
       -0.07706116 0.016922735 0.011451068 0.06931367
000050 fe 92 cb bd 82 a9 fd 3d 54 6c 8b 3e ad 37 19 3e
       -0.09940146 0.12385847 0.27231085 0.14962645
000060 96 31 63 bd e8 b5 42 bd df 43 28 bd 8e 10 3a 3e
       -0.05546721 -0.04753676 -0.041080352 0.18170378
000070 75 09 a0 bd 50 4e df 3c 99 cf 1e 3e 80 69 6e 3d
       -0.07814304 0.027259022 0.1550888 0.05820608
000080 63 1f c2 3d 2c c0 03 3e 07 33 ab 3e fd 7f 50 3d
       0.09478643 0.12866277 0.33437368 0.05090331
000090 3d 66 33 3e 1f 02 a5 3c 72 c4 a3 bc 9d 95 3e 3e
       0.1751947 0.020142613 -0.019991133 0.1861176
0000a0 1e 59 b9 3c 92 e4 2f 3d 14 9a b4 bd 30 2d 8d bd
       0.022625502 0.04294259 -0.088184506 -0.068933845
0000b0 a7 3d a9 bc cb 22 be 3e 73 50 ff 3d 88 1c f1 bc
       -0.020659281 0.3713592 0.12466516 -0.02943255
0000c0 30 3e 05 3e c4 a8 a0 bd
       0.13012004 -0.078446895
