models/tflite/LSTM/LSTM-Bidirectional.tflite (tflite, 108776 bytes, 8 tensors)

arith.constant3 f4 [2, 100]
000000 bf 89 27 be 33 84 12 3f af d4 1a 3f 08 4c 84 3e
       -0.1636114 0.5723297 0.6048078 0.25839257
000010 3c d5 23 be e6 ee 3e be 61 b9 07 3b 42 4d 67 be
       -0.15999311 -0.1864582 0.002070986 -0.22588065
000020 f7 c7 10 be de bd 45 be 8a aa 65 3e 91 98 b6 3e
       -0.1413878 -0.1931071 0.22428337 0.35663274
000030 ae f0 bb 3e 5e 41 14 3f cf 21 14 3e 6c 3d 4e 3f
       0.36707062 0.5791224 0.14466022 0.8056247
000040 85 8d f6 3e 54 10 a9 3e a6 32 59 be a9 2c 54 3c
       0.48154846 0.3302027 -0.21210727 0.012950101
000050 1d 44 e2 be 9f 57 3f 3e dc a4 51 3f 78 bb 3b 3f
       -0.4419259 0.18685769 0.8189218 0.7333293
000060 88 a5 18 be a0 84 d5 be b6 8a 88 3e 9c 23 ae be
       -0.14906895 -0.41702747 0.26668328 -0.34011543
000070 cb 7a 10 3f 5b c3 c8 be 5d d3 f0 be cd 43 18 3e
       0.5643737 -0.39211544 -0.47036257 0.14869614
000080 19 ad d4 3e 33 53 eb 3e 86 ee e6 3e 7f c0 d3 3e
       0.41538313 0.45961913 0.45103854 0.413578
000090 4b 7e e9 3e 89 6c e9 3e 86 e3 11 3f 73 1b b5 be
       0.45604166 0.45590618 0.569878 -0.35372505
0000a0 ce cd 27 3f 50 51 01 3f 8f b6 15 be 4f 4b c8 bb
       0.6554841 0.505147 -0.14620422 -0.006112493
0000b0 84 32 2c 3f 3f 36 3d 3f b3 e7 04 bf cd 3f 0f be
       0.6726458 0.739109 -0.51916045 -0.13989182
0000c0 2c fe 0d be 21 f3 17 3f b5 67 8e 3e 09 dd 2c 3e
       -0.1386649 0.5935536 0.27813497 0.16881193
0000d0 32 4d 13 bf 96 f0 d6 3e b7 f1 2d 3f 07 f9 e3 be
       -0.57539666 0.41980428 0.6794695 -0.4452593
0000e0 b5 1b 63 3f 27 59 59 3f fa 67 40 3f e0 a2 a8 bd
       0.8871415 0.8490166 0.75158656 -0.08234191
0000f0 a9 d5 45 3f 64 01 cc 3e c4 d6 5d 3e 65 87 d4 be
       0.77279145 0.3984481 0.21663958 -0.41509548
000100 32 58 36 3d d7 35 07 3f 54 0d d0 3e 94 19 06 3f
       0.044517703 0.5281653 0.4063517 0.5238278
000110 28 76 45 3e 07 e4 d3 3e 04 95 9f 3e 94 08 42 3f
       0.19283354 0.4138491 0.31168377 0.7579434
000120 06 7e ae 3e 87 17 8e be e8 f6 93 3e 91 69 1b be
       0.34080523 -0.27752325 0.28899312 -0.15176989
000130 7a 39 79 3d 8c b0 29 3e bd 7c e5 3e ac be 18 3f
       0.06084583 0.16571254 0.4482173 0.5966594
000140 e2 c6 ba be 37 ee d2 be 3f 9e 31 3f c7 07 ed be
       -0.3647986 -0.41197369 0.6938209 -0.46294996
000150 90 21 49 3f 75 e7 4f 3f 49 af 55 3e 65 0e 18 3f
       0.7856684 0.8121255 0.20867647 0.59396964
000160 32 1d 0c 3f 3b b4 5f 3e 9a 12 98 be 03 e3 c4 3e
       0.5473205 0.21846096 -0.29701692 0.38454446
000170 a9 ad 8f 3e a0 45 5b bd a3 db c5 3e b3 68 f2 3d
       0.2806218 -0.053533196 0.38644132 0.11836376
000180 c3 20 a6 be 55 1e 91 3f c7 83 1d 3f d0 32 b0 bd
       -0.3244687 1.1337382 0.615292 -0.08603442
000190 dc 38 e0 3e 09 e9 ce be 47 b9 de be 0c ca bf be
       0.4379338 -0.40412167 -0.4350073 -0.37458837
0001a0 5b 65 fe bd 9f ad ab 3e b4 fd e5 3d de 69 a1 3e
       -0.12421676 0.335309 0.11230031 0.31526083
0001b0 e9 6d ab 3e 69 34 27 3e 0d d8 c5 be 5b a1 12 bf
       0.33482292 0.16328587 -0.38641396 -0.5727746
0001c0 5a 54 80 be 5b 50 85 be 56 4c 09 bf 59 90 22 bf
       -0.25064355 -0.2603787 -0.53632104 -0.6350151
0001d0 e9 a4 2f bf 4f 31 a6 be 01 40 01 3e 76 30 cf 3e
       -0.6861101 -0.32459494 0.12622072 0.4046666
0001e0 3e 4d bb 3e a8 e9 a0 be 70 3c 7a bf 07 53 2f bf
       0.3658237 -0.31428266 -0.9774847 -0.68486065
0001f0 74 f5 b6 3e 4f 80 8e 3e dc 1e ec be 99 b3 68 3e
       0.3573414 0.27832267 -0.46117294 0.22724761
000200 b3 d5 4d bf c1 04 92 3e 45 76 01 3f fd 8c fd be
       -0.80404204 0.28519252 0.5057109 -0.49521628
000210 28 98 de bd 82 21 29 bf b6 6d b1 be f6 95 6a be
       -0.10868865 -0.66066754 -0.34654015 -0.22908768
000220 f4 e4 b5 be 06 54 8a bd 85 02 a6 be 74 2b b0 3e
       -0.3552624 -0.067543074 -0.32423797 0.34408152
000230 ee fe 81 be 57 bb c1 be e9 53 c0 3e 06 81 ad be
       -0.25389808 -0.3783824 0.37564018 -0.338875
000240 9c c1 87 bf 09 7f 37 bf 6d 08 78 3e ab ad 14 3d
       -1.060596 -0.71678215 0.24221964 0.036298435
000250 7d 95 ea 3c 94 b5 60 bf 0a c4 1e bf a2 04 ee be
       0.028635735 -0.87777066 -0.6201788 -0.4648791
000260 48 d0 0f 3f 7d 08 c7 be 3f 75 21 bf 77 0c aa 3e
       0.56177187 -0.38873664 -0.6306953 0.33212635
000270 26 ec 0f bf 22 29 39 bf ba 8d 14 bf c2 8e 62 3e
       -0.5621971 -0.7232839 -0.5802876 0.2212477
000280 c2 6c 0f bf 48 9e ca be df 6b a5 bd 98 7e 5f 3e
       -0.56025326 -0.39573884 -0.080772154 0.21825635
000290 bc f5 83 be dd 02 f0 bd a2 6a 22 bf 85 8f 4c be
       -0.25773418 -0.11719296 -0.6344396 -0.19976623
0002a0 91 55 c8 be 9a fd 5b be a7 0b 37 bf 38 a0 33 bf
       -0.39127782 -0.2148346 -0.71502155 -0.7016635
0002b0 47 39 ff be c0 5f 9b 3e 28 f7 a5 be 11 43 fa 3e
       -0.49848387 0.3034649 -0.32415128 0.48879293
0002c0 71 e3 d3 3d eb 3a 17 bf e6 8a 1c bf da 4d 48 bf
       0.103461154 -0.59074277 -0.6114944 -0.7824379
0002d0 f5 1c 6d 3e e3 14 1b 3f 1a 3b 92 be af 1d cb 3e
       0.23155577 0.60578746 -0.28560716 0.39671084
0002e0 70 26 74 bf 14 8f 36 bf 79 a4 f9 be 0a a3 15 bf
       -0.9537115 -0.7131207 -0.48758295 -0.584519
0002f0 c0 be de be 7c e1 26 bf 82 07 e0 3e 19 94 9d be
       -0.43504906 -0.6518781 0.43755728 -0.30777052
000300 14 53 f8 be bf a3 0b 3e ee c7 d9 be 75 99 fe be
       -0.48500884 0.13636683 -0.42535347 -0.49726453
000310 54 cd 04 3e e0 d2 60 bf f5 c9 9c be 59 68 7b bd
       0.12968951 -0.8782177 -0.3062283 -0.06137881

arith.constant4 f4 [2]
000000 44 0c a5 bd 4d 0c a5 3d
       -0.0805898 0.08058987

arith.constant16 f4 [200, 3]
000000 04 03 c8 3e 91 8f d5 3e 3a f5 77 bf 6c 40 e3 3d
       0.390648 0.41711095 -0.9685856 0.11096272
000010 41 3b 0d 3f 67 ff a9 be c8 8f 55 bb 13 61 02 bf
       0.5516854 -0.3320267 -0.003258692 -0.50929374
000020 76 3d 06 be 75 3e 22 3e 62 af 8e 3e 9c b3 a5 3c
       -0.13109383 0.15844138 0.2786818 0.020227246
000030 0b ba 92 bd e1 0f 20 3f d1 2f 43 bf 69 a8 74 3e
       -0.07164391 0.6252423 -0.7624484 0.23892368
000040 06 9e 23 bd 37 29 9e bd 9b d9 d9 3e d4 57 0b bf
       -0.039945625 -0.07722705 0.42548832 -0.5443089
000050 33 c7 f7 3e c2 3c 5e 3e 3d 04 2a bf 83 d3 d8 3e
       0.48394164 0.21702865 -0.6641272 0.4234887
000060 c1 d0 b3 3d 92 43 76 3f b0 48 cf be 57 3f a5 bd
       0.08780051 0.96196854 -0.40485144 -0.08068722
000070 ee 9c 37 3f 75 9c 48 3e 92 5d 85 3e 93 0b 25 bf
       0.7172383 0.19590934 0.2604795 -0.64470786
000080 ae 2c bc be 37 aa 30 3f 19 ac a0 3d 60 f3 b2 bd
       -0.36752838 0.6900973 0.07845325 -0.08737826
000090 cb f4 f2 3e 57 4a 89 be 1d c4 b9 3c de bb f1 be
       0.47452387 -0.2681453 0.022676522 -0.47213644
0000a0 e5 dd 2b 3f 8c 5d f3 3c 7b 12 87 be bb 5a c7 bc
       0.6713546 0.029707693 -0.26381287 -0.024335256
0000b0 37 ba d8 3d ce d1 2b 3f 3e 75 d5 be a8 dd 45 be
       0.10582393 0.6711701 -0.4169101 -0.19322836
0000c0 6f be 11 3f 03 b3 f7 be 9b a3 fd be 43 07 bb 3e
       0.56931204 -0.48378763 -0.49538884 0.36528978
0000d0 31 ca a7 bd 67 81 4d 3e e4 90 0a 3e 95 5e 82 3e
       -0.08192862 0.20068894 0.13531834 0.25462785
0000e0 bd 08 e6 3d f7 84 09 3f 43 87 a8 3d 72 53 34 bd
       0.112321354 0.53718513 0.08228924 -0.044024892
0000f0 ce 80 62 3f 3e 5d e1 3e 76 a7 7e bf d3 f7 ca 3e
       0.8847779 0.4401645 -0.99474275 0.396422
000100 8c 00 c6 be 26 76 f2 3d fa 69 e8 3e 81 db 90 be
       -0.38672292 0.11838941 0.45393354 -0.28292468
000110 36 0e 92 be 9f 36 3b 3c 8c 04 82 3e c1 ae 42 3d
       -0.28526467 0.011426597 0.25394094 0.04752994
000120 90 95 06 3f 95 82 b7 3e 3b d4 65 be 60 b8 84 3e
       0.52571964 0.35841814 -0.22444241 0.25921917
000130 97 f6 b0 3d 1d 08 a2 bc d8 43 df 3c c8 41 a8 3c
       0.08640783 -0.01977926 0.02725403 0.02053918
000140 d5 74 cb 3d ee 2c 21 3f 26 52 05 bf 20 ac 90 bd
       0.09934393 0.6295918 -0.52078474 -0.0706408
000150 68 0b 1c 3f 33 3f 28 bf cc 18 bb be c9 a0 97 bd
       0.60954905 -0.65721434 -0.36542356 -0.07403714
000160 61 28 25 3f 11 e6 24 bf 5d c4 5a 3e 70 ab 58 3f
       0.6451474 -0.64413553 0.21363969 0.8463659
000170 b0 7b 91 3e cb 20 95 3e 6e 84 6d be 21 26 32 be
       0.2841468 0.29126582 -0.23195049 -0.17397358
000180 1a 89 10 3f 18 5b b7 bd a1 eb d8 3e cb 19 6f 3d
       0.564592 -0.08952922 0.4236727 0.058374207
000190 32 85 62 3e 6b b8 c9 3d c8 3b b7 3c ed 49 4e bf
       0.22121122 0.09849628 0.022367373 -0.8058155
0001a0 05 72 97 3e d1 21 5e 3d 79 09 42 bf 52 3a d5 3e
       0.29579177 0.05423147 -0.75795704 0.41646057
0001b0 5d 96 67 ba ae 69 c2 3e 0c dc 0b bf a7 51 7c 3e
       -0.00088343566 0.37971252 -0.5463264 0.24640523
0001c0 ff 4d 1d bf 57 41 29 bf 5d 44 16 3f db 36 d7 be
       -0.6144714 -0.66115326 0.58698064 -0.4203404
0001d0 bb 92 83 be 99 c8 80 3f 40 9d e9 be cc 11 ec be
       -0.25697884 1.0061218 -0.45627785 -0.46107328
0001e0 e8 d6 40 3d e4 35 c0 3d b9 f0 12 3e 5d 05 0b 3f
       0.04707995 0.09385279 0.14349641 0.5430506
0001f0 13 3c 6e be f1 f9 ee bd 38 99 b8 3e d7 3c 4d bc
       -0.23265104 -0.11668766 0.36054397 -0.012526712
000200 62 ab ba 3d 9c 17 1a bd eb 9a 6f bd 26 f1 97 bd
       0.0911472 -0.037620172 -0.05849735 -0.07419042
000210 dc b9 75 3f 85 5c bc be 6f ae 69 be 98 19 f6 3e
       0.95986724 -0.36789337 -0.22820447 0.480664
000220 68 2e 53 be 9e 3e 9b bd 05 be 55 bd 16 37 34 3f
       -0.20623171 -0.07580303 -0.05218317 0.70396554
000230 86 10 e6 3d 92 41 6d 3f 23 c0 89 bf 5a 90 14 bf
       0.1123362 0.9267818 -1.076176 -0.58032763
000240 5a f6 36 3f 53 44 1b 3e cb 78 3e bf 50 53 30 be
       0.7146965 0.15162782 -0.74403065 -0.17219281
000250 5e 9c 24 bd 0c d6 90 3d 50 da a1 3d 72 72 1f 3e
       -0.040188186 0.07072076 0.07902968 0.15571001
000260 73 bd ea bd 1a 7d 58 bd 82 82 44 bd 86 69 fd bd
       -0.11461916 -0.05285368 -0.047976024 -0.123736426
000270 bf 9a 19 be 83 0b ae bd 14 0b 6c 3d c0 60 1a 3c
       -0.15000437 -0.084982894 0.057627752 0.009422481
000280 2f 9d 2e be 05 9e 29 be 57 a4 2e be 70 90 2c be
       -0.17052148 -0.16564186 -0.17054878 -0.16851974
000290 38 11 82 3c 17 7d 8f bd 80 f1 7d 3d f4 59 08 3d
       0.015877351 -0.07006281 0.06199789 0.03328891
0002a0 00 5f db 3a f0 e7 14 3c cb 67 b2 bd 3a 83 15 be
       0.0016736686 0.009088501 -0.08711203 -0.1460084
0002b0 5c 01 01 3d 4b a9 f0 bd 90 7b bb 3c 24 d6 a6 3d
       0.031495437 -0.1175104 0.022886068 0.08146313
0002c0 c0 3c da bc 38 3d f4 3d 62 1c b0 bd e2 dd 51 bd
       -0.026640296 0.11925739 -0.085991636 -0.051236995
0002d0 04 c5 4b 3d 58 93 d8 3d f8 1c 22 be 1e 9c 49 bd
       0.049748436 0.105749786 -0.15831363 -0.04922115
0002e0 40 99 99 3b 7e 4f 4c bd db 9f c5 bd 60 f3 14 3e
       0.0046874583 -0.049880497 -0.09649631 0.14545965
0002f0 00 5d 85 3c 74 f1 1e 3e f4 16 b0 3d d0 44 26 3e
       0.016279697 0.15521795 0.08598128 0.16237187
000300 4b 45 dc bd 4e cb 10 3e be 20 1b 3e 18 58 2d 3e
       -0.10755404 0.14140055 0.15149209 0.16928136
000310 f2 e6 a8 bd b2 a8 20 be 77 6e b1 bd 00 3e 0e 3a
       -0.08247174 -0.15689352 -0.086636476 0.0005426109
000320 8b d6 d8 bd 4d c6 a4 bd 83 35 28 be 20 07 c9 3d
       -0.10587796 -0.08045635 -0.16426663 0.09815812
000330 04 e9 a8 3d b8 dd 0e 3e 00 b7 6a ba b4 5e 20 3d
       0.08247569 0.13951766 -0.0008953661 0.039152816
000340 9b e4 2f be de 9d 7c bd 50 45 fb bd ba fa c0 bd
       -0.1717705 -0.06167399 -0.1226908 -0.09422822
000350 92 9f ed bd 84 aa 1b 3d b9 9c d1 bd a1 c2 2e be
       -0.11602701 0.038004413 -0.102349706 -0.17066433
000360 54 05 b4 3d d8 d9 f8 bd 0c 71 ae 3d b4 0b 06 3e
       0.08790079 -0.121509254 0.08517656 0.13090402
000370 d6 cb 90 3d 1c c3 12 3d d0 47 16 bd 9c 94 01 3d
       0.070701286 0.035830602 -0.03668958 0.031635866
000380 9d 0e 82 bd 88 d5 e0 3d a4 ca a4 3d 90 8a 02 3c
       -0.063504435 0.10978228 0.08046463 0.007967606
000390 48 bd 22 3d 00 b1 90 3d f7 ca 8b bd 2c d5 2e bd
       0.039731294 0.0706501 -0.06825822 -0.042683765
0003a0 7b 03 fe bd a0 8a ea bc 7f 96 27 be e4 a4 ba bd
       -0.124030076 -0.028630555 -0.16366003 -0.09113482
0003b0 5c e4 dc 3d f0 12 dd 3d 0e 5b 2c 3e 98 f8 53 3d
       0.107857436 0.10794628 0.1683161 0.05175075
0003c0 44 99 f8 3d 04 d9 2f 3e 2e ef 74 bd f8 30 fa 3d
       0.12138608 0.17172629 -0.059798412 0.12216371
0003d0 c4 d3 42 bd 10 1f 47 3d 54 9b c5 3d 9c ac 04 3e
       -0.047565237 0.048613608 0.09648767 0.1295647
0003e0 5a 18 2a 3e 44 fb 67 bd 10 4e 32 bc 34 d7 39 bd
       0.16610852 -0.05663611 -0.010882869 -0.04537125
0003f0 3a 6e 54 bd 8e 04 27 3e 53 d6 0b be 30 96 30 3d
       -0.051862933 0.16310331 -0.13655977 0.04311198

arith.constant17 f4 [200, 50]
000000 90 33 d4 3d 8c 15 b1 bc f6 d2 23 be f0 bb e3 3c
       0.10361397 -0.02161672 -0.15998444 0.027799577
000010 07 e1 b2 bd d0 bc 1a 3c 60 99 e0 3b 80 a8 20 3c
       -0.08734327 0.0094444305 0.006854221 0.0098057985
000020 a2 74 fe bc b4 27 cb bd da 39 58 bd 36 91 9f 3d
       -0.031061474 -0.09919682 -0.052789547 0.07791369
000030 04 3d 8a 3c c0 4c 15 3e b2 9e 56 bd 58 79 8d 3b
       0.016874798 0.14580059 -0.052397437 0.004317444
000040 3d ce 8a bd 90 b6 74 bd 08 73 64 bd 10 f1 04 bc
       -0.06777618 -0.059744418 -0.055773765 -0.008114114
000050 fc ab a1 3c 64 6c d4 bc 72 d2 ba bd 20 eb ec 3b
       0.019735329 -0.02593059 -0.091221705 0.0072301775
000060 9e e8 93 bd 80 f3 cd bc ed 9d 8f bc d2 46 d8 bc
       -0.072221026 -0.025140524 -0.01753136 -0.026400957
000070 ad 35 9a 3d 6e c2 38 bd 94 0b 40 3d 56 e0 39 3c
       0.07529769 -0.045107298 0.04688604 0.01134499
000080 6f 7d c3 3d 1b a9 d3 bd 24 eb de 3c 2a 64 d7 3c
       0.09545409 -0.10334989 0.027211733 0.02629288
000090 6d 19 a9 3d bf ec 8d 3d be e6 86 3d d9 4d d1 3d
       0.08256803 0.06929921 0.06586979 0.102199264
0000a0 f2 d4 c9 bd c9 d1 77 3c fc cf ae 3c 3f e5 2c bd
       -0.09855069 0.0151257 0.021339409 -0.042210814
0000b0 b9 6e f6 bc e3 ad 00 be d4 f6 b2 bd 1f b5 9d bd
       -0.030082094 -0.12566333 -0.08738485 -0.07700562
0000c0 16 97 14 3e 99 97 01 3d ca ce bb bd 00 5a 20 bd
       0.1451076 0.031638715 -0.09170301 -0.03914833
0000d0 f6 4f 9f bb 6e bb 95 3b 0c 9b ca 3c 63 d9 47 3e
       -0.004861827 0.0045694625 0.024732135 0.1951652
0000e0 35 10 d1 bd 63 06 fa bb 27 28 30 bd 07 62 e2 bd
       -0.10208169 -0.007630156 -0.043007042 -0.110538535
0000f0 15 83 4e bd 98 80 8b bd 7f 95 18 bd 36 91 43 3c
       -0.05041798 -0.06811637 -0.037251946 0.011936476
000100 1c c3 04 3b e2 49 29 3c f9 2c b0 bd 10 0c 84 3d
       0.0020257896 0.010332556 -0.08602328 0.06447613
000110 e5 f2 a0 bd 23 09 93 3d ce 60 c8 3d 5e 84 c8 3d
       -0.078588285 0.07179477 0.09784089 0.09790872
000120 d5 df 85 3b 1d 85 0d bd 53 db 72 bd 22 b3 a6 3c
       0.0040855207 -0.034550775 -0.059291195 0.020349089
000130 9d d2 dd bd 99 c0 8c bd 2c b8 d8 bd e0 ee 2b b9
       -0.10831187 -0.068726726 -0.10582003 -0.00016396819
000140 91 b0 2b 3d 10 0a be 3c ab bb 7a bd ce 17 cc bd
       0.041916434 0.023198158 -0.06121413 -0.09965478
000150 60 20 02 bd 15 e3 08 3d 4e 46 88 bd 88 de 09 bd
       -0.031769156 0.033419687 -0.066540346 -0.033659488
000160 a1 14 b4 bc 01 95 3a bd ee 46 e8 bb a0 30 76 bc
       -0.021982493 -0.045552257 -0.0070885336 -0.015026242
000170 4e 8c c8 3d 74 ef 6c bc 3b ab 8f 3b b0 6a 14 3d
       0.09792386 -0.014461387 0.004384426 0.036234558
000180 ab a1 b7 3d 82 5c c6 3c 74 c2 90 bd aa bb 29 3d
       0.089663826 0.024214033 -0.07068339 0.041438736
000190 d8 f8 b2 bd be 97 57 3d 40 b9 f5 bc e4 7a ca 3d
       -0.087388694 0.052634947 -0.02999556 0.09886721
0001a0 04 9b f2 3d 4c 47 64 bd ee 70 52 3d eb 28 24 3b
       0.11845973 -0.055732056 0.05137723 0.0025048803
0001b0 f4 c5 f0 bc d0 dc 0b 3e 2e 97 8f 3c d8 9f 94 bc
       -0.029391266 0.13658452 0.017528143 -0.018142626
0001c0 c1 5e f9 3d f1 95 a6 3d e6 1a ad bc cc 64 9d bd
       0.12176276 0.08134068 -0.02113099 -0.07685241
0001d0 36 9f 39 3d 05 4b 55 3d ec 42 3f bd 1f f7 8e 3d
       0.04531785 0.052073497 -0.04669468 0.06980728
0001e0 7c 67 f2 3b a0 4f 84 3c c2 8e 46 3c e6 2f 01 3e
       0.00739759 0.01615125 0.012118997 0.12615928
0001f0 34 54 85 bd 56 e8 4e 3b e8 27 f9 3c 2d 4b 2a 3c
       -0.06510201 0.0031571588 0.030414537 0.0103939
000200 35 61 fd 3b 31 d5 0a 3e fd bf 4a 3c 8e 34 3a bc
       0.0077325352 0.13557889 0.012374875 -0.011365069
000210 26 5e 39 bd f8 6d ab bd 81 cb 8d 3d f4 1f 68 3d
       -0.045255803 -0.08370584 0.06923581 0.056671098
000220 88 07 9f 3a 54 70 c0 3c 7e 60 f3 bc 2a cb 07 3c
       0.0012132982 0.023491062 -0.029709097 0.008288184
000230 0b bb c0 3d 1f 4b 77 bd b2 bc fc 3d 96 ea 2c 3b
       0.094106756 -0.060374375 0.12340678 0.0026384941
000240 51 94 26 bd ce 1d 14 bd f4 f7 2e 3d 64 f9 b3 3a
       -0.04066879 -0.036161236 0.042716935 0.001373094
000250 e1 44 a5 bd 79 b2 80 bd 0d b8 0f be c6 ef 34 bd
       -0.08069778 -0.06284041 -0.14035054 -0.04417398
000260 5e 9f 1e 3d c0 db 06 3d 5a c2 4b 3d 6b d3 c5 3c
       0.038726203 0.032924414 0.049745895 0.024148664
000270 f7 7f bd bd 24 6a 0c 3d b4 bd f7 bb a6 4d 61 bb
       -0.09252923 0.03428091 -0.007560456 -0.0034378557
000280 32 17 43 3c a8 f9 8d 3d 42 18 c9 bd d1 42 1d be
       0.011907386 0.06932384 -0.0981908 -0.1535752
000290 8c 2d f7 bd 72 cc f3 3c 6a ae 66 bc fe d1 ef 3d
       -0.12069234 0.029760573 -0.0140796695 0.11709975
0002a0 cc 28 01 be 75 ef ed bd f4 0a 5b 3d 53 1f d9 3d
       -0.12613219 -0.116179384 0.053477243 0.10601678
0002b0 c0 fe 16 3d 6b 1f 35 3c 2e 73 a7 3d 18 98 c6 3a
       0.036864042 0.011054854 0.08176266 0.0015151529
0002c0 08 75 cd bb e4 00 42 3c cd 08 a2 3d 91 3a 07 be
       -0.0062700547 0.011841033 0.07911835 -0.13205935
0002d0 c4 8a 10 bd 5f 23 30 bd a3 2e 87 3c 36 52 1f 3c
       -0.035288587 -0.043002483 0.01650173 0.00972419
0002e0 7d ba 85 3d c4 8b f6 3d 2d d7 13 3d df 2a 05 be
       0.065297104 0.12038377 0.03609388 -0.13004635
0002f0 77 69 d2 bc 54 07 e8 3c a8 b4 56 bd 6f de ec bd
       -0.025685055 0.028323807 -0.05241838 -0.11565863
000300 d4 23 c6 3b fe cd f0 3d b6 27 63 3d 0d 87 fb bd
       0.0060467515 0.1175804 0.055457793 -0.12281618
000310 e9 e2 ff 3c 1c a9 0b 3e 68 01 4e 3b f9 03 14 3d
       0.031236129 0.13638729 0.0031433944 0.0361366
000320 32 74 cf 3d a1 1d 34 be 2f 74 61 3d d0 23 61 3d
       0.10129584 -0.17589428 0.055042442 0.054965794
000330 00 b0 55 3a c8 01 82 bd 4c f8 fa bd d7 a3 6a 3d
       0.0008151531 -0.06347996 -0.1225439 0.057285156
000340 a0 f6 91 b9 e0 82 30 bb 6a 83 4f 3d c6 3c 6b bd
       -0.00027840305 -0.0026933476 0.050662436 -0.057431005
000350 88 5b 34 3c 29 2a ab bd 88 8f bc 3d f8 8e a4 bd
       0.011008151 -0.08357651 0.09207064 -0.080350816
000360 fd 46 99 3c dd 8b c7 3c 08 2a 10 be fe b1 28 be
       0.018710608 0.024358684 -0.14078534 -0.16474149
000370 50 d2 ba 3c 98 46 be bc 7a 70 87 bd 58 cc 74 3c
       0.022805363 -0.023227021 -0.0661325 0.0149412975
000380 52 98 e3 bc 1e 7f 0f bd cf ea 8a 3d 27 b6 47 bd
       -0.027782593 -0.035033338 0.067830674 -0.0487577
000390 0d ce 01 bc 1b ec 00 3e 38 dc e5 bc 7a 8b 28 bd
       -0.0079226615 0.12590067 -0.02805911 -0.04114864
0003a0 4b 8b bf bd b6 b1 74 3d cf 28 94 3d 60 5c 88 bc
       -0.0935274 0.05973979 0.07234346 -0.01664561
0003b0 eb 02 8e bd 37 f3 8a 3d be 54 88 bd ee 47 a6 bc
       -0.0693415 0.06784671 -0.06656788 -0.02029797
0003c0 c6 06 e6 3d ce 7b 1d bd 02 b4 c8 3c a2 68 fc bd
       0.11231761 -0.038448147 0.024499897 -0.123246446
0003d0 3f 43 7c bc 32 45 1b bd 66 ff 10 3e ac 4f 04 bc
       -0.015396892 -0.037907787 0.14159927 -0.008075636
0003e0 e1 91 16 3e 96 e9 dc bd e3 28 85 bd fa 67 a9 bd
       0.14704086 -0.107867405 -0.06501939 -0.08271785
0003f0 54 5e 86 3c 31 e9 4c 3d 16 0e c2 3d d0 8a 8f bd
       0.016402401 0.050027076 0.09475343 -0.07008898

sequential_13_1/bidirectional_2_1/backward_lstm_7_1/while/lstm_cell_1/add_1/ReadVariableOp f4 [200]
000000 b4 a3 e1 3e 02 05 34 3e ad 60 fe 3e 14 5e 6f 3e
       0.44070208 0.17580035 0.49683133 0.23375732
000010 16 22 c0 3e f1 45 67 3e 99 16 32 3f 56 86 2b 3f
       0.37526006 0.22585274 0.6956573 0.67001855
000020 17 92 bd 3e 7d 5c a2 3d 3e 9b 0d 3f 5e c4 27 3e
       0.3702552 0.07927797 0.55315006 0.16383502
000030 90 4f ce 3d b0 0c 0c 3e 11 9f 5a 3d 73 d7 c4 3e
       0.10073769 0.13676715 0.053374354 0.38445625
000040 78 1f 17 3f 24 32 ff 3e c6 49 81 3e 5d 5e 78 3e
       0.5903239 0.49842942 0.25251597 0.24254747
000050 e1 4b eb 3e 82 95 23 3f d5 2a b6 3e b4 7e 58 3e
       0.4595633 0.63900006 0.35579553 0.21142083
000060 ce 67 99 3e d5 10 a2 3e c4 b2 12 bd fd e2 ee 3e
       0.2996201 0.31653467 -0.035815015 0.46657553
000070 f2 fc 1e 3f 8e b9 dd 3e 3f aa b2 3d f4 61 00 3f
       0.62104714 0.4330563 0.08723878 0.50149465
000080 3e 00 22 3f 5d 22 a3 3e a8 a2 78 3f a2 b6 11 3f
       0.6328162 0.31862155 0.97123194 0.569193
000090 9b 74 94 3e aa 78 04 3f 61 15 b8 3e 31 f1 fe 3e
       0.28995213 0.5174662 0.3595381 0.4979339
0000a0 8f 27 96 3e 55 88 6f 3e c8 5e a3 3e 66 8c 2c bd
       0.29327056 0.2339185 0.3190825 -0.042126082
0000b0 6c 6c cd 3e 3e 0b b9 3e 99 7b e5 3d 57 23 84 3f
       0.40121782 0.3614139 0.11205215 1.0323285
0000c0 79 b7 c4 3e fa d7 3c bd 00 00 80 3f 00 00 80 3f
       0.3842123 -0.04610441 1.0 1.0
0000d0 00 00 80 3f 00 00 80 3f 00 00 80 3f 00 00 80 3f
       1.0 1.0 1.0 1.0
0000e0 00 00 80 3f 00 00 80 3f 00 00 80 3f 00 00 80 3f
       1.0 1.0 1.0 1.0
0000f0 00 00 80 3f 00 00 80 3f 00 00 80 3f 00 00 80 3f
       1.0 1.0 1.0 1.0
000100 00 00 80 3f 00 00 80 3f 00 00 80 3f 00 00 80 3f
       1.0 1.0 1.0 1.0
000110 00 00 80 3f 00 00 80 3f 00 00 80 3f 00 00 80 3f
       1.0 1.0 1.0 1.0
000120 00 00 80 3f 00 00 80 3f 00 00 80 3f 00 00 80 3f
       1.0 1.0 1.0 1.0
000130 00 00 80 3f 00 00 80 3f 00 00 80 3f 00 00 80 3f
       1.0 1.0 1.0 1.0
000140 00 00 80 3f 00 00 80 3f 00 00 80 3f 00 00 80 3f
       1.0 1.0 1.0 1.0
000150 00 00 80 3f 00 00 80 3f 00 00 80 3f 00 00 80 3f
       1.0 1.0 1.0 1.0
000160 00 00 80 3f 00 00 80 3f 00 00 80 3f 00 00 80 3f
       1.0 1.0 1.0 1.0
000170 00 00 80 3f 00 00 80 3f 00 00 80 3f 00 00 80 3f
       1.0 1.0 1.0 1.0
000180 00 00 80 3f 00 00 80 3f 00 00 80 3f 00 00 80 3f
       1.0 1.0 1.0 1.0
000190 b6 26 28 3e 02 bf 99 bc c2 a7 aa 3e 86 f4 36 3e
       0.16421017 -0.018767837 0.33331114 0.17866716
0001a0 e1 85 c5 bc 9c ec e6 3e 38 6f bf 3d 95 96 b3 3d
       -0.02411169 0.45102394 0.09347385 0.087689556
0001b0 fe 60 3b bd 79 21 dd 3d f0 b3 2d 3d de 64 91 bc
       -0.045746796 0.107974 0.04240793 -0.017748293
0001c0 cd 37 a9 ba 4f 10 7c be 8f 7f 58 bd 8b 98 76 3d
       -0.0012910307 -0.24615596 -0.052856024 0.06020407
0001d0 03 38 6a 3c 97 a5 5a 3e 64 5b 43 3e 31 2b f8 3d
       0.014295581 0.2135223 0.19077832 0.12117613
0001e0 dc 4a b9 3d e8 67 92 3d 02 d6 30 3d 26 27 a1 3e
       0.090474814 0.07148725 0.043172844 0.3147518
0001f0 c7 17 1e 3e b4 17 ec 3e 2f 8c 3e bd dd c3 7e 3d
       0.15438758 0.46111834 -0.04652041 0.06219851
000200 85 1e 96 3d 3f 9e 27 bd f5 42 1a 3e b1 15 2c 3f
       0.0733004 -0.0409224 0.15064605 0.672206
000210 d4 ce 35 3e 2c 1c cb 3e 79 9e a3 3d 3b e8 2f 3d
       0.1775468 0.3966993 0.07989211 0.04294608
000220 f5 64 d1 3d 6d d9 96 3c 6d 9f 44 3d 8e 5e 66 3d
       0.10224334 0.018414224 0.048003603 0.056242518
000230 23 16 c7 3e e3 d4 01 3d 42 18 e3 3d 85 a2 80 bd
       0.38884076 0.031697165 0.11088611 -0.06280998
000240 77 e0 34 bc 84 1a 78 3d ac 28 01 3e b0 92 6c 3d
       -0.011039845 0.060572162 0.12613171 0.05775708
000250 bb 3b ed 3d 96 74 99 bd 19 59 d2 3e f6 fd e3 3d
       0.11583658 -0.0749294 0.410836 0.111324236
000260 5b 04 e9 3e 6c 68 6d 3e fd 58 d1 3e 26 eb 33 3e
       0.45511135 0.23184365 0.40888205 0.17570171
000270 bd 9c 35 3f c2 ab 2c 3f 32 ac e0 3e 31 f0 45 3d
       0.7094229 0.6744958 0.43881375 0.048324768
000280 89 7b 0f 3f 0b 0d 3f 3e 57 a4 f0 3d 25 f3 34 3e
       0.56047875 0.18657319 0.11750095 0.17670877
000290 dc ce 53 3d af 30 bc 3e f2 11 0d 3f ac 15 fd 3e
       0.05171095 0.36755893 0.5510551 0.49430597
0002a0 13 e4 7b 3e fe 23 8c 3e 8e 94 d9 3e 99 6c 1b 3f
       0.24598722 0.2737121 0.4249615 0.6071258
0002b0 75 cd b3 3e 00 df 0e 3e 94 45 98 3e 80 e3 b0 3e
       0.3511769 0.13952255 0.29740584 0.3454857
0002c0 4f 92 12 bd bc ce ed 3e 9d 68 23 3f 25 fa dc 3e
       -0.035784062 0.46446788 0.638315 0.43159595
0002d0 4a 75 10 3e f4 db e4 3e dc 13 15 3f 36 5d 40 3e
       0.14107242 0.4469906 0.5823343 0.18785557
0002e0 03 53 7a 3f 71 3c 13 3f 7c f8 a1 3e d4 b2 02 3f
       0.97782916 0.575141 0.3163489 0.5105412
0002f0 7f 11 c1 3e de d3 00 3f 4d 9b 8a 3e 58 a3 6f 3e
       0.3770866 0.50323284 0.2707161 0.23402154
000300 8b 06 af 3e 45 4a 2b bd a2 f1 c0 3e c1 dd a5 3e
       0.3418468 -0.041818876 0.3768435 0.32395747
000310 88 d0 93 3d 17 50 83 3f 08 7a ac 3e 75 71 3d bd
       0.072175086 1.0258816 0.33686852 -0.04625078

arith.constant21 f4 [200, 3]
000000 df 5f 0b 3e e1 d7 89 3f 5f ec 15 3e a2 25 54 3f
       0.1361079 1.0769006 0.1464095 0.82869923
000010 47 ac a6 bd ae 1e 1d be 2e 36 0e 3f 30 08 fe be
       -0.08138328 -0.15343735 0.5555142 -0.49615622
000020 bd fc 12 bf eb a8 5e 3e f7 a7 da 3c bc eb ff 3b
       -0.574169 0.21744125 0.02669142 0.007810084
000030 44 03 45 bd df 3c 1b be 2e d4 54 3e 36 1b 1a 3e
       -0.048098817 -0.15159939 0.20784065 0.15049443
000040 a7 c7 86 3f 59 61 23 3d 89 ab 2e be 41 29 9f 3c
       1.0529679 0.03988776 -0.17057623 0.019428851
000050 c5 0f 0f 3e 22 c0 16 3e 56 63 a4 3f ab 0a 64 bd
       0.1397086 0.1472173 1.2842815 -0.055674236
000060 dd dc 00 be b3 36 8f 3f 63 80 97 bd 9f dc eb bd
       -0.12584253 1.1188568 -0.07397535 -0.115166895
000070 dd 0d 4d 3f a7 08 7d 3d ad bb d6 3e 15 08 3a bd
       0.8009928 0.06177583 0.4194006 -0.045417864
000080 f3 ec c0 be 9b ed a0 3e d3 e2 a9 be fd fe de be
       -0.37680778 0.3143128 -0.33180866 -0.43553916
000090 7b 31 c6 3d 7c 9c 7f 3e a2 ad 66 be df 8c 59 3f
       0.096774064 0.24962038 -0.22527173 0.8498058
0000a0 76 bd f0 be 33 0d 73 be 35 3a 64 3f 00 cb ba be
       -0.47019547 -0.23735504 0.89151317 -0.36483002
0000b0 ba 13 c1 be b4 8b 92 bc 3c 75 44 3f 8f 25 3b bf
       -0.37710363 -0.017888881 0.76741385 -0.73104185
0000c0 83 6a 74 3d ee b3 37 bf 44 61 e3 3e 70 e2 61 3e
       0.05967189 -0.71758926 0.44410145 0.22059035
0000d0 8c b2 50 3e 6f a7 44 3d 93 67 34 3e 09 61 05 3f
       0.2038061 0.04801124 0.17617635 0.5210119
0000e0 59 ff 79 bc 99 04 16 3e d0 4a 33 3f d3 a5 8a 3e
       -0.0152586335 0.14650191 0.7003603 0.2707964
0000f0 dd 1e 16 3e 71 7e ea 3c 43 a8 38 3e f6 ac b9 3e
       0.14660211 0.028624745 0.18032937 0.3626477
000100 98 f2 b0 bd c2 0d 1b bd 19 40 ea be 88 1b 36 3f
       -0.08640021 -0.037854917 -0.45752028 0.7113576
000110 99 0d da bf 1b c9 11 3f c8 4d 26 bf 36 53 d4 bd
       -1.70354 0.5694749 -0.64962435 -0.10367434
000120 7a 96 13 3e 67 b3 88 3f 9d f0 13 3e 20 ea af 3c
       0.14412871 1.0679749 0.14447255 0.021473944
000130 45 7c 99 3f c7 d8 ad bd 71 28 a7 be be d4 39 bf
       1.1991049 -0.084886126 -0.32648042 -0.72590244
000140 69 a9 a1 3e f4 e8 8f 3d 8b b7 5f be d3 98 4e bd
       0.31574562 0.07026854 -0.2184736 -0.050438713
000150 51 8a 20 bd 3a b5 55 3f b6 9d 44 bf a0 f6 21 b9
       -0.03919441 0.83479655 -0.7680315 -0.00015446031
000160 ad ce 83 3f c2 d8 5d 3d c0 39 5b 3e d2 1b 51 3e
       1.0297447 0.054161794 0.21408749 0.20420769
000170 8c 7f fb bd ee 64 1a 3f 94 43 e6 bb b2 59 d6 be
       -0.12280187 0.60310256 -0.007027099 -0.41865307
000180 db c8 3b 3f dc 82 58 be 9d dd c4 bd 3a e8 42 3f
       0.73353356 -0.21143669 -0.09612582 0.761356
000190 44 13 0f be 92 b0 8a bf e5 e5 ca 3e 57 9c 8b 3e
       -0.13972193 -1.0835135 0.3962852 0.27267715
0001a0 4e e9 2a bf 16 ac 39 3e 7e 38 50 3e 02 fe 0c bd
       -0.66762245 0.18132052 0.2033405 -0.03442193
0001b0 74 f8 ea 3e f6 9d 46 3e c5 4b 05 be c7 00 b3 3e
       0.4589268 0.19396195 -0.13017185 0.3496153
0001c0 82 04 ba 3e 70 a4 2b be da 8e 96 3e 74 90 98 3d
       0.36331564 -0.16761947 0.29405862 0.07449427
0001d0 d0 d9 10 3d 6b 2a 2f 3e 43 17 43 3f 9f 4f 67 3e
       0.035363972 0.17106025 0.7620737 0.22588967
0001e0 c5 ea 5a 3f 50 88 c3 be 63 9e 17 bf 09 9c 2a 3f
       0.8551448 -0.38189936 -0.59226054 0.6664434
0001f0 c0 c3 6f 3e ad a5 5e bf e5 03 02 be 8e b4 4a 3f
       0.23414516 -0.8697155 -0.12696798 0.79181755
000200 24 6a 1d 3e 2b 6c 27 3f 38 86 2a be 83 ef 22 be
       0.1537252 0.65399426 -0.16652763 -0.15911679
000210 69 69 6d 3f 41 b3 7a bf e6 f0 fe be 86 49 f5 bd
       0.9273897 -0.9792977 -0.49793166 -0.11976914
000220 45 6a 11 3f 5e af 84 bf 9d ab 69 3e 32 a6 e1 3e
       0.5680278 -1.0366018 0.22819372 0.4407211
000230 21 d7 43 bd 2d 10 03 3e 2b ba b8 bc bd 70 97 3d
       -0.047812585 0.1279914 -0.02254971 0.0739455
000240 31 36 07 3e 11 94 9a bd e5 33 98 3d 31 b9 19 3f
       0.13204266 -0.07547773 0.07431773 0.60048205
000250 aa 04 5b bf 45 56 eb 3e 82 d3 0e be a8 74 d7 3c
       -0.8555399 0.45964256 -0.13947871 0.026300743
000260 f9 20 d4 bd 98 9a 2a 3e 76 47 92 bd 12 32 63 bd
       -0.103578515 0.16660535 -0.07142536 -0.055467673
000270 34 53 2e 3d 68 61 c5 3c 7a 46 1b be d0 d8 55 bc
       0.042559817 0.024094298 -0.15163603 -0.01305218
000280 90 af 35 3c a0 84 de 3d 04 11 29 bd b0 79 0b 3d
       0.011089221 0.1086514 -0.041275993 0.034051597
000290 43 34 1e be 60 09 6b 3d 1c 24 42 3d 10 44 46 bc
       -0.15449624 0.057381988 0.047397718 -0.012101188
0002a0 64 77 08 3e de 0d 86 3d 9c 4d 1d 3e d0 6a 61 bc
       0.13326794 0.06545614 0.15361637 -0.013758376
0002b0 c8 a6 d5 3d 7c 85 cb 3d f4 ec 25 3d d4 ae d2 bd
       0.104322016 0.099375695 0.04050918 -0.10287252
0002c0 c0 22 fa 3d dc 29 3e 3d d7 ea b4 bd 44 57 e0 3d
       0.12213659 0.04642664 -0.08833855 0.109541446
0002d0 32 bf 99 3d 44 d0 ca bd a7 4c d9 bd 71 a8 23 be
       0.07507171 -0.09903005 -0.106103234 -0.15982224
0002e0 20 9e 6b bc 58 26 df bc c0 8f ef bd 04 fd de 3d
       -0.014380962 -0.027239963 -0.1169734 0.10888103
0002f0 4a 63 8c bd 80 31 c8 bb 08 8c 06 be f1 02 f4 bd
       -0.068548754 -0.0061094165 -0.13139355 -0.119146235
000300 60 92 41 bc 39 dc 0c be 14 5c 2d 3e b2 4f 23 3e
       -0.011814684 -0.13755883 0.16929656 0.1594837
000310 ec 16 7a 3d 00 ee 51 3d e9 3c 94 bd 12 85 8a 3d
       0.061057016 0.051252365 -0.0723818 0.067636624
000320 e0 40 92 3b e3 00 94 bd 98 ca 71 bd dc 53 07 3e
       0.0044633 -0.07226732 -0.0590311 0.13215584
000330 e0 40 d1 bc c0 e2 22 3d f0 4c 07 be 58 e6 7b bd
       -0.02554363 0.039767027 -0.13212943 -0.06149897
000340 10 27 5f 3d c8 58 c9 bc 1a d0 c3 bd 02 b7 12 3e
       0.054480612 -0.024578467 -0.095611766 0.14327624
000350 44 41 f2 3d e2 68 9e bd 44 0a 42 3d d0 0e e2 3d
       0.11828855 -0.077348486 0.04737307 0.110379815
000360 70 da fa 3d 68 e4 9c 3d 06 a1 e1 bd ec a4 2d 3e
       0.12248695 0.076607525 -0.11017041 0.16957444
000370 60 7a 6e 3d 69 3c e3 bd b9 c7 93 bd ae 89 04 3e
       0.058222175 -0.11095507 -0.072158284 0.12943146
000380 74 b9 c3 3d 80 a3 bf 3d 9e 71 e1 bd 2d 4e 2d be
       0.09556857 0.09357357 -0.11007999 -0.16924353
000390 40 cb 68 3b 38 d3 1c bd dc dc 1b bd 78 ce f0 3d
       0.0035521537 -0.03828737 -0.038052425 0.11758131
0003a0 00 40 6b 37 b8 3b 23 3e a8 c1 da bd 68 ba 22 be
       1.4021993e-05 0.1594075 -0.10681468 -0.15891421
0003b0 e9 37 c5 bd e4 3a 04 bd ca 0b 22 be c9 c6 a7 bd
       -0.09629805 -0.032282725 -0.1582481 -0.08192212
0003c0 9c d6 85 3d 70 0f c7 3d b8 98 f0 3d 50 38 b9 bd
       0.06535074 0.09719741 0.11747879 -0.09043944
0003d0 2c 0b 91 bd 70 4f e5 bc a8 a0 b5 3c 6c 5b 4e 3d
       -0.07082209 -0.02799198 0.022171333 0.050380155
0003e0 8c a2 d1 bd d8 b6 73 3d e4 41 23 be 02 97 fa bd
       -0.102360815 0.059500545 -0.15943104 -0.12235834
0003f0 50 f1 7a bd 60 c9 53 bc 60 6f 95 3b 00 b4 9c 39
       -0.06126529 -0.0129264295 0.004560396 0.0002988875

arith.constant22 f4 [200, 50]
000000 c0 2a c3 3c c0 e8 09 bb f6 1c a7 3d fc 43 1f 3c
       0.023824096 -0.002104327 0.08159821 0.009720799
000010 0e 38 92 3d 6d 15 af 3d 92 2f 74 3c a4 6d e0 bd
       0.07139598 0.085490085 0.01490392 -0.10958412
000020 38 8d c8 bd 2d 53 8a bd 80 e8 1d bb d0 65 2f 3c
       -0.0979256 -0.06754146 -0.002409488 0.010705426
000030 a6 00 c5 3d 78 b7 cc 3d cd e8 47 bd fc 46 c1 3d
       0.09619264 0.099959314 -0.048806 0.09437367
000040 cc eb ab bd 2a 5b 4d bd 35 15 97 bd 80 ad e7 bc
       -0.08394584 -0.05013577 -0.07377092 -0.028280973
000050 1c 06 de 3c 90 27 00 bd 18 59 e2 3d 67 c6 9f 3d
       0.027102523 -0.03128773 0.110521495 0.07801514
000060 20 29 a1 ba 6f 68 fc 3d 70 b3 3c bb e2 30 51 3d
       -0.0012295581 0.123246066 -0.0028793477 0.05107201
000070 2a ff 94 3c 86 98 0f 3d 60 bf 6e bb 81 0b 76 bd
       0.018188078 0.035057567 -0.0036429986 -0.060069565
000080 ac af 6a 3d f3 f8 7b 3d c0 17 3d bd f0 28 44 bd
       0.05729644 0.061516713 -0.046165228 -0.047890604
000090 65 de e4 3d 24 88 1c be ac ad 24 3c 38 7b 66 bd
       0.11175231 -0.15286309 0.010051172 -0.056269854
0000a0 4d 55 bb 3c ad e3 2c bc 3c ee 80 bb 94 ba 26 bc
       0.022867823 -0.010552329 -0.0039346498 -0.01017632
0000b0 d3 cf 2d 3e d0 98 12 3d ec cc f1 bd 98 b8 a0 bd
       0.1697381 0.035790265 -0.11806664 -0.078477085
0000c0 c2 dd 8e 3d 6a 67 8e bd b1 8c 88 3d a0 98 1b bd
       0.06975891 -0.069533184 0.0666746 -0.03798735
0000d0 a4 27 b0 3d d7 07 14 3e 14 af aa 3c 4b 86 a1 bd
       0.08601311 0.14456116 0.020835437 -0.078869425
0000e0 31 d7 8c 3d 5f ef 22 3d 46 fe 50 3e c4 86 43 be
       0.06876982 0.039779063 0.20409498 -0.19094378
0000f0 3b e7 9f 3d bf 33 93 3d d7 e0 6e 3d e7 fb a9 3d
       0.078077756 0.07187604 0.058319893 0.083
000100 e1 ab 21 be d2 aa 89 3c 3e ca 49 3d d7 a3 9f bd
       -0.15788223 0.016805086 0.04926514 -0.07794922
000110 e4 7b 92 bd ff 4e 9d bc 40 f4 0c bd 2e 62 1b be
       -0.071525365 -0.019202707 -0.034412622 -0.15174171
000120 48 49 8a bc 63 e3 81 3d bc 24 e6 bc 56 cd 80 bc
       -0.016880646 0.06342199 -0.028093688 -0.015722912
000130 7a c8 93 3c b0 a1 19 bd a4 17 6e 3c e4 e5 2e bd
       0.01803993 -0.037507713 0.014532004 -0.04269971
000140 af 8e 31 3e 90 e4 82 3a 4e 01 c6 bd 9b 6e 5f 3d
       0.17339586 0.000998633 -0.096682176 0.05454884
000150 5e 54 37 3d 86 8e bd bb 38 55 ce 3c 59 dd 10 bd
       0.044758193 -0.0057848124 0.02518712 -0.035367344
000160 8e e2 55 bc d3 44 76 bd 8c 9d e7 bc 92 40 84 3d
       -0.013054503 -0.06012423 -0.028273366 0.06457628
000170 52 a5 fc 3c 46 06 2a bd 9f e6 e4 bd be b3 3d 3d
       0.03084055 -0.04150989 -0.111768 0.046313994
000180 8a a9 00 3d 12 5b d2 3c ba 64 6f 3d 76 58 a5 bd
       0.031411685 0.025678191 0.05844567 -0.08073513
000190 25 d8 07 3b 88 e7 6a bc b8 00 09 be f1 e6 d7 bc
       0.0020728197 -0.014337428 -0.1337918 -0.026355239
0001a0 b6 bf 75 3d 16 fa 80 bd 16 cc bc bd ab 3d ac 3d
       0.059997283 -0.062977 -0.09218614 0.084102
0001b0 1c 84 06 3d f8 d7 58 bd 48 85 2a bd 19 ee 8b 3d
       0.032840833 -0.05294034 -0.041631013 0.06832523
0001c0 b7 c7 cb bc 8e fd f3 3b e9 14 15 bd 3f b1 e5 bb
       -0.024875505 0.0074459976 -0.036396895 -0.007009655
0001d0 81 81 2b 3d 72 ed 89 bd 21 55 d4 3c 3a b2 00 be
       0.04187155 -0.06734742 0.025919499 -0.12567988
0001e0 e8 ff ae bd 6f f2 66 bd c0 d1 39 bd 33 9e f8 bd
       -0.08544904 -0.056383546 -0.04536605 -0.12139549
0001f0 2d d0 85 bd ef 8a da 3d 17 98 46 bd b8 4e f2 bd
       -0.06533847 0.10671031 -0.048484888 -0.11831421
000200 05 36 16 3d a1 1c df 3c fe b9 4e be 7a eb 09 bc
       0.03667261 0.027235331 -0.20188138 -0.008417958
000210 55 0c ab 3d bc 4c 05 be e7 87 48 3c e9 f2 ce 3d
       0.083519615 -0.13017553 0.012239433 0.10104925
000220 2c f2 d0 bc d9 a9 17 bd 93 8b 85 bd dd 03 13 bd
       -0.025506102 -0.037027214 -0.06520762 -0.035892356
000230 6a d8 d2 3c 8b f7 0b be 7a 77 36 3e 9f 55 42 3c
       0.02573796 -0.13668649 0.17819014 0.011861234
000240 89 58 18 3d 68 72 2d bd 9a 04 c4 3b 4f e1 46 bd
       0.03719381 -0.042345434 0.005981994 -0.048554715
000250 24 98 63 3d 0b 09 87 bc 7a 2c 7a bd 0a e3 0c 3c
       0.055565014 -0.016483804 -0.061077572 0.008599052
000260 08 70 12 bd e0 12 8d bd 42 58 42 3c b3 1b 72 3d
       -0.035751373 -0.06888366 0.011861863 0.059108447
000270 b4 cd fd 3c aa 11 6f 3d 4c fb 2f 3d 11 57 9e 3d
       0.030981876 0.058366455 0.042964265 0.0773145
000280 f8 fd 00 bc bf e1 a1 3d 73 f7 bb 3d b9 df 34 3e
       -0.007873051 0.07904386 0.091780566 0.17663468
000290 20 0a d7 3d 99 8d 12 bd f1 20 1b bd 5b 22 f6 3b
       0.10499978 -0.03577957 -0.037873212 0.0075114197
0002a0 ee 34 4a 3d bd 0a f0 3d 1c 33 09 be 62 62 84 3b
       0.049366884 0.11720798 -0.13398403 0.0040400485
0002b0 35 50 c7 bc e8 ab b9 3d aa dc 3f bd 78 c8 b8 bc
       -0.024330238 0.09065992 -0.0468413 -0.022556528
0002c0 b8 bc ab bc d5 2f d3 3b 4c a7 36 bd 30 30 8d 3d
       -0.020964012 0.006444911 -0.04459314 0.06893957
0002d0 54 eb e6 3b 64 68 f3 3c e9 f2 09 be 68 1a e3 ba
       0.0070470963 0.029712863 -0.13471569 -0.0017326595
0002e0 52 b2 61 3d 00 d0 80 3d 92 b7 c0 bb e0 92 60 3d
       0.0551017 0.06289673 -0.0058812583 0.05482757
0002f0 8b 22 44 3d d1 1a 16 be 3a f0 0d 3e 46 ba 08 3c
       0.047884505 -0.14658667 0.1386117 0.008345192
000300 ba ab 83 bd 93 63 9c 3d 27 af 74 3d 33 e5 00 3d
       -0.064292386 0.0763618 0.05973735 0.03146858
000310 cc 11 fe bd 79 6b 6c 3b 7f 14 3a 3c ad aa b7 3d
       -0.12405738 0.00360748 0.011357426 0.08968101
000320 67 76 a2 3c 35 d0 00 be e5 3c a7 bc 26 2f 62 3d
       0.01983185 -0.12579425 -0.020414779 0.055220746
000330 00 5e 38 bb 81 2a 0c 3d 67 7e ce 3d 60 cc ad 3d
       -0.00281322 0.034220222 0.10082703 0.08486247
000340 dd 6d f2 3d b6 40 5a 3d a1 d5 c5 3c c1 a3 27 3d
       0.11837361 0.05328437 0.024149718 0.040927652
000350 cd f7 1d bd a5 c5 ad bc 57 99 cf bc b4 d0 a4 bd
       -0.0385664 -0.021212408 -0.025341673 -0.080476195
000360 95 0d 21 3e 45 49 39 bd ca e3 b0 3d 02 e8 01 3e
       0.15727837 -0.04523589 0.08637197 0.1268616
000370 d0 2a f7 3b 41 f7 98 bd 78 ac a8 bd 9d 72 7f bd
       0.0075429454 -0.07469035 -0.08236021 -0.062365163
000380 a0 8d d9 3d 68 0b 84 bd a7 66 d9 3d 76 f7 64 bc
       0.10622716 -0.06447488 0.106152825 -0.013975015
000390 7e cb 66 3c 7c 33 38 bd 85 6d 85 bd 30 b2 ee bd
       0.014086602 -0.044970974 -0.0651503 -0.1165508
0003a0 f9 00 43 bd 60 8c a0 bc 0c 8a f8 bd e5 90 14 3e
       -0.04760835 -0.019598186 -0.12135705 0.14508398
0003b0 63 fb d6 bc f5 2d 9c bc fc 76 2d be f3 d6 b0 bd
       -0.026242917 -0.019064883 -0.1693992 -0.08634748
0003c0 04 28 47 3d 87 b4 2a 3e 36 5a 16 be 47 b7 cc bb
       0.048622146 0.16670428 -0.1468285 -0.0062474343
0003d0 4e 2d af 3d be 73 1b 3c 02 94 b2 3d 8b 52 c2 bc
       0.08553563 0.009488044 0.087196365 -0.023721
0003e0 c8 07 a2 3c 5c 7f 40 bd 7a 8a 8b bc 2f ed a4 bc
       0.019779101 -0.04699646 -0.017033804 -0.02013263
0003f0 10 a8 c5 3d b8 55 c1 ba cc 12 45 bd c0 3d 77 bd
       0.09651196 -0.0014750278 -0.04811363 -0.060361624

sequential_13_1/bidirectional_2_1/forward_lstm_7_1/while/lstm_cell_1/add_1/ReadVariableOp f4 [200]
000000 9d fa 65 3d 4d cb 2d 3f f1 bb f1 3e 25 8c 93 3e
       0.056147207 0.6788834 0.472137 0.2881786
000010 d8 b3 6c bd 67 8d 0a 3d 30 45 7e bd cd 68 0a 3e
       -0.0577887 0.033826258 -0.0620777 0.13516541
000020 88 de c7 3d 0f 31 60 bc 72 93 ce 3e fe 3a d0 3e
       0.09759241 -0.0136835715 0.40346867 0.40670007
000030 70 8f 51 3e 40 42 e7 3e 69 ab b7 3e 84 ca 0c 3f
       0.20464873 0.45167732 0.35872963 0.54996514
000040 97 d2 f0 3e a7 e2 97 3e 07 91 2b 3e 09 bb e1 3d
       0.47035667 0.2966511 0.16754542 0.11022002
000050 9d af 93 3e 91 13 dd 3d 67 76 37 3f 0d 76 4c 3f
       0.2884492 0.107947476 0.7166504 0.7986763
000060 8c 24 41 3c aa 98 c1 3d 29 3d 96 3e 00 f2 8f 3e
       0.011788499 0.094529465 0.29343536 0.2811432
000070 96 62 f3 3e 16 f0 81 3d 95 2e b1 3e 67 ba ae 3e
       0.47536153 0.06344621 0.34605852 0.3412659
000080 ba 1b 76 3e f6 a1 12 3f 19 10 b6 3e 70 1f b1 3e
       0.24034014 0.5727838 0.35559157 0.34594297
000090 7a a0 90 3e 8b bf 5c 3e 03 dd e4 3e 0e 6f de 3d
       0.28247434 0.21557443 0.4469987 0.10861026
0000a0 44 5f 21 3f 7e 1d cd 3e 2a 54 1f 3e 31 0e f9 3d
       0.6303599 0.40061563 0.1555945 0.1216091
0000b0 05 34 7b 3f 72 d2 07 3f ab 78 93 3e dd 61 23 bd
       0.9812625 0.5305549 0.28803 -0.03988825
0000c0 ba 37 43 bd b3 3f 4c 3f 00 00 80 3f 00 00 80 3f
       -0.047660567 0.797847 1.0 1.0
0000d0 00 00 80 3f 00 00 80 3f 00 00 80 3f 00 00 80 3f
       1.0 1.0 1.0 1.0
0000e0 00 00 80 3f 00 00 80 3f 00 00 80 3f 00 00 80 3f
       1.0 1.0 1.0 1.0
0000f0 00 00 80 3f 00 00 80 3f 00 00 80 3f 00 00 80 3f
       1.0 1.0 1.0 1.0
000100 00 00 80 3f 00 00 80 3f 00 00 80 3f 00 00 80 3f
       1.0 1.0 1.0 1.0
000110 00 00 80 3f 00 00 80 3f 00 00 80 3f 00 00 80 3f
       1.0 1.0 1.0 1.0
000120 00 00 80 3f 00 00 80 3f 00 00 80 3f 00 00 80 3f
       1.0 1.0 1.0 1.0
000130 00 00 80 3f 00 00 80 3f 00 00 80 3f 00 00 80 3f
       1.0 1.0 1.0 1.0
000140 00 00 80 3f 00 00 80 3f 00 00 80 3f 00 00 80 3f
       1.0 1.0 1.0 1.0
000150 00 00 80 3f 00 00 80 3f 00 00 80 3f 00 00 80 3f
       1.0 1.0 1.0 1.0
000160 00 00 80 3f 00 00 80 3f 00 00 80 3f 00 00 80 3f
       1.0 1.0 1.0 1.0
000170 00 00 80 3f 00 00 80 3f 00 00 80 3f 00 00 80 3f
       1.0 1.0 1.0 1.0
000180 00 00 80 3f 00 00 80 3f 00 00 80 3f 00 00 80 3f
       1.0 1.0 1.0 1.0
000190 4f e4 13 3e 63 2d 24 3e 18 2e 12 bc 59 47 1f 3e
       0.14442562 0.16032939 -0.008922122 0.1555456
0001a0 87 c9 ac bd d6 6a 13 3e b2 a0 b6 bd 80 d6 42 3e
       -0.08436876 0.14396223 -0.08917369 0.19027138
0001b0 a5 a1 30 3e cd 15 94 3d 21 7b e1 3d 24 27 bb 3c
       0.17249162 0.07230721 0.11009813 0.022845812
0001c0 10 eb b0 3d 68 36 55 3d b6 aa bf 3c 2f 87 aa bc
       0.086385846 0.05205384 0.023396831 -0.020816414
0001d0 21 bc c4 bc 02 71 10 3e f9 77 dc 3e f3 69 f0 3d
       -0.024015488 0.14105609 0.43060282 0.11738958
0001e0 a7 1a d2 3e af c3 33 bc 22 78 22 3d 98 70 a4 3d
       0.4103596 -0.010971948 0.03966535 0.08029288
0001f0 da 39 d4 3d 49 34 44 3e 30 d6 2c bb 0b e1 c9 3e
       0.10362597 0.1916057 -0.0026372783 0.39429507
000200 59 57 49 bd 0d 21 08 3e 90 72 08 3f 2b 24 f2 3d
       -0.049155567 0.13293858 0.5329981 0.11823305
000210 c1 17 f4 bb 84 08 7a 3d 06 e2 e4 3d 39 36 17 3e
       -0.0074491207 0.061043277 0.11175923 0.14766778
000220 14 94 f3 3d 3b 29 01 3e 58 4e da 3d 08 4d 09 3e
       0.11893478 0.12613384 0.10659474 0.13408291
000230 12 fc 3f bc 62 57 d4 ba 1d f4 13 3e 10 27 51 bb
       -0.011717813 -0.0016200359 0.1444859 -0.0031914152
000240 13 4f 66 3d f5 41 20 3c 64 ac f4 3e 10 33 58 bd
       0.056227755 0.00978135 0.47787774 -0.052783072
000250 e5 d9 86 bd 55 9a fd 3d ed e3 09 3e c7 2c 1b 3f
       -0.06584529 0.12382952 0.13465853 0.606152
000260 db f2 f6 3e 66 32 9a 3e d5 ff 6d bd 52 91 3d 3d
       0.4823216 0.30116576 -0.05810531 0.046281166
000270 13 bd 7e bd 95 3e 0b 3e ce 62 e5 3d 9f db 1e bc
       -0.062192034 0.13598092 0.11200486 -0.009695916
000280 64 50 ce 3e 0d db c6 3e ec af 3c 3e 0d 30 03 3f
       0.40295708 0.38838997 0.18426484 0.51245195
000290 4a 20 c0 3e e6 ae 05 3f 1d 8c ed 3e ff f6 90 3e
       0.37524635 0.5222 0.4639596 0.28313443
0002a0 f3 32 7c 3e 49 5e b4 3d f4 63 94 3e cf 28 c7 3d
       0.2462881 0.08807046 0.28982508 0.097245805
0002b0 c0 26 1e 3f da c0 44 3f 6a b2 a9 3d b8 81 e7 3d
       0.6177788 0.7685677 0.08285983 0.11304039
0002c0 89 58 76 3e 0a 85 36 3e f8 5f f8 3e e3 13 b4 3d
       0.24057211 0.17824188 0.48510718 0.087928556
0002d0 03 de 9e 3e 80 38 b0 3e 99 b7 83 3e 9a c7 15 3f
       0.31028756 0.34418106 0.2572601 0.5850769
0002e0 1c 09 b4 3e 20 3a a2 3e b7 45 92 3e 8e c1 5d 3e
       0.351632 0.3168497 0.28568813 0.21655867
0002f0 40 1e eb 3e 9a cb bf 3d 8b fd 17 3f c4 c9 c8 3e
       0.45921516 0.09365006 0.5937125 0.39216435
000300 be 3b ac 3d 61 de 03 3e 74 8a 81 3f b2 85 01 3f
       0.084098324 0.128778 1.0120378 0.5059463
000310 34 66 9b 3e 43 72 24 bd 4f c0 41 bd 2e 8a 61 3f
       0.30351412 -0.04014803 -0.04730254 0.8810147
