models/tflite/LSTM/LSTM-Deep.tflite (tflite, 320672 bytes, 14 tensors)

arith.constant3 f4 [2, 50]
000000 52 82 6d be 54 10 0f 3e e6 6c 21 3e b5 03 93 3e
       -0.23194245 0.13971072 0.15764198 0.28713766
000010 0c 74 00 be 95 75 fa bd 10 43 44 be e8 fc 5d 3e
       -0.12544268 -0.12229458 -0.19166207 0.21678507
000020 6c 6d 98 be 47 54 8c bd 6a 57 2b be 19 b1 a9 3c
       -0.29770982 -0.06852012 -0.16732565 0.02071433
000030 e5 a5 b7 be 24 6e bd be b4 9e db be 4d 65 5f 3e
       -0.35868755 -0.36998093 -0.42894518 0.21815987
000040 f2 64 2e 3e 96 bb da 3e f4 7e 10 be 94 c0 8e bd
       0.17030695 0.42721242 -0.14110929 -0.06970325
000050 34 b3 ab 3e 47 78 3d be e9 34 65 3e ed 58 49 3e
       0.3353516 -0.18502913 0.22383465 0.19662829
000060 3d 82 f9 bb 2e 3b 95 3d d9 da 56 be cb 3a 78 be
       -0.0076144026 0.07286678 -0.20981921 -0.24241178
000070 21 55 11 3e 48 ff a8 be 4d ae 14 bd 43 25 9d 3e
       0.1419263 -0.33007264 -0.03629904 0.3069249
000080 83 06 db 3e d9 20 66 3d 67 47 ce 3e 70 9c 9d be
       0.42778406 0.05618367 0.4028885 -0.30783415
000090 69 a3 ae be e0 3b 0e be cb 77 8f 3d 78 d7 9a be
       -0.34109047 -0.13890028 0.070052706 -0.30242515
0000a0 d2 f9 a2 3e 08 0c 26 3e 5a cc e7 3e 5c 27 b2 bd
       0.31831223 0.16215527 0.45273095 -0.086989135
0000b0 75 7a 6a 3e 1d 30 d8 3e b7 b2 49 3e 26 74 50 be
       0.22898276 0.42224208 0.1969708 -0.20356807
0000c0 44 5c 8e 3e 7a 5a 6e 3e 9d 26 b6 3d 65 f0 db 3e
       0.27804768 0.23276702 0.08894084 0.42956844
0000d0 63 b0 65 be 12 a2 83 be 27 d2 ec be 45 0e d3 3d
       -0.22430567 -0.25709587 -0.46254084 0.10305456
0000e0 ce 29 eb 3e fe a8 ca be c2 c8 8c be 60 f1 8e 3e
       0.45930332 -0.39582056 -0.27496916 0.2791853
0000f0 56 06 99 3e 1f c4 ca bd ea 31 3b be c0 af 68 3e
       0.29887646 -0.099006884 -0.1828076 0.22723293
000100 c9 94 aa 3e 25 46 86 be 4a 93 cb be 00 fb 01 3e
       0.3331664 -0.2622539 -0.3976081 0.12693405
000110 bf ef 22 3e 76 56 a8 3e bf c8 b9 be 83 63 7c 3e
       0.15911768 0.32878464 -0.3628597 0.24647336
000120 ce 2f df bd e7 fc e2 be c3 7d d1 3e 92 f8 df bd
       -0.1089779 -0.44333574 0.4091626 -0.10936083
000130 b0 5d 4c be 92 47 2c 3e d5 e6 e3 be f2 b3 b0 bd
       -0.19957614 0.16824177 -0.44512048 -0.08628072
000140 ba c8 81 3e 54 aa 55 be da da de 3d 12 fc ca be
       0.25348455 -0.20865756 0.108815864 -0.3964544
000150 74 8e 56 be ff 7a 97 be 73 dc 8c 3d d4 95 f6 3b
       -0.20952779 -0.29586026 0.06877985 0.007525185
000160 e1 3c 7c be 96 48 d5 35 59 a0 53 be 1c 0e 73 3e
       -0.24632598 1.5890862e-06 -0.20666637 0.23735851
000170 d6 de b1 3d 76 ce ca 3e e5 7a 15 be 88 20 db 3d
       0.08685081 0.39610642 -0.14597662 0.10699564
000180 a0 10 d6 be 14 52 ae 3e 44 c2 56 3e da f1 aa be
       -0.4180956 0.34046996 0.20972544 -0.33387643

arith.constant4 f4 [2]
000000 51 26 81 3d 51 26 81 bd
       0.063061364 -0.063061364

arith.constant15 f4 [200, 3]
000000 16 44 13 3e 89 b4 d5 3d 79 72 fe bc f9 ec 29 bc
       0.14381441 0.10434825 -0.031060444 -0.01037144
000010 13 55 71 3b ae a4 ab bd 4d 39 80 be 68 11 8f 3e
       0.003682439 -0.083810195 -0.25043717 0.27942967
000020 6b 1c d2 bc a7 c8 8c bd 21 c7 f8 3c dc a6 30 3e
       -0.025648316 -0.06874209 0.03036839 0.17251152
000030 ed 10 91 3d 77 58 d6 bc f0 89 2a 3d 6a 5d 06 3e
       0.070833065 -0.02616523 0.041635454 0.13121572
000040 fc 07 72 3e 08 25 aa be 0b 2d 5d 3e b7 e8 b6 3c
       0.23635858 -0.33231378 0.21599214 0.022327764
000050 46 b4 a5 bc a9 20 95 be f6 c2 45 3e f5 e3 70 bc
       -0.020227563 -0.2912648 0.19312653 -0.014702787
000060 7b 70 02 3e 09 96 84 3e 12 2e 12 be be cf 16 3e
       0.1273822 0.25895718 -0.14275387 0.14727685
000070 ce 92 70 3e e5 92 1c be 91 61 e5 3d 85 c6 fa bc
       0.23493502 -0.15290411 0.1120025 -0.03061224
000080 4b 55 e5 3d 9d 03 17 be 96 24 50 3c da 77 fe 3c
       0.11197909 -0.14747472 0.012704035 0.031063009
000090 e9 6a 4f ba ce 02 11 3c d7 8d ee bd 63 12 23 bd
       -0.0007912354 0.008850766 -0.116481476 -0.039812457
0000a0 de be 08 be 01 eb 05 3e 24 42 0a be b3 10 ee 3d
       -0.1335406 0.13077928 -0.13501793 0.11624279
0000b0 1a 0e d7 ba 7c 8f 9b 3e d4 45 19 be e2 83 22 be
       -0.0016407401 0.30382907 -0.14968044 -0.15870622
0000c0 1d 42 16 bc 93 73 bf ba fa 30 76 be 5c 2e 53 3e
       -0.009171036 -0.0014606587 -0.2404212 0.20623153
0000d0 e8 67 29 bd 78 8e 84 bc 78 34 db bd fb 49 60 3e
       -0.04135886 -0.016181216 -0.10703367 0.21903221
0000e0 1e d6 3e 3e 14 a8 97 3e 0b 2d a0 bd 64 25 10 3d
       0.18636367 0.2962042 -0.07821091 0.03519191
0000f0 13 86 02 3e 72 1e 21 be a1 a4 50 be 65 cf 1b bd
       0.12746458 -0.1573427 -0.20375301 -0.038039584
000100 80 31 9c 3e 81 6c 24 3d d5 0e 2d bd f2 35 8d 3e
       0.30506516 0.04014254 -0.042250473 0.2758022
000110 8c 53 37 bc 38 a4 99 3c a9 ce 1f 3d 05 43 66 3e
       -0.011189353 0.018755063 0.039015446 0.22486503
000120 09 b3 ba 3d 43 e6 86 3d 68 73 b3 3d 83 b4 80 3e
       0.091161795 0.06586888 0.08762246 0.2513772
000130 58 ce e0 3d 38 e3 36 bc 25 30 d0 3d 6a 47 49 be
       0.10976857 -0.011162572 0.10165433 -0.19656149
000140 72 f8 33 bd d6 c8 30 3c 7b 22 43 bd 65 9f 81 3e
       -0.043938108 0.0107900705 -0.047640305 0.2531692
000150 55 3f 96 3e 35 8f 43 bc 52 92 b3 3d 08 a6 9f 3e
       0.29345194 -0.011935999 0.08768143 0.3118136
000160 6f 74 33 3d 15 c3 dc bd 65 c3 52 3e 86 3b 57 3b
       0.04381221 -0.107793964 0.2058235 0.0032841875
000170 d2 f7 24 3e 7f 05 43 be c7 7a c3 3d e6 ce 5c 3d
       0.16110161 -0.19045065 0.09544902 0.05390825
000180 5d c1 9e 3e 7d 94 59 be 71 1c 14 bd e8 3b ee 3c
       0.310069 -0.2124805 -0.036159936 0.0290813
000190 3d 6e dc bb 3e 3d 48 3e be df 68 3e 59 3b 62 be
       -0.0067270086 0.19554612 0.22741601 -0.22092952
0001a0 98 19 16 be 80 4f 68 3d 0d f0 e7 3c 08 99 f9 bd
       -0.146582 0.056716442 0.028312707 -0.121873915
0001b0 89 61 5d 3e fa a5 33 3d c3 e9 af 3d 2c 9f 51 3e
       0.21619238 0.04385946 0.085895084 0.20470876
0001c0 52 9c ee bd 0f f7 f3 bc 79 81 a3 bd 00 4b 01 3d
       -0.116509095 -0.029780893 -0.07983679 0.031565666
0001d0 58 84 89 3e 5f 5d 7e be c0 57 8f 3d 93 e1 09 3e
       0.26858783 -0.24840306 0.06999159 0.13464956
0001e0 a3 eb 56 3e 00 64 30 be c5 06 41 be 30 85 9d 3e
       0.20988326 -0.17225647 -0.18850239 0.30765676
0001f0 11 a5 63 bd 24 48 8a bc 2d c2 98 3e 6d 43 72 be
       -0.05557734 -0.016880102 0.29835644 -0.23658533
000200 55 3d 34 be 2d d7 35 be bd 64 43 3e f4 1f 54 3d
       -0.17601521 -0.17757864 0.19081397 0.051788285
000210 f5 94 ea 3d a0 f8 29 3d 1c 7d 06 3e 99 65 76 be
       0.114541925 0.041496873 0.13133663 -0.24062194
000220 f6 bb 39 3e ca c4 e1 bc 90 f9 d6 bc 4f c2 84 3d
       0.18138108 -0.027559657 -0.026242048 0.06482374
000230 9e f2 5e 3e 0e f5 9f 3e 46 dc 57 bd d7 b0 32 3c
       0.21772239 0.3124165 -0.052700303 0.01090642
000240 8a de 0d bd 22 26 7a bc 2b 78 91 3e f0 32 a4 3e
       -0.034636058 -0.015267881 0.28411993 0.32070112
000250 35 9c 84 3e 9a 2f 1b be f4 3b 64 3d 00 09 40 bb
       0.25900427 -0.15154877 0.05572124 -0.002930224
000260 16 35 4a bd f8 b5 47 3d 38 7c 2d bd 27 72 b2 bd
       -0.049367033 0.048757523 -0.042354792 -0.08713179
000270 5a b9 9b 3d 40 6b 10 be 49 79 16 be ae 85 77 bd
       0.076037124 -0.14103413 -0.14694704 -0.06043022
000280 f2 07 4f bd 8c a4 12 be 9c fa 1d 3e e8 71 73 3d
       -0.050544687 -0.14320582 0.15427631 0.0594348
000290 58 0f c2 bc 66 d0 9e bd 18 58 3f 3d 14 c2 f2 3d
       -0.023688957 -0.077545926 0.046714872 0.11853424
0002a0 7c a4 bc 3d 4e 0d 21 be d4 17 91 bd a2 e0 1d be
       0.092110604 -0.15727732 -0.07084623 -0.15417722
0002b0 d8 8b 8c 3d c6 93 0d 3e 7e d7 89 3d dc 45 ee bd
       0.068626106 0.13825902 0.06730555 -0.11634418
0002c0 00 1d 78 ba b8 43 e1 3c 69 72 b8 bd dc 45 1b 3e
       -0.00094647706 0.027498111 -0.09006197 0.15163368
0002d0 c0 91 a1 3d 49 e7 de bd 30 d9 d2 bc 06 d3 20 be
       0.07889128 -0.10883958 -0.025738329 -0.15705499
0002e0 3c d1 0c bd 60 5f a1 3d 76 81 f1 bd b0 b1 ff bc
       -0.03437923 0.078795195 -0.11792271 -0.031212658
0002f0 64 e6 fb 3d e0 78 c4 bc a4 60 b1 3d 5c b1 c4 3d
       0.12299803 -0.023983419 0.08661011 0.09604141
000300 86 49 9a 3d 40 33 dd 3d 86 d7 27 3e 4c 62 28 be
       0.07533555 0.10800791 0.1639081 -0.16443747
000310 8f 5e c6 bd 20 3d d6 bc e0 e7 1f 3e 9c c2 28 3e
       -0.09686004 -0.026152194 0.15615797 0.16480488
000320 9e ad 21 be f0 1b fe bd 80 6a ed ba 27 97 20 be
       -0.15788886 -0.124076724 -0.0018113405 -0.1568266
000330 a4 51 c0 bd 1a 16 b7 bd 6c 6e 00 3d 7f 23 b2 bd
       -0.09390572 -0.089397624 0.031355307 -0.086981766
000340 4a 73 87 3d ee 9e f9 bd ba e9 9d 3d 14 8e 18 3e
       0.066137865 -0.121885166 0.077105954 0.14897949
000350 f8 e3 83 bc f8 79 ae bc bc 30 c0 3d e0 74 98 3c
       -0.016099915 -0.021298394 0.09384295 0.018610418
000360 e5 c1 22 be 8e 8b f2 bd b0 f3 ad 3c e0 33 ac 3b
       -0.15894277 -0.11843024 0.021234363 0.0052552074
000370 d0 69 3b bd 3c 3f dc bd 9a 04 07 3e 6b 2d 98 bd
       -0.045755208 -0.107542485 0.13185349 -0.07430538
000380 22 de a4 bd 05 32 c5 bd 68 ad 92 3d 00 bd 30 bc
       -0.08050181 -0.09628681 0.07161981 -0.010787249
000390 74 52 28 bd 00 ff 39 bb 80 36 92 ba a2 e4 82 bd
       -0.04109426 -0.0028380752 -0.0011155158 -0.063912645
0003a0 2c 4e 68 3d f2 1e 9f 3d 30 7b e7 bc 98 c7 43 3d
       0.056715176 0.07769574 -0.028256983 0.04779777
0003b0 e4 df 46 3d f8 63 c8 3d 4c f1 fb 3d 75 06 a0 bd
       0.048553362 0.097846925 0.12301883 -0.078137316
0003c0 a0 a9 0a bc 34 42 a8 bd 98 92 68 3d 14 83 43 3d
       -0.008463293 -0.08215752 0.056780428 0.047732428
0003d0 dc 12 3a bd 52 b2 1d 3e ae ec 12 3e a8 f8 14 be
       -0.045428142 0.15400055 0.14348099 -0.1454798
0003e0 fc 8b 00 3d 3d d2 be bd 40 5b 50 bb a6 e5 92 bd
       0.0313835 -0.093174435 -0.003179267 -0.07172708
0003f0 38 67 34 bd dc 9c a5 3d 00 4e ed 3a 6e 4c 03 3e
       -0.04404375 0.08086559 0.0018104911 0.12822124

arith.constant16 f4 [200, 50]
000000 a0 ce 37 3d a8 ac c3 bc 01 97 0d bd b4 80 31 bd
       0.044874787 -0.02388604 -0.034567837 -0.04333563
000010 aa a5 5b bd 46 75 95 3d a0 d6 fa bc a0 ac ae bc
       -0.053624786 0.07297759 -0.03061992 -0.021322548
000020 2c 43 90 3c 94 af c2 3c e2 53 27 bd a8 03 1e bd
       0.017610155 0.023765363 -0.04085148 -0.038577706
000030 90 a9 32 3c 04 4a 07 3d 74 79 84 3d 47 ce 9e 3c
       0.010904685 0.03302957 0.06468478 0.01938547
000040 d0 e3 c8 3b e1 b9 ef 3d b3 ab 0c 3c 30 32 c3 bc
       0.006130673 0.117053755 0.008585858 -0.023827642
000050 ae e5 8a 3d 36 8c 91 3d 98 91 19 3c 6e dd a0 3d
       0.06782089 0.07106821 0.009373091 0.07854734
000060 8a 7f b0 3c 8e b3 0c be 3c 85 20 3d b0 48 9d bb
       0.02154519 -0.1374037 0.039189562 -0.004799925
000070 66 69 f2 bc 87 83 0b bd 90 81 a2 3d ba fc f4 bd
       -0.029591274 -0.03406098 0.07934868 -0.11962266
000080 83 1e 2b bc 86 fb 08 bd aa b7 77 bd 72 69 5e 3c
       -0.010444286 -0.033442996 -0.06047789 0.013574945
000090 98 61 4b 3d 5e 27 b2 3d 17 b8 e3 3d 68 90 a6 3c
       0.04965362 0.08698915 0.11119097 0.02033253
0000a0 1f fe e5 bd 7a f0 06 bc 34 b2 9c bd 22 40 e1 bc
       -0.112301104 -0.008236045 -0.07651177 -0.027496401
0000b0 0f c6 b4 3d 8a 10 5d 3d bd d9 9f bc c0 e5 7e 3a
       0.08826839 0.05397085 -0.019513005 0.00097235665
0000c0 33 09 6a 3d cc 39 83 bd 58 62 ee 3d c0 8b 34 3d
       0.05713768 -0.06407508 0.11639851 0.04407859
0000d0 f8 45 ec 3c 2c ab 34 3d f7 b2 2f 3d 26 25 bd 3d
       0.028841957 0.044108555 0.042895284 0.09235601
0000e0 48 44 95 3d 49 a5 b1 bc 8d cd 43 3c 48 db 42 3e
       0.07288414 -0.02168526 0.011950863 0.19028962
0000f0 0d c5 0d 3d c7 6b 29 3c c4 98 20 be 09 14 fc bd
       0.03461175 0.0103406375 -0.15683275 -0.12308509
000100 1f a3 c9 bd 71 a4 b1 bd 0f bd e5 3d f0 df 84 3a
       -0.09845566 -0.08673943 0.11217701 0.0010137539
000110 9a 1e c8 3a 50 f2 82 bd 75 df 87 bd c8 5f 0f bb
       0.0015267909 -0.06393874 -0.06634418 -0.0021877158
000120 cc 2e d3 3c 6f d6 a5 3d 1b 23 3d bd 39 2f 9d 3d
       0.02577915 0.080975406 -0.046176057 0.07675023
000130 2c 05 c9 bd dc dc 11 3d 34 ca 86 3d 5a 22 86 3d
       -0.098154396 0.03561102 0.06581536 0.06549521
000140 20 8a 8a bd 62 8a 98 bd 7f 85 ee 3d 7e 5c 3e bc
       -0.067646265 -0.074482694 0.11646556 -0.011618732
000150 e2 ac ec bd 4a 9f 95 3d 18 57 ca 3d 14 51 72 3d
       -0.11556412 0.073057726 0.09879893 0.059159353
000160 cc dd 85 bc 84 dd 26 3d 8b d8 25 bd f1 5f 63 bd
       -0.016341113 0.040738598 -0.040489715 -0.05551142
000170 41 a6 50 bd 1a af 1e bb 5f d9 23 3d 35 be fd 3d
       -0.050939802 -0.0024213255 0.040002223 0.12389795
000180 0f ba 99 3d 27 19 0d 3e f5 9c 5b 3c 59 5e bf 3b
       0.07506191 0.13779126 0.013404121 0.0058401045
000190 91 c4 ea bc e7 68 4e 3d 00 b7 16 3b 89 16 8d bd
       -0.028658183 0.05039301 0.002299726 -0.06889064
0001a0 e2 99 31 3d f1 52 c1 3c 35 7a 0b 3d 2e 3e 8c bd
       0.043359645 0.02359912 0.034052093 -0.06847797
0001b0 df 18 1b 3d 7e 70 cf 3d 4f 1d b5 3c ba 4e f8 3d
       0.037865516 0.10128878 0.022108702 0.12124391
0001c0 f9 ad 0f 3e 13 82 82 3d 8a 5b 67 bd e1 cc a4 bc
       0.14031209 0.06372466 -0.056483783 -0.020117225
0001d0 24 13 2c 3d 50 23 14 bd da 5e 81 bc 48 21 b8 bc
       0.04201044 -0.03616649 -0.015792299 -0.022476807
0001e0 fa 55 da 3c 38 5f 81 3c b9 1f c9 bc f2 27 96 3c
       0.026652325 0.015792474 -0.02455126 0.018329594
0001f0 c7 b0 63 3d 9d 37 03 bc e5 ab 3a 3d 4a 9a 1d bd
       0.05558851 -0.008008865 0.045574088 -0.03847722
000200 40 eb 1a 3b 1f de ab 3c 4b 83 3d 3c ed 42 11 3e
       0.0023638755 0.020979939 0.011566947 0.14185686
000210 43 a6 51 3c 1c 41 21 bd f5 c8 b6 3d bf d5 d8 bd
       0.012795988 -0.039368734 0.08925048 -0.10587644
000220 8c 12 89 bd 62 e4 22 bd 0a 2a d2 3d 58 e7 9f bd
       -0.06692991 -0.039768584 0.102619246 -0.07807797
000230 51 84 9f 3d 89 57 ea 3d b8 9b d7 3b 19 79 11 be
       0.07788909 0.11442477 0.0065798424 -0.14206351
000240 73 4e cd 3c c1 af a8 bd 96 39 b5 3d 25 e9 d6 3d
       0.025061822 -0.082366474 0.08848874 0.104936875
000250 50 1d cd bc 80 de 4c 38 7a d1 5c 3a 89 42 35 bd
       -0.025038391 4.884461e-05 0.00084235484 -0.044252906
000260 24 aa 16 be a0 88 6a 3d 07 93 ef 3c 96 71 8d bd
       -0.14713341 0.057259202 0.029244913 -0.069064304
000270 25 48 4e 3d 08 f9 45 3d 7e 13 c5 bc 72 e5 b2 bd
       0.05036177 0.048333198 -0.024057146 -0.087351695
000280 c4 19 2a bc aa bc 82 bd 7c 24 d4 bc 50 e7 c5 3d
       -0.01038212 -0.06383641 -0.025896303 0.0966326
000290 bf 5c 34 bd 69 c5 de bc 36 55 f7 3d 29 2c 98 3d
       -0.044033762 -0.027193742 0.120767996 0.07430298
0002a0 c0 fb 31 3c 78 7f 4d be a4 b4 96 bc ec bf 91 3a
       0.0108632445 -0.20068157 -0.018396683 0.0011119819
0002b0 08 29 03 3e d3 33 5c 3b c8 3d 90 3d 5a 67 23 3d
       0.12808621 0.0033600226 0.07043034 0.039893486
0002c0 2e 99 8b 3c fb 9e cc 3d e5 75 01 3e 5b aa 83 3d
       0.017040815 0.099912606 0.1264263 0.06428977
0002d0 cc 50 63 bd 94 97 a7 3d c5 7d ba 3d d0 34 2f 3d
       -0.055496976 0.08183208 0.0910602 0.042774975
0002e0 44 17 d5 bb 2a 3d 15 3d 4e ef 6b bd 7d 01 5e bd
       -0.0065030176 0.036435284 -0.057601266 -0.054200638
0002f0 3c 41 99 3c 8b b4 ca bd 59 53 2b 3d 7e 3b 49 bc
       0.018707864 -0.09897717 0.041827533 -0.01228225
000300 57 60 31 bd 28 1e 23 3b 98 56 86 3d 5a 02 d0 bd
       -0.043304767 0.00248898 0.06559485 -0.101566985
000310 40 28 32 3b 38 2a e3 3b 6a e8 0b bc 86 db 0f 3e
       0.0027184635 0.006932523 -0.008539299 0.14048585
000320 59 b5 61 3d 87 65 e8 3d 39 35 02 bd 6f d4 a7 bd
       0.055104587 0.1134749 -0.03178904 -0.08194815
000330 00 f0 5d 3c 49 05 c9 bd dc f2 1b bd c4 ea 84 bd
       0.01354599 -0.09815461 -0.038073406 -0.064900905
000340 f4 d3 06 bd 95 94 2c bd df 79 c5 3d 98 51 9d bb
       -0.032916978 -0.042133886 0.09642386 -0.0048009865
000350 ac 96 00 be d7 ac 96 3c cc f8 e9 bc 71 1a e5 3d
       -0.12557477 0.018392963 -0.028561018 0.11186684
000360 77 98 10 3e b4 e1 da bd a3 b2 fe 3d 07 03 13 bd
       0.1412066 -0.10687581 0.12436416 -0.03589156
000370 51 5a 4a 3c 27 3a bc bd d9 84 b0 bd bf c2 a9 bd
       0.012350635 -0.09190779 -0.08619089 -0.08289098
000380 6d 21 86 bd 3d d2 bd 3b 7d 01 d5 3d ce cd 9d 3d
       -0.06549344 0.0057928846 0.104006745 0.0770527
000390 0c 29 ce 3c 47 ee e3 bb 75 5d 07 be 5c e7 a4 bd
       0.025166057 -0.006955895 -0.13219245 -0.08051941
0003a0 79 53 c1 bc cb 80 0e 3e c6 9e 97 3d 34 12 38 3d
       -0.023599373 0.13916318 0.074033305 0.044939235
0003b0 72 63 41 3d a0 f3 9b 3b 98 ff 8c 3d ca 87 48 3d
       0.04721398 0.004759267 0.06884688 0.048957624
0003c0 33 b9 c5 3c b6 1e b6 3d c7 ed 25 3e 6e b4 83 3d
       0.024136161 0.088925764 0.16203986 0.064308986
0003d0 1a 81 af 3d 19 11 0e 3e 41 c9 2f 3d 0a d1 9d 3c
       0.08569546 0.1387371 0.04291654 0.019264717
0003e0 cc da 85 bc 10 aa f1 3b 2e cf ef bc aa fd c4 bd
       -0.016339682 0.0073750094 -0.029273596 -0.09618695
0003f0 84 7e 4c 3c 8c 48 fc 3d 9f 4a 73 bd 90 59 04 be
       0.012481336 0.12318525 -0.059397336 -0.1292479

sequential_11_1/lstm_1_1/while/lstm_cell_1/add_1/ReadVariableOp f4 [200]
000000 f2 df 19 3e fd 6c 85 3d 40 d5 06 3e d8 c4 1a 3e
       0.15026835 0.065149285 0.13167286 0.15114152
000010 af 80 da 3d 9a e5 0c 3e 47 ae 19 3e 8d fb 18 3e
       0.10669076 0.13759461 0.15007888 0.14939709
000020 80 df d2 3d e9 e9 16 3e 1d e4 01 3e 97 9d 35 3e
       0.102965355 0.14737667 0.12684675 0.17735897
000030 77 05 b9 3d 43 16 11 3e e4 59 e9 3d 21 91 d7 3d
       0.090342455 0.14168648 0.113940984 0.10525728
000040 35 41 c4 3d 31 9d a9 3d 2b 34 0a 3e b0 60 e1 3d
       0.0958275 0.08281935 0.13496463 0.1100477
000050 f8 cf e0 3d 9b 16 02 3e 74 b9 eb 3d e5 f8 09 3e
       0.10977167 0.12703936 0.11509982 0.13473852
000060 bb da 06 3e fe e2 17 3e 58 c4 e2 3d fe 51 36 3e
       0.13169377 0.14832684 0.11072606 0.17804715
000070 63 d9 b5 3d 70 8e ce 3d c4 fb 05 3e 12 e3 12 3e
       0.08879354 0.100857615 0.13084322 0.14344433
000080 4b b8 ff 3d 23 9a de 3d a5 61 fb 3d 3e 28 dd 3d
       0.12486323 0.10869243 0.122744836 0.10798691
000090 2e bb 8c 3d ff b5 01 3e 03 65 15 3e eb 8e c9 3d
       0.06871639 0.12667082 0.14589314 0.098417126
0000a0 43 ac d3 3d 53 84 af 3d 55 73 f7 3d ed e3 08 3e
       0.10335591 0.08570161 0.12082545 0.13368197
0000b0 cb ba 16 3e df 88 01 3e a6 0e 2c 3e 6f 37 0d 3e
       0.14719693 0.12649868 0.16802463 0.13790677
0000c0 27 eb 25 3e 86 da d8 3d 00 00 80 3f 00 00 80 3f
       0.16202985 0.10588555 1.0 1.0
0000d0 00 00 80 3f 00 00 80 3f 00 00 80 3f 00 00 80 3f
       1.0 1.0 1.0 1.0
0000e0 00 00 80 3f 00 00 80 3f 00 00 80 3f 00 00 80 3f
       1.0 1.0 1.0 1.0
0000f0 00 00 80 3f 00 00 80 3f 00 00 80 3f 00 00 80 3f
       1.0 1.0 1.0 1.0
000100 00 00 80 3f 00 00 80 3f 00 00 80 3f 00 00 80 3f
       1.0 1.0 1.0 1.0
000110 00 00 80 3f 00 00 80 3f 00 00 80 3f 00 00 80 3f
       1.0 1.0 1.0 1.0
000120 00 00 80 3f 00 00 80 3f 00 00 80 3f 00 00 80 3f
       1.0 1.0 1.0 1.0
000130 00 00 80 3f 00 00 80 3f 00 00 80 3f 00 00 80 3f
       1.0 1.0 1.0 1.0
000140 00 00 80 3f 00 00 80 3f 00 00 80 3f 00 00 80 3f
       1.0 1.0 1.0 1.0
000150 00 00 80 3f 00 00 80 3f 00 00 80 3f 00 00 80 3f
       1.0 1.0 1.0 1.0
000160 00 00 80 3f 00 00 80 3f 00 00 80 3f 00 00 80 3f
       1.0 1.0 1.0 1.0
000170 00 00 80 3f 00 00 80 3f 00 00 80 3f 00 00 80 3f
       1.0 1.0 1.0 1.0
000180 00 00 80 3f 00 00 80 3f 00 00 80 3f 00 00 80 3f
       1.0 1.0 1.0 1.0
000190 d2 b5 e5 3d 87 5a 89 3d fa ab f8 3d 3d c7 22 3e
       0.1121632 0.0670672 0.12142177 0.15896316
0001a0 80 f2 ef 3d 0d 38 18 3e 32 f3 24 3e 46 4b f3 3d
       0.11716175 0.14865132 0.16108397 0.11879592
0001b0 b8 68 1e 3e 44 b1 00 3e 25 ce fa 3d fd cf d8 3d
       0.15469635 0.12567621 0.1224635 0.105865456
0001c0 79 c6 e9 3d 72 25 d4 3d 33 fd 0e 3e 31 88 eb 3d
       0.11414809 0.103587046 0.13963775 0.11500586
0001d0 f6 07 c9 3d 5c ec f7 3d b5 31 a4 3d c9 55 f4 3d
       0.098159716 0.12105629 0.08017293 0.11930425
0001e0 87 57 e6 3d 55 e3 e0 3d 7c 90 db 3d 40 3d 1a 3e
       0.11247163 0.1098086 0.107209176 0.15062428
0001f0 52 c4 da 3d 58 39 f8 3d 5e c0 e6 3d 2a fc f5 3d
       0.106819764 0.121203125 0.1126716 0.12010987
000200 bc 70 e5 3d 0e f2 f9 3d 18 4b 76 3d 5d a0 04 3e
       0.11203143 0.122043714 0.06013021 0.12951799
000210 f3 24 ed 3d f7 c9 ca 3d ec 8f ef 3d 70 9f d7 3d
       0.11579313 0.09901803 0.11697373 0.10528457
000220 39 28 ac 3d de de f3 3d e5 4c af 3d b0 56 7a 3d
       0.08406109 0.11907743 0.08559588 0.061117828
000230 79 a5 e7 3d 88 b5 c5 3d 0d 82 df 3d 18 f3 f4 3d
       0.11310858 0.09653765 0.10913477 0.11960429
000240 bf fc 2d 3e b3 93 b4 3d 0d cc ce 3d 32 8b f7 3d
       0.16990946 0.08817234 0.10097513 0.12087096
000250 39 97 f3 3d 88 e2 db 3d 7c 69 15 3e 02 5b 7f 3d
       0.11894078 0.10736567 0.1459102 0.06234265
000260 02 3a 11 3e 91 52 1b 3e db 70 d5 3d 18 77 11 3e
       0.14182284 0.15168215 0.10421916 0.14205587
000270 66 98 19 3e 32 38 1e 3e dd 8e d6 3d ff ec 14 3e
       0.14999542 0.15451124 0.10476468 0.14543532
000280 2c cf 05 3e 82 bd 33 3e b9 1b b7 3d ec f4 12 3e
       0.13067311 0.1755276 0.089408346 0.14351243
000290 18 01 f2 3d 4b 5f df 3d ee 46 c3 3d f3 3f a8 3d
       0.11816615 0.109068476 0.09535013 0.08215322
0002a0 3e 4c 03 3e 2b e8 e7 3d ef 6b e2 3d e5 dc fa 3d
       0.12822053 0.113235794 0.11055743 0.122491635
0002b0 14 c8 de 3d 36 b6 0b 3e 52 da 06 3e 66 97 15 3e
       0.108780056 0.13643727 0.1316922 0.14608535
0002c0 11 73 de 3d 03 c7 37 3e cd 9b b9 3d c0 e7 cf 3d
       0.10861791 0.1794701 0.0906292 0.10151625
0002d0 a2 4f 03 3e d0 17 10 3e 3f f8 00 3e 9a 43 d7 3d
       0.12823346 0.14071584 0.12594698 0.10510941
0002e0 bb 38 fa 3d a8 29 db 3d 89 2d 92 3d 45 54 01 3e
       0.12217852 0.10701305 0.071375914 0.12629803
0002f0 29 6f 0a 3e fa 2c df 3d f9 1a d4 3d cd fc b3 3d
       0.13518967 0.108972505 0.10356707 0.08788452
000300 39 0b f4 3d e4 49 06 3e b8 93 17 3e e6 7c 0a 3e
       0.11916203 0.13114125 0.14802444 0.13524207
000310 14 1b 2c 3e 74 ac 0e 3e 70 42 21 3e f5 c9 de 3d
       0.16807204 0.13932973 0.15748 0.10878364

arith.constant19 f4 [200, 50]
000000 87 5a 6d bd f3 3c db bd 2d b5 33 3d 81 ff e1 bd
       -0.05794766 -0.107049845 0.043873955 -0.11035062
000010 e1 19 11 3e ed eb 1d bd d5 be 03 3d 45 e6 16 be
       0.14170028 -0.038555074 0.032164413 -0.14736278
000020 8b 98 09 3e b3 95 08 be 81 b2 a1 bd d5 70 0a 3e
       0.13437097 -0.13338356 -0.07895375 0.13519605
000030 bd 1c 05 bd 53 35 10 3d bd 52 0c 3e 3d 29 ff bd
       -0.03249811 0.035207104 0.13703437 -0.124590375
000040 9a c7 10 bd a3 66 00 be 82 b4 00 3e 9f bd c7 bd
       -0.035346605 -0.12539153 0.12568858 -0.09752964
000050 88 1a 5f 3d 28 af 0e 3e ed 55 8e 3c b9 14 09 3d
       0.05446866 0.13934004 0.017374957 0.03346703
000060 8b 5d dc bd 8f 66 0a be fb b4 19 be 5d 5a b1 3d
       -0.107600294 -0.13515685 -0.15010445 0.086598136
000070 c0 70 1a be b3 0d ba 3d 2c 62 40 3c 82 ad 88 bd
       -0.15082073 0.09084644 0.011742156 -0.06673719
000080 80 03 03 3d 84 85 a3 3d 36 2d 26 bc 65 0b 58 3d
       0.03198576 0.079844505 -0.010142615 0.05274524
000090 ab 2c 10 be a7 4f 06 3e c2 38 1d be a0 88 17 3e
       -0.1407954 0.13116322 -0.15353683 0.14798212
0000a0 59 fc 39 3d c3 f4 ac 3d 8c 24 76 bd bd 6c 07 3e
       0.045406673 0.08445122 -0.060093448 0.13225074
0000b0 17 3a b8 bd 03 6e 9d bd f3 e4 16 be 71 60 de bd
       -0.08995455 -0.07686999 -0.14735775 -0.108582385
0000c0 57 4b 5b 3c 0c 78 28 3c 03 9e 16 3b 69 71 61 3e
       0.013384662 0.010282528 0.0022982366 0.22015919
0000d0 0b 91 a3 3c 42 44 f3 3d 8e 70 4f 3e 2d 5b ce 3d
       0.019966623 0.118782535 0.2025778 0.10075984
0000e0 b6 f8 52 3e 4f 25 5b bd e3 bf 72 3e bc 10 f1 3d
       0.20602688 -0.053502377 0.23706011 0.1177077
0000f0 77 ad 7e 3e 5a 58 df bc 0c 19 26 3e da 64 35 be
       0.24870859 -0.027263809 0.16220492 -0.17714253
000100 12 03 6c 3e 3d b5 28 3d 1d 2f 3d bd eb 0a 01 3e
       0.23048046 0.041188467 -0.04618751 0.12601821
000110 e2 eb fc 3d c2 40 8b 3c d0 7b 8c 3b 36 d4 3b 3e
       0.123496786 0.016998652 0.0042872205 0.18342671
000120 f6 20 22 3e dc a8 89 3d 6f 1d 8b 3e 5d 2f 52 3d
       0.15832886 0.067216605 0.27170894 0.0513147
000130 59 f7 34 3e cc b7 48 3e a8 f2 0c 3e ea 3e fe bb
       0.1767248 0.19601363 0.13764441 -0.007758965
000140 ac 4e e3 3c 56 dc 11 3e 0c 01 80 3e 8a 29 65 3e
       0.027747475 0.14244208 0.250008 0.22379127
000150 a0 a1 1d 3e c8 c1 2d 3e 0a 6f 47 3e 87 78 fd 3d
       0.15393686 0.16968453 0.19475952 0.123765044
000160 bb 3c 3f 3e ae 6f 0c 3e 38 27 68 3e e2 a4 0b 3e
       0.1867551 0.13714477 0.22671211 0.13637117
000170 0b dc b9 3d 4d ea 3c 3d b4 dc 86 3e 30 6e b1 3c
       0.09075173 0.046121884 0.26340258 0.021658987
000180 57 5e 47 be 97 ea c7 bc e7 5e ee bd 90 95 1f 3d
       -0.19469582 -0.024403853 -0.11639195 0.038960993
000190 29 fd 87 3e 8e e9 37 3e b4 78 8a bc 46 33 68 bc
       0.26560333 0.17960188 -0.016903259 -0.014172381
0001a0 dc 02 d7 3d 2c 83 ba bc fd 8f 83 3e b3 b0 86 bd
       0.10498592 -0.022767626 0.25695792 -0.065766715
0001b0 ae 18 cd 3c 11 55 70 3e 73 45 22 3d 69 2c 61 be
       0.025036182 0.2346995 0.039617013 -0.21989597
0001c0 15 4f 20 bd eb 1b 01 be 20 3d 19 3e b2 61 4b 3e
       -0.03913792 -0.12608306 0.14964724 0.19861487
0001d0 c9 59 8b 3d 78 57 ae 3d 10 ef 17 be 08 99 67 3e
       0.068042345 0.08512777 -0.14837289 0.2261697
0001e0 72 ce 3c 3e 04 35 84 bd 60 66 4a 3d ca bc 61 3e
       0.18438128 -0.064554244 0.04941404 0.22044674
0001f0 0d d3 cc 3d 40 32 f1 3d 87 0f 4f 3c dd 0c 87 3e
       0.10001192 0.117771626 0.012637979 0.26377
000200 c6 20 f9 3d b1 69 69 3d ac f3 06 3e 0d 62 09 3c
       0.12164454 0.05698556 0.13178891 0.0083851935
000210 67 09 46 3e da 41 73 3d 5a 89 69 3e e1 f9 2f 3e
       0.19339524 0.059388973 0.22806302 0.17185165
000220 c5 43 93 bd 76 c1 7b 3e df d7 b6 3b fc 95 3b bd
       -0.071906604 0.24585518 0.005579933 -0.045797333
000230 70 6c a3 3c 35 03 4d 3d a9 1f ce 3d 10 89 1a be
       0.019949168 0.050051887 0.100646324 -0.15091348
000240 7f 3f 6c 3e d4 ed 8f 3d 38 a4 32 be 47 be 8e 3d
       0.23071097 0.07027784 -0.17445457 0.06969886
000250 9a 3d a7 bd 6c 69 b1 3c 53 31 9a bd 0e 24 87 3d
       -0.081660464 0.021656714 -0.07528939 0.06598674
000260 00 25 c5 3c 56 62 85 bd 99 61 ea 3d e6 bc 82 3d
       0.024065495 -0.06512897 0.114443965 0.06383686
000270 53 35 bd 3d fb c5 ec 3d 39 ee 10 bc 64 d2 c6 3c
       0.092386864 0.11561199 -0.008845859 0.024270244
000280 e2 30 96 bd ca ac 3b be 08 46 d4 bd dc cc 74 3c
       -0.073335424 -0.18327633 -0.1036492 0.01494142
000290 66 79 71 bd 20 6d e3 3d 22 e1 05 3e 65 31 1c 3d
       -0.058953665 0.11104798 0.13074163 0.038133044
0002a0 31 38 03 3e d3 04 63 bd 3a 84 30 3d db c1 81 bd
       0.12814404 -0.055424523 0.04309485 -0.06335803
0002b0 2a f2 86 bd c7 82 ec bc 2f 6c 76 3e dc be 00 3e
       -0.06589158 -0.028870953 0.24064706 0.12572807
0002c0 c5 ba 8e bc 46 c0 7b 3e 7d b4 a9 bd 83 a3 0e 3e
       -0.017423043 0.24585065 -0.082863785 0.13929562
0002d0 4b 00 3c 3d 56 a5 1e bd c3 49 02 ba 0c 9f 89 bc
       0.045898717 -0.038731895 -0.0004970098 -0.016799472
0002e0 73 21 13 3e ed 77 23 3e 3c 92 14 3d 41 35 62 3e
       0.14368229 0.15963717 0.036272272 0.22090627
0002f0 de 95 0d bd d3 5c 0e 3e 05 1d 38 3e d2 1f 29 3e
       -0.034566753 0.13902597 0.1797982 0.16516045
000300 cd 13 7d bd b3 87 1b bd 2e b9 13 bd 0b a5 21 bd
       -0.06178646 -0.03797121 -0.036065273 -0.039464038
000310 ce 89 5c 3d 47 1c 53 3e dd e1 23 bd 87 61 d2 3d
       0.05384236 0.20616256 -0.040010322 0.10272508
000320 a0 21 e1 bc 06 9e 1d bd 38 ed e2 bc d0 23 e4 bc
       -0.027481854 -0.03848078 -0.027701005 -0.027849108
000330 ed 9d 94 bd 61 73 0f 3e 8a fd c8 3d 88 bb 14 bd
       -0.072566845 0.14008857 0.09813984 -0.036311656
000340 9c 0f eb bd b8 13 02 be c5 bd 1d 3e 00 c0 52 37
       -0.114775866 -0.12702835 0.15404423 1.2561679e-05
000350 24 42 be 3d c2 fa 33 bd 26 ae aa 3d 77 a1 81 bd
       0.09289959 -0.043940313 0.083339974 -0.06329625
000360 98 67 2e 3d 20 78 1b be a5 4e 10 3e 68 72 5d 3d
       0.042579263 -0.15182543 0.140925 0.054064184
000370 e6 b0 a6 3d 32 94 85 3d 7b de b3 bd 65 d3 00 be
       0.081392094 0.06522407 -0.08782669 -0.1258064
000380 c3 5f 1d 3e 79 47 11 3e 68 dc 1d be 1f 48 1d 3e
       0.15368561 0.14187421 -0.1541611 0.15359543
000390 78 ff 13 3d e8 f7 15 be 20 7b e7 3c 00 60 0d 3a
       0.036132306 -0.1464535 0.028256953 0.0005393028
0003a0 62 d8 00 bd 82 d8 b5 3d b4 e6 3e bd 7e 3d 0a be
       -0.03145636 0.08879186 -0.046606734 -0.1350002
0003b0 3d 12 1a 3e 00 0c 04 bc 70 4a 92 bc db 2b 0b be
       0.1504602 -0.008059502 -0.01785776 -0.13590948
0003c0 a0 fb 08 3d 12 43 eb 3d 91 48 de bd 8e f9 ce 3d
       0.033443093 0.11487402 -0.10853685 0.101061925
0003d0 c5 8f 0f 3e a7 05 0b 3e 01 ed a5 bd a5 df 09 3e
       0.14019687 0.13576375 -0.081018455 0.1346422
0003e0 fc 0d 12 be 51 40 02 be 19 8e 70 3e d6 f5 94 bb
       -0.14263147 -0.12719847 0.23491706 -0.0045459075
0003f0 49 f5 99 3d 98 9d 21 3b 86 ea 0b 3e 67 d6 4b 3e
       0.075174876 0.0024660584 0.13663682 0.19906007

arith.constant20 f4 [200, 50]
000000 00 73 93 bc ec 5a a4 3c ec e0 5d bd 56 4d 84 bd
       -0.017999172 0.020062886 -0.05416958 -0.06460063
000010 13 92 0b be 06 1c de bc 70 5c 29 bc cd 8a 85 3d
       -0.13629942 -0.027112972 -0.01033698 0.06520615
000020 7e 9b c9 3d cf a4 6c bd c6 40 2e bd 48 d9 91 bc
       0.09844111 -0.05777436 -0.04254224 -0.017803803
000030 92 fc 22 bd f1 3a ca bd ec b6 59 3d 56 71 15 3e
       -0.03979165 -0.098745234 0.053152964 0.14594015
000040 f1 19 47 bc 82 cf 81 bd 63 24 b3 3d c8 d5 28 bb
       -0.012152181 -0.06338407 0.087471746 -0.002576219
000050 5e d9 8e 3d 90 60 e8 3b d7 9a 9f bd 88 85 f1 3c
       0.06975053 0.0070915893 -0.07793205 0.029482618
000060 29 d0 1e 3d 66 ea 65 3d ea 88 03 3d 02 44 f7 bc
       0.038772736 0.056131743 0.032112993 -0.030183796
000070 56 a8 d7 bb 32 e1 ee 3d 14 bd 36 3d e5 c2 98 bd
       -0.0065813465 0.11664046 0.044613913 -0.07459048
000080 18 58 8c bd dc 51 4f bc fd 44 34 bd e0 9c 24 3d
       -0.0685274 -0.012653794 -0.044011105 0.04018867
000090 7c 96 36 3e e6 3b 6d 3d d2 cf 53 bd a6 de 41 bd
       0.17830843 0.05791845 -0.051711865 -0.047331475
0000a0 ed 58 78 3d b8 9c 4a be 80 40 67 3b cd f9 2e 3d
       0.06063168 -0.19786346 0.0035286248 0.042718697
0000b0 b4 ef f5 3d 4e a8 73 3d ea 48 02 bd 91 e4 e2 bc
       0.1200861 0.05948668 -0.031807818 -0.02769688
0000c0 18 89 bb bc 20 74 c8 bb f1 89 c3 bd 60 c3 53 bd
       -0.02289252 -0.006117359 -0.095477946 -0.051699996
0000d0 69 a8 49 3d 6a 5d 2c 3d 06 a6 54 bd ac 25 30 bd
       0.049232874 0.042081274 -0.051916145 -0.043004677
0000e0 09 7e 06 bd 3b b3 22 bc 13 62 05 be 31 8c c9 3d
       -0.03283504 -0.009930427 -0.13025694 0.098411925
0000f0 f2 ef 9b bc ce 49 6a 3c 08 fa ba 3c e6 17 25 3c
       -0.019035313 0.014299823 0.022824302 0.010076499
000100 a2 27 7d 3b 0c 2b 92 3c 7a da 75 bd 72 11 31 3d
       0.003862836 0.017842792 -0.06002281 0.043229528
000110 4d 1f 2c bd 86 1a bf ba 5b 30 6e 3d 23 ad 8c 3d
       -0.04202204 -0.0014580048 0.058151584 0.06868961
000120 43 cd ab 3d b5 25 86 bc 10 31 f0 3d 49 d8 e5 3c
       0.0838876 -0.016375402 0.11728108 0.028057234
000130 bd 3a ab bd c5 8c c6 bc 64 27 16 bd 84 f9 7f 3d
       -0.08360813 -0.024237046 -0.03665866 0.062493816
000140 1f f4 10 bd ca 3e c6 3d d6 a2 80 3c e2 8e 6e bd
       -0.035389062 0.09679945 0.015702646 -0.058241732
000150 12 e7 19 3e a6 d9 c8 bd e0 95 b6 bc 84 90 b4 3d
       0.15029553 -0.09807138 -0.022288263 0.08816627
000160 20 e5 74 3d be 5e 57 3c 59 89 3b 3d 4f d7 6c be
       0.059788823 0.013145147 0.04578528 -0.23129009
000170 eb 63 2b 3d 16 76 3e bd c5 94 44 3d 96 2e ca bd
       0.041843336 -0.046499334 0.04799344 -0.09872167
000180 d6 2a f4 bc 88 92 84 3c ff 49 fb bd 75 6c 97 bd
       -0.029805582 0.016183153 -0.12269973 -0.073937334
000190 1f ae 12 39 86 6f 18 3e 70 d1 a8 bd a8 3e f4 bd
       0.0001398851 0.14886293 -0.08243072 -0.11926013
0001a0 78 17 02 be db 76 dc 3c da 1b 08 bc f8 05 6c bd
       -0.12704265 0.026912143 -0.008307422 -0.05762288
0001b0 7e e6 0a bd 4e b4 ac 3c 32 ff 0c be 99 16 3b 3d
       -0.03391122 0.02108207 -0.13769224 0.045675848
0001c0 5e f7 24 3d 56 7a 2f bd 86 34 90 3c ce aa 5e bd
       0.04027497 -0.042841278 0.01760317 -0.05436211
0001d0 ba 26 1a 3d bf 81 53 bd 60 27 92 bd 53 4a 01 3d
       0.03763459 -0.051637407 -0.071364164 0.03156502
0001e0 fe 33 61 bd 14 74 4e 3d fa 02 19 bd d9 5e a6 3d
       -0.054981224 0.05040367 -0.037356354 0.081235595
0001f0 b4 71 d1 bd bb 4f 97 bd a2 30 cd 3d 6c f2 d8 bc
       -0.10226765 -0.07388254 0.100190416 -0.026482783
000200 ef 41 10 3c ed 35 fb 3b 79 b7 cf 3c 97 59 9b 3d
       0.008804782 0.0076663406 0.025356041 0.07585447
000210 71 f6 83 bd e9 fd b6 bd 84 80 d8 bc 98 ad 0e 3d
       -0.06443489 -0.08935148 -0.026428469 0.03483352
000220 ec 8d 8a bd 6c 32 bc 3b b9 d3 05 bd eb bb f4 3c
       -0.06765351 0.0057433154 -0.032672618 0.029874763
000230 70 bc 93 39 b0 14 99 bd 5a 0a 3f bc 55 44 b5 bd
       0.00028178422 -0.07474649 -0.011660183 -0.08850924
000240 b8 7e f7 bc 1a 2c 81 bd 3c 1c 8a 3d 6e 33 84 3d
       -0.030211791 -0.0630724 0.067436665 0.06455122
000250 84 a9 65 bd 60 7e c1 3d d7 42 89 3d b3 5b 9d bd
       -0.056069866 0.09447932 0.06702202 -0.07683506
000260 a4 b3 96 3d c0 c3 56 3d ff 3c d8 3c 81 35 be bd
       0.073584825 0.052432775 0.026396273 -0.09287549
000270 c4 3e 76 be de 99 36 be 53 eb 9b bd 16 ad d5 bc
       -0.2404738 -0.17832133 -0.07613244 -0.02608351
000280 70 ed bd 3a 92 3c d6 3c 3e 15 20 bb 8d 8a 40 bc
       0.0014490318 0.026151929 -0.0024426724 -0.011751783
000290 a3 12 eb bd 38 95 f0 bc a0 73 be bd f5 21 8b bd
       -0.11478164 -0.029368028 -0.092993975 -0.06793586
0002a0 ee 4f 1d bc 28 bb 57 3d f0 87 31 bd d9 c8 7e bd
       -0.009601576 0.05266872 -0.04334253 -0.062203262
0002b0 3a 7c 9a bd 61 fe 07 be 44 07 c7 bc 51 72 a3 bd
       -0.075432256 -0.13280632 -0.024295457 -0.079807885
0002c0 58 29 7d 3d 49 f2 1c be 4f 0d 00 3d 53 62 34 3d
       0.061807007 -0.153268 0.031262692 0.04403908
0002d0 81 49 50 3c 3f d3 5f bc 8d c2 29 3e 6b 27 f4 bc
       0.012712837 -0.013661205 0.16578121 -0.029803952
0002e0 49 bc 20 bc 66 34 fe 3c 00 44 b3 b8 9a 65 8c bd
       -0.009810516 0.031030845 -8.548051e-05 -0.068553165
0002f0 c2 48 78 3d b5 6c 11 3e da 5e 20 bc c0 dc b9 3c
       0.060616262 0.14201625 -0.009788239 0.02268827
000300 05 7c 57 3d 26 44 2d bd 74 0c 47 3d 0c 1f f7 bd
       0.05260851 -0.04230132 0.04859586 -0.120664686
000310 11 09 06 be 05 fd eb 3c fc 12 99 3d 08 28 5e bb
       -0.13089396 0.028807173 0.07474324 -0.0033898372
000320 64 60 1f 3d 20 44 7f bc f0 f4 ba 3d d2 b1 44 bd
       0.038910285 -0.015580207 0.09128749 -0.048021145
000330 00 62 bf bb f9 cc d5 3b f9 ff ac 3d 6a ec 89 3c
       -0.00584054 0.006524679 0.084472604 0.016836364
000340 63 48 0a bc 9e 4c 3d bd 41 36 30 bd 60 f4 dc 3d
       -0.00844011 -0.046215646 -0.04302049 0.10788798
000350 5e 6b d7 bd e5 f9 84 bd 19 f7 24 be b4 57 43 bd
       -0.105185255 -0.06492976 -0.16109885 -0.047691062
000360 49 6b a5 bd b1 c1 96 3d fd 56 25 3b 8c 4d c3 bd
       -0.08077104 0.073611625 0.002522885 -0.09536275
000370 ac bb 21 bd 0d 47 cb bd cd 76 43 3d 88 97 fd bc
       -0.03948562 -0.09925661 0.04772072 -0.030956045
000380 1c cc 5f 3d 91 b1 12 3d 94 8c b8 3b 6b 15 cd bd
       0.054638013 0.03581387 0.0056319926 -0.10013851
000390 cd 28 34 bd 6b 57 78 3d 64 d1 be ba 81 7e 00 3e
       -0.043984223 0.060630243 -0.0014558253 0.12548257
0003a0 6c bc 41 3d 41 97 82 bd cc ad 96 bd f0 5a 9c bd
       0.047298834 -0.06376506 -0.07357368 -0.076345325
0003b0 63 41 8a bd 69 9f 1f 3e e0 81 fb b8 f2 d0 30 3e
       -0.06750753 0.15588154 -0.00011992804 0.17267206
0003c0 af b1 24 3d c0 46 e0 ba ed 5c 17 bd 7d 0d f1 3c
       0.040208515 -0.0017110929 -0.036953855 0.029425377
0003d0 f8 c7 0f bd c1 6c 12 be 51 3b 5c 3d 69 57 56 3c
       -0.035102814 -0.14299299 0.053767506 0.013082364
0003e0 a6 ed 0b bd 9f ce 3d 3c 56 18 8f bd ce 4c ac 3c
       -0.034162186 0.011584907 -0.069870636 0.021032717
0003f0 53 8c 69 bd 01 a5 06 bd 9c a7 f3 3d 40 65 0a bd
       -0.05701859 -0.032872204 0.11897203 -0.033787966

sequential_11_1/lstm_2_1/while/lstm_cell_1/add_1/ReadVariableOp f4 [200]
000000 77 c2 83 bc 83 d7 ff 3d cf 63 f1 3d 87 1c 98 3d
       -0.016083939 0.124922775 0.11786615 0.07427316
000010 00 00 00 00 31 60 00 3e 00 00 00 00 0d a5 b9 ba
       0.0 0.12536694 0.0 -0.0014163569
000020 8e 73 1d 3e 6a d9 07 3e 94 54 f0 3d 7f 20 21 3e
       0.15376112 0.1326653 0.11734882 0.15735053
000030 1a 1a 02 3e fc b7 ee 3d b4 d9 08 3e 28 c0 03 3e
       0.1270527 0.11656186 0.13364297 0.1286627
000040 80 0e e2 3d ab a2 09 3e e2 58 01 3e 6d ca 2c 3e
       0.11037922 0.13440959 0.12631562 0.16874094
000050 f4 5f e0 3d 20 0e 30 3e f7 ee 01 3e c5 d1 e6 3d
       0.109558016 0.17192888 0.12688814 0.11270479
000060 c1 24 fb 3d 06 38 48 ba c5 58 0f 3e f2 20 26 3e
       0.122628696 -0.00076377427 0.13998707 0.16223505
000070 f8 aa 66 3d 35 76 07 3e be 3d 05 3e 75 31 04 3e
       0.056315392 0.13228686 0.13011834 0.12909491
000080 f0 04 01 3e b1 7e f5 3d 80 7c 4f bc 1c 24 0f 3e
       0.1259954 0.11987055 -0.01266396 0.13978618
000090 8e 63 09 3e 79 40 e7 3d d5 b6 bd 3d cd 5e fc 3d
       0.13416883 0.11291594 0.09263388 0.12322769
0000a0 43 f4 1c 3e 98 5a a7 3d f5 70 27 3e 5b 3e 08 3e
       0.15327553 0.08171576 0.16351683 0.13305037
0000b0 41 a0 86 b7 a0 06 05 3e 47 e2 fc 3c 00 00 00 00
       -1.6048669e-05 0.12990808 0.030869616 0.0
0000c0 ca ce ec 3c 74 ee f1 3d 00 00 80 3f 00 00 80 3f
       0.028907198 0.118130594 1.0 1.0
0000d0 00 00 80 3f 00 00 80 3f 00 00 80 3f 00 00 80 3f
       1.0 1.0 1.0 1.0
0000e0 00 00 80 3f 00 00 80 3f 00 00 80 3f 00 00 80 3f
       1.0 1.0 1.0 1.0
0000f0 00 00 80 3f 00 00 80 3f 00 00 80 3f 00 00 80 3f
       1.0 1.0 1.0 1.0
000100 00 00 80 3f 00 00 80 3f 00 00 80 3f 00 00 80 3f
       1.0 1.0 1.0 1.0
000110 00 00 80 3f 00 00 80 3f 00 00 80 3f 00 00 80 3f
       1.0 1.0 1.0 1.0
000120 00 00 80 3f 00 00 80 3f 00 00 80 3f 00 00 80 3f
       1.0 1.0 1.0 1.0
000130 00 00 80 3f 00 00 80 3f 00 00 80 3f 00 00 80 3f
       1.0 1.0 1.0 1.0
000140 00 00 80 3f 00 00 80 3f 00 00 80 3f 00 00 80 3f
       1.0 1.0 1.0 1.0
000150 00 00 80 3f 00 00 80 3f 00 00 80 3f 00 00 80 3f
       1.0 1.0 1.0 1.0
000160 00 00 80 3f 00 00 80 3f 00 00 80 3f 00 00 80 3f
       1.0 1.0 1.0 1.0
000170 00 00 80 3f 00 00 80 3f 00 00 80 3f 00 00 80 3f
       1.0 1.0 1.0 1.0
000180 00 00 80 3f 00 00 80 3f 00 00 80 3f 00 00 80 3f
       1.0 1.0 1.0 1.0
000190 2b dc c8 bc 0c bf f2 3d 69 4c f6 3d 0d c1 d8 3c
       -0.024519047 0.118528455 0.12026293 0.026459241
0001a0 00 00 00 00 04 f9 f0 3d 00 00 00 00 dc 4d 3e bc
       0.0 0.11766246 0.0 -0.011615243
0001b0 c1 49 77 3d 79 4d f5 3d 4d 14 f3 3d 58 d4 d5 3d
       0.06037307 0.11977667 0.118691064 0.10440892
0001c0 55 24 f2 3d 9d 6b fc 3d ae ff f2 3d b5 d7 f4 3d
       0.11823336 0.12325213 0.11865173 0.11955205
0001d0 99 36 00 3e 6c 68 0b 3e af eb f7 3d 1b 5f a4 3d
       0.12520827 0.13614053 0.121055 0.080259524
0001e0 be 0d d6 3d 22 d1 d6 3d db d2 f6 3d 44 2f c2 3d
       0.1045184 0.10489108 0.12051936 0.094816715
0001f0 c4 9e f1 3d cc a5 29 bc 5d 42 b2 3d f7 02 aa 3d
       0.1179786 -0.01035447 0.08704064 0.08301347
000200 23 00 3b 3c 19 23 f2 3d cd 7e f3 3d a4 db f6 3d
       0.011413607 0.118231006 0.1188942 0.12053612
000210 e3 76 e8 3d b5 22 f6 3d cc e9 cf bc a7 ca 79 3d
       0.11350801 0.120183386 -0.025380038 0.06098428
000220 ac a4 f5 3d 5e f3 f2 3d 32 1d ea 3d f9 ad e5 3d
       0.11994299 0.11862825 0.1143135 0.11214823
000230 bb 42 19 3e fe 21 a2 3d 57 a5 b3 3d b5 b0 0e 3e
       0.14966862 0.0791664 0.087717704 0.13934596
000240 f1 8e a5 bb 6c 8c f1 3d 0c 89 c4 3b 00 00 00 00
       -0.0050524403 0.117943615 0.0059977826 0.0
000250 a6 0a e6 b9 35 9a f3 3d d7 6f 85 bc f5 22 00 3e
       -0.00043876952 0.11894647 -0.016288681 0.12513335
000260 e6 82 f2 3d 77 2c 97 3d 00 00 00 00 ce 81 00 3e
       0.11841373 0.07381528 0.0 0.12549517
000270 00 00 00 00 75 3f b0 ba 50 28 1d 3e 50 21 08 3e
       0.0 -0.0013446646 0.15347409 0.13293958
000280 d0 03 f1 3d 7b b8 1e 3e 3b 5a 02 3e c5 e2 ec 3d
       0.11768305 0.15500061 0.12729733 0.1156669
000290 89 ae 08 3e fa 0a 04 3e e0 b6 e0 3d 5e 00 0a 3e
       0.1334783 0.12894812 0.10972381 0.13476703
0002a0 46 91 01 3e bf 7b 2e 3e dc fb e0 3d 90 53 30 3e
       0.12653074 0.17039393 0.10985538 0.17219377
0002b0 3b af 03 3e 94 e7 e9 3d 5e 7c fa 3d db a7 46 ba
       0.12859814 0.11421123 0.122307524 -0.0007578113
0002c0 6f 95 10 3e e0 ac 25 3e 57 3a 63 3d e8 10 08 3e
       0.14119504 0.16179228 0.05547556 0.13287699
0002d0 e1 67 05 3e 05 e7 03 3e 2c 55 01 3e a6 30 f5 3d
       0.13027908 0.12881096 0.12630147 0.119721696
0002e0 85 d1 4a bc 7b 81 0f 3e e5 81 09 3e 01 fa e5 3d
       -0.012379055 0.14014237 0.13428457 0.11229325
0002f0 ab e1 bb 3d e5 f5 fb 3d 25 e8 1b 3e 0d 32 a6 3d
       0.09173902 0.1230276 0.15225275 0.08115015
000300 3e e7 26 3e e3 a2 08 3e 36 bc 87 b7 95 4f 04 3e
       0.1629915 0.13343386 -1.6180897e-05 0.12920983
000310 01 74 03 3d 00 00 00 00 0a 78 e7 3c b0 d4 f3 3d
       0.03209305 0.0 0.028255481 0.11905801

arith.constant23 f4 [200, 50]
000000 3b 2c 61 bd 98 e1 c8 3d 40 ac ad bc 6b af 94 bd
       -0.054973822 0.098086536 -0.0212003 -0.07260021
000010 ca 0a b4 3d 54 df 87 bc cc 39 fb bd 8b 1a 33 bb
       0.0879112 -0.016585983 -0.12266883 -0.0027329053
000020 5c c0 5b 3d 63 54 43 3d 5d 6f 19 bd 9e b9 01 be
       0.053650245 0.0476879 -0.03745972 -0.12668464
000030 31 78 03 3e ad 5b 25 3d 26 eb 62 3e 21 71 73 3e
       0.12838818 0.040370632 0.22160015 0.23773624
000040 1d e7 6b 3e 81 af 6c 3e 77 7d b2 3b ca f8 43 be
       0.23037381 0.23113824 0.0054470855 -0.19137874
000050 4a bb 51 3e a4 21 0e 3d 2d 02 0b 3e cc 63 13 3e
       0.20481601 0.03470005 0.13575049 0.14393538
000060 0b 1e 9e bb a6 47 a8 3d 54 d6 6a 3d 7b b6 12 bb
       -0.0048253587 0.08216791 0.057333305 -0.00223866
000070 a2 c8 52 3d 23 95 ee 3c 9c 8a 5b 3e 45 00 52 3e
       0.05146087 0.029123848 0.21439594 0.20507915
000080 e5 de 65 3e 1d 3a 01 3e f6 2c 1c 3e 58 6c 0a bd
       0.22448309 0.12619825 0.15251526 -0.03379473
000090 a2 38 6b 3e 5b c4 d0 3c a1 c5 7c 3e 01 99 69 3e
       0.22970822 0.025484255 0.24684764 0.22812273
0000a0 5e 9d 63 3e 2b 80 3d 3e 81 df 40 be 33 f8 5d 3e
       0.22228 0.18505923 -0.1883526 0.21676712
0000b0 f7 43 98 bd 8f 73 5c 3e 87 d0 fb bd 93 f9 a5 bd
       -0.07434838 0.21528457 -0.12295633 -0.08104243
0000c0 cf 35 dc bc 42 68 81 3e 67 7d 1a 3e 06 52 32 3e
       -0.026881127 0.25274855 0.150869 0.17414102
0000d0 b9 e3 53 3d 65 64 bd 3d d9 39 fe bd b2 cf c5 bc
       0.051730845 0.09247664 -0.12413377 -0.024146888
0000e0 60 c9 9c bd 0e 40 0c be 69 83 75 bc b8 8e 1e 3e
       -0.07655597 -0.1369631 -0.014984944 0.1548413
0000f0 8a 4b 11 3e 97 e0 cb 3b 6c 12 86 3e 2b 60 79 3e
       0.14188972 0.0062218416 0.2618593 0.24353091
000100 b0 b4 16 3e 7d 60 08 3e a6 a1 c0 3d f7 37 b2 3c
       0.14717364 0.13318057 0.09405832 0.021755202
000110 db ab 41 3e 89 38 67 be 46 ae 18 3e 0a ce ce 3c
       0.18913214 -0.2258016 0.1491023 0.025244731
000120 5c 1e 1f 3e 0e c3 15 bd bd a0 b8 3c e7 1f 00 3e
       0.15538925 -0.03656297 0.022537583 0.1251217
000130 57 33 25 be 09 0d 57 bd ba b5 5a 3c d7 79 da bc
       -0.16132866 -0.052502666 0.013348991 -0.026669426
000140 b9 99 33 3e f1 cb 84 3e 76 3c c2 3d 62 06 23 3b
       0.1753911 0.25936845 0.09484188 0.002487563
000150 b3 ac cf 3d c2 5d c7 39 4c 1b 98 3d ee fc 44 3e
       0.10140362 0.00038026093 0.074270815 0.1923711
000160 15 46 65 3c a1 fb 82 3d 82 d8 e6 3b 83 2b ba 3d
       0.01399376 0.06395651 0.0070448527 0.090903305
000170 48 df d4 bd 8e 78 15 bd 46 09 d7 bc b0 0e 24 3d
       -0.1039415 -0.036491923 -0.02624954 0.04005307
000180 71 93 c4 bd d1 1d c0 bd a4 f4 4f 3d da f7 b2 3c
       -0.09598435 -0.09380687 0.050770417 0.0218467
000190 4c 45 a3 3b 82 9a be 3d 90 17 6a 3d f2 ff 6f 3c
       0.004982626 0.09306814 0.057151377 0.014648424
0001a0 94 f7 59 3d 20 58 df 3d 7f c1 09 3e 7c 2a 21 bd
       0.053214625 0.109054804 0.13452719 -0.039347157
0001b0 8a 83 ff bd 40 aa 13 3e 45 c9 1d 3e 3a 03 4b bb
       -0.12476261 0.14420414 0.1540881 -0.0030977265
0001c0 4e ab d1 3d 00 5d 71 3e 3c 6b 83 3d d8 9a dd 3d
       0.10237752 0.23570633 0.06416938 0.1082055
0001d0 50 bb 4c 3e 0f 8c 57 3e 56 78 ac 3d bb e1 57 bd
       0.19993329 0.21049522 0.0842139 -0.052705508
0001e0 ed 93 26 3e 5c 2d 2d 3d c4 80 cd 3d da 1f 84 3e
       0.16267367 0.042279586 0.10034326 0.2580555
0001f0 ef d9 9b 3d 79 05 b6 3d 36 3f a0 3d 96 57 ee bd
       0.07609927 0.088877626 0.078245565 -0.116377994
000200 fa 89 e7 3d 8a 08 70 3d 42 48 0e 3e b2 b8 2b bc
       0.11305614 0.058601893 0.13894752 -0.0104810465
000210 5e 0c 2d 3e 48 e7 82 3e 99 e4 d3 3d c4 96 73 3d
       0.16899249 0.2556708 0.10346336 0.059469953
000220 c4 8c 7d 3e c1 3c 37 3e 58 ee 1e 3e 34 15 6d 3e
       0.24760729 0.1789427 0.15520608 0.2315262
000230 61 aa cc 3d f6 11 a5 3d 81 df 33 be 58 e4 78 3c
       0.09993435 0.080600664 -0.17565729 0.01519116
000240 cb 57 8c bd 79 d9 46 bc c5 c2 e7 3d d9 8e cd bd
       -0.06852683 -0.01213681 0.11316446 -0.10037012
000250 03 38 eb bc 98 73 f8 3d d8 f3 0a be 10 3f 1a 3e
       -0.028713232 0.12131423 -0.13569582 0.15063119
000260 0e 54 22 3e 62 02 fb bc f4 5e 11 3d f8 1b eb bc
       0.15852377 -0.030640785 0.035490945 -0.02869986
000270 b8 93 96 3c 2e 84 3e 3c 8d 40 8e 3d 3f 02 90 3d
       0.018380985 0.011628194 0.06945906 0.070316784
000280 3c 35 dd bd 98 8d d1 bd b0 5c 93 3d 50 92 b5 bd
       -0.10801169 -0.10232085 0.07195413 -0.088657975
000290 39 97 78 3d ea c6 1f bd 52 e6 86 3d 2c b4 9f bd
       0.060691092 -0.03900806 0.06586899 -0.07798037
0002a0 93 08 19 3e 84 e6 14 3e 06 6e 25 3e e1 4f 8d bd
       0.14944677 0.1454106 0.16155252 -0.06900001
0002b0 79 3d 19 be 5a d2 05 3e 85 a4 f3 bc 78 6d 0f bc
       -0.14964856 0.13068524 -0.029741535 -0.008754127
0002c0 8f c9 3c 3e 58 b0 4d 3d 41 d2 25 3e 5d f3 ca 3d
       0.18436264 0.050217003 0.16193487 0.09909699
0002d0 ac e4 e1 bd 36 95 8e bd 32 6a 08 3e b2 bb 49 bd
       -0.11029944 -0.069620535 0.1332176 -0.049251266
0002e0 d9 87 1e 3e 35 99 51 bc 81 8a d6 3d 7b 70 84 bd
       0.1548151 -0.012792875 0.10475636 -0.064667664
0002f0 14 58 cf 3d 49 43 39 3d 89 74 33 3e 53 1a c5 bc
       0.101242214 0.045230184 0.17524923 -0.024060404
000300 d4 6f e5 3d e1 5a 1d 3d 16 e0 ad 3d 87 0e be bd
       0.1120297 0.038416747 0.084900066 -0.092801146
000310 88 da 28 3d ef 22 13 be be a0 83 bc d2 2c 9a bd
       0.041224033 -0.14368795 -0.016067859 -0.0752808
000320 38 4e e2 bd 3d f7 ff 3d 6a 02 b9 bd a6 5f 08 be
       -0.11050075 0.12498329 -0.090336636 -0.13317737
000330 c8 0d 91 3c d0 dc 66 3d 14 4e a0 3d d0 cc 65 bc
       0.017706767 0.056362927 0.07827392 -0.014025882
000340 fc 11 c3 3b e7 d8 87 3d 37 4a b9 3d 8e 4e f9 3d
       0.0059530716 0.06633168 0.090473585 0.12173186
000350 00 c0 0b be fa ae 3d bd 50 5a 1a be 7f ec 50 bd
       -0.13647461 -0.04630945 -0.15073514 -0.05100679
000360 5b 41 10 be aa 17 9d 3c e7 63 b1 bd b8 c7 02 bc
       -0.14087431 0.019176323 -0.08661633 -0.007982187
000370 64 55 be bd bc c3 9e 3d a5 f5 1c 3e f7 79 f7 bb
       -0.09293631 0.07752177 0.15328081 -0.007552381
000380 18 0b e2 bc 76 9e 7b 3d 2d 5b b0 bd 9a e5 9c 3b
       -0.02759318 0.061430417 -0.086111404 0.004788113
000390 00 29 94 3a d6 20 0f 3e a6 c2 a8 3d 8e 34 f8 3c
       0.0011303723 0.1397737 0.08240251 0.030298498
0003a0 30 ce 8b 3d 7b 3d fa 3b cd be 9d 3c 0a 48 75 3d
       0.068264365 0.0076367236 0.01925602 0.059883155
0003b0 a5 c3 03 3d a4 ee 68 bd 8a 19 15 be 51 9c 74 bd
       0.032169003 -0.05686821 -0.14560524 -0.059719387
0003c0 30 1f 7f bd b4 35 31 3d ee 36 b4 3b 93 18 5a bd
       -0.062285602 0.043264106 0.005499712 -0.053246092
0003d0 8d 58 05 3e bc 61 56 bc d8 9e fa 3c 3e 9e c4 3d
       0.1302206 -0.013084825 0.03059332 0.09600495
0003e0 58 ab 6f 3d eb d5 98 3d 46 86 79 bc 9b 21 76 3e
       0.058513016 0.074626766 -0.015229767 0.24036257
0003f0 cf 21 73 3e 30 58 96 bd 1f 48 ec bd e3 b7 3b bd
       0.23743366 -0.07341039 -0.115371935 -0.045829665
