models/tflite/GRU/GRU-Large.tflite (tflite, 138588 bytes, 6 tensors)

arith.constant3 f4 [2, 100]
00000000: 58ff c2be 9523 383f 5b03 3f3e 42a6 de3e
00000010: 6d52 c03e 218a 7d3e 37a4 bf3e 5310 053f
00000020: 88b5 163f 5740 173e 20ae d03e 50d1 e83e
00000030: 9e23 283f 539d 023f 2e04 d9be 8d8a 19bf
00000040: 0bd6 76be 9174 f23e aeb0 0a3f f481 e238
00000050: f710 aebe aee7 f03e 85fb aabe 9395 83bd
00000060: 2f34 12be 9bfd 753d 83d7 dabe 9bfd 9dbe
00000070: 999b fc3e 58d5 973e 2ae9 d6bd 5757 29be
00000080: 4015 67bd b401 e2bc f769 0e3f 8512 d0be
00000090: 6933 6cbd 3a93 7dbd 7320 263f abda 9a3e
000000a0: f358 af3e 45cd aabe 7bae ee3e 1157 2cbe
000000b0: fc7a 8fbe dd47 f23e 2b9d ac3d 0454 673b
000000c0: e403 a3be 1c3d c43e 678e 86be 9ffe 1abf
000000d0: 5d81 02be 18b3 863f de3a 0abf e3bf dc3e
000000e0: 6f67 373c d601 fc3e 0446 1a3f c9a0 bcbe
000000f0: be64 afbd 8280 8bbe 82c8 1b3f bee1 d7bd
00000100: 1b5e d73e 2f58 f53e 509a 9c3e a0c4 06be
00000110: 9967 60be cd56 fb3e d81c dbbe b796 823e
00000120: bca3 7b3e 249c 0c3f 1158 8d3c 755e 933e
00000130: 7824 283f 56a0 583e ee82 98be d2dd 983f
00000140: 98ff 563e 9ea2 443f d2c8 b03e f836 93be
00000150: d490 1abe d1b2 233f ffc4 89be 9e33 083f
00000160: 08f0 343f e7cb debe e44a 9a3e 0a54 cbbe
00000170: aea8 d83c 4417 c03e 8d8d c7be bdfd 113f
00000180: 25c8 463e c9ce 90be 460f ac3e 9dee 903e
00000190: 599a 8b3d d37e 92bf 43a6 cebe cc19 38bf
000001a0: ed0b 46bf 8243 edbe bd7b b8be c7bd a9bd
000001b0: 8c30 84be 1e03 dbbe 49ba 95be 30b4 e2be
000001c0: f23e 5fbf 6106 28bf e4f9 133f 7ad8 093f
000001d0: aef2 543e b9f3 47be d8da 25bf 33f8 9e3c
000001e0: 35c0 cd3e 6a28 e4be 81f5 ea3e f10d e33d
000001f0: 68b5 e43e 7283 b0be 6cff df3e 35fd cfbd
00000200: 7fb1 30bf 7b7b a9be 0838 0ebd 0e88 1b3e
00000210: 67f4 3d3e d56c 8ebd 7548 5cbf 2ad6 be3e
00000220: 0747 9fbe 1844 843d 3ede 10bf e763 e6be
00000230: 36d5 3dbf 0e3a 123e 012d c1be 23b2 173e
00000240: f222 423e 7be6 eebe f955 fa3d 5da0 de3b
00000250: 1887 573e 2401 bebe 5eb1 ee3e 5059 113f
00000260: 79a7 a13e aebd 46bf c46e 063f 48b9 e8bd
00000270: b811 713d 98bb 56be 18ce a8be e4b1 843d
00000280: c58b 89bd 3fcc d63e 19d2 bdbe 19f8 b43e
00000290: 669c cebe dad5 3cbf 9c80 05bf 0cc0 e03d
000002a0: f7a5 753e 1435 74be b918 ef3e f1b0 00bf
000002b0: 7ded cbbe c284 d7be 590c 3e3e e253 97bd
000002c0: 29f4 06bf 5edd f2be b83d 8e3e 185a 73bf
000002d0: 2062 babe c67c 47bf f65c ecbe 6fd7 293e
000002e0: 2680 ab3e 4a37 debe ea66 d03e 7246 e6be
000002f0: 8f61 babe befe 9a3c ca6d 0ebf d8d8 033e
00000300: addb 67bd 5299 3bbe 6e69 f73d d569 c4be
00000310: 7467 e5bc 1de2 b53d 4adf febe 9098 bfbe
-0.38085437 0.71929294 0.18653624 0.4348622 0.37562886 0.24759723 0.37429973 0.51978034
0.58870745 0.14770637 0.40757847 0.45472193 0.6567935 0.5102131 -0.42386 -0.59977037
-0.24105088 0.47354558 0.5417584 0.000108007254 -0.33997318 0.47051758 -0.3339502 -0.064250134
-0.14277719 0.06005631 -0.42742547 -0.30857548 0.49337462 0.29654956 -0.10493691 -0.16537224
-0.05641675 -0.027588703 0.5563044 -0.4063913 -0.057666216 -0.061907984 0.64893264 0.30244955
0.3424755 -0.33359733 0.46617493 -0.16830088 -0.28023517 0.47320452 0.08428415 0.003529788
-0.31838906 0.38327873 -0.2628052 -0.6054477 -0.1274466 1.0523405 -0.53996074 0.43115148
0.011194094 0.4922015 0.60263085 -0.3684142 -0.08564137 -0.2724648 0.60852826 -0.10541104
0.42063984 0.4791884 0.3058648 -0.13160944 -0.2191452 0.4908966 -0.42795444 0.2550561
0.24574178 0.5492575 0.017253907 0.28783002 0.65680647 0.21154913 -0.2978739 1.1942694
0.20995939 0.76810634 0.34528214 -0.28752875 -0.1509431 0.6394473 -0.2690811 0.5320376
0.7067876 -0.4351494 0.30135262 -0.39712554 0.02644762 0.3751775 -0.38975182 0.570278
0.19412287 -0.28282765 0.33605403 0.28307047 0.06816549 -1.1444954 -0.40361223 -0.7191436
-0.7736195 -0.46340567 -0.36031905 -0.0828815 -0.25818288 -0.42775816 -0.29243687 -0.44278097
-0.8720542 -0.65634733 0.5780318 0.5384594 0.207957 -0.19526567 -0.64787054 0.01940546
0.40185705 -0.44562083 0.4589043 0.110866435 0.44669652 -0.34475285 0.4374956 -0.10155717
-0.6902084 -0.3310202 -0.034721404 0.1518862 0.18550263 -0.06954352 -0.8604806 0.3727277
-0.31108877 0.064583 -0.56589115 -0.44998094 -0.7415346 0.14279959 -0.37729648 0.14814048
0.18958643 -0.46660218 0.12223429 0.006794019 0.21047628 -0.37110245 0.46619695 0.56776905
0.31573084 -0.7763318 0.52512765 -0.113634646 0.05885479 -0.20969999 -0.32969737 0.064792424
-0.06716112 0.41952702 -0.37074354 0.35345533 -0.40353698 -0.7376381 -0.5214937 0.1097413
0.23989092 -0.23848373 0.4669855 -0.5026999 -0.39829627 -0.42093474 0.18559398 -0.07389046
-0.5271631 -0.47434515 0.27781463 -0.9505935 -0.36402988 -0.77924764 -0.46164674 0.16586088
0.33496207 -0.43401557 0.40703517 -0.4497562 -0.36402556 0.018920299 -0.55636275 0.12875688
-0.056605984 -0.18320206 0.12080656 -0.38361993 -0.028003432 0.08881018 -0.4977973 -0.37421083

arith.constant4 f4 [2]
00000000: c3c8 2dbd c9c8 2d3d
-0.04242779 0.04242781

arith.constant16 f4 [300, 3]
00000000: 42c1 5cbe aa4a 08be 875f 22be 7512 95be
00000010: b6ce 313f 0bd6 1abf 22d4 f1be 398a d43e
00000020: 80da 953e 7c5b a93d af16 1f3f 75e6 19bf
00000030: 4827 13bf 9cf6 203f 4f39 aebc e157 0bbe
00000040: 76bc 60be 0a18 663f dcdd 553e da17 503f
00000050: 4160 66be eed9 c2be 9655 00be de3b 843e
00000060: 829e d4be 133e ce3d 9b91 3a3f a888 7a3e
00000070: 95e4 5f3f a1d9 b33d 4a69 0b3e 31f9 553f
00000080: 9660 62be 81ce 19bf a45d 8bbd 7a7e 163f
00000090: 72e6 cb3d a5c4 5fbf b575 963f 8abe 8ebe
000000a0: e97f a43e ce41 1dbe a065 f43e 9e06 05bf
000000b0: 8961 a3be f6ef 163f 317c d3be a80d b5be
000000c0: 8195 8cbe 1c7e 35be 81f5 15bd 3cd0 0dbf
000000d0: 8bf8 54be 7da7 443f 8ebb 9abe da4c b93e
000000e0: 18e2 c03b 82de 2e3e 5dcc 343c 515e d8bb
000000f0: faec 893d f393 43bf d455 5cbe 4858 b4be
00000100: 8f04 eebd 911c cf3e 0a72 de3e 4fd5 b2be
00000110: 4db5 a3be 152f 8ebd 24b2 2d3a 043f 29be
00000120: b9a9 90be 7824 d5be 571c 98bc fea9 683e
00000130: 1458 503f cb4f 8abc a0e6 113f cf20 ba3d
00000140: 36b1 0ebf ac8e 95bb f60a 33bf d94e 93bd
00000150: 2a8c febe 85c7 173f f6e0 93be c0ed ed3c
00000160: ce96 00bc 37ab d0be 28fd f2bc 05c1 193e
00000170: fa62 393d 3afc e23d 4203 55bd b8b7 aabd
00000180: 2f14 373c ef62 69bf 8230 4c3c a700 73be
00000190: c549 ae3d 9dd6 393e a1f5 31bf 8ff9 193f
000001a0: d979 9bbe 6c60 ef3c a985 51bf c144 85be
000001b0: 15a5 e4be 06c6 b73c be0f ea3d 31bf fa3d
000001c0: 08ae e33d bde6 a6bd b7c6 ce3b dad2 b13f
000001d0: e392 5abe 63a1 77bf e738 893e 296c 9a3e
000001e0: fac9 12bd 593d 2dbf afdf 2a3f 4fa5 8dbe
000001f0: 2c9b 86be 1ced b93c f528 d9be a4f2 c6ba
00000200: 759c 4abc 7faf 033e 365d 633d c5af e9bd
00000210: 932c 01bd 7069 3ebf fdb5 1abd 89fd fb3d
00000220: bb5f d6be 0db0 783e bd7d 6bbe d55b 413e
00000230: b231 3c3c 2ad8 75bd 42d8 21be 589e e6bd
00000240: 8ee2 54be 145a adbe d185 bdbd bbc3 91be
00000250: 7741 c0bc 3de1 be3d ad02 e93e 0181 d6be
00000260: 9907 9bbe 0fea 363f d4e2 943d 04ec 39bf
00000270: 5108 8abe c642 cdbe 9bdb ba3d 9642 c3bf
00000280: ca45 0e3d e6ab 8a3f d7b0 4abd aac4 ac3e
00000290: 95b8 a5be 91ff 7ebd 7af6 e23e 5999 20be
000002a0: eb93 803d 6462 0abd 8b80 89bd fd2f 6ebf
000002b0: c02d 463e f6e4 ba3e e32a 20bf 4be7 2c3e
000002c0: 8e6f dd3c 52a5 10bd 3d31 26bf 7a40 9abe
000002d0: d662 77bd d627 e93d 32cc 46bd bbc6 93be
000002e0: 3882 54be b2a7 56be b892 943c d2f0 a2be
000002f0: 789a 5a3f c2ad 9fbe 1ab1 b9be 46d9 b8bb
00000300: cbe9 42bf 71ac bf3e 66fa 9c3e 8d84 5bbf
00000310: 8ddb 2a3f ac7f a03d 9e09 e4be 766a 9dbd
00000320: dd30 ec3e 008a 013e c9e7 18be 5a2e 24be
00000330: c48c 28be 2f48 02be 6771 3dbe 3020 c83d
00000340: 57f8 7b3d fa52 8abe c579 a8be 68bd 55be
00000350: af44 57be 8fc4 c03e 9b27 283f 4e73 063d
00000360: a5d0 d03d 8fb5 bebb 1fd7 e1be b0d1 de3d
00000370: 9f97 2d3f 6a81 26be 38d1 82bd 39e2 2bbe
00000380: 818a 6b3d 9a61 00bd 317c 143e c3c8 803e
00000390: 2ef5 16bf 6125 b83e 85a5 503e 58b3 d5be
000003a0: 969f 87bd a59f 0a3e eae2 033e 8d45 6ebf
000003b0: fb6d 19bd 9b31 033f 4969 38bf ce23 f13f
000003c0: 709f 24bf 9879 c33e c9ab e53d 06e6 5abf
000003d0: b8cc 293f c714 44be b506 2fbe de17 613f
000003e0: a6af 16be a527 e3bd 2c98 4ebf 08f4 48bd
000003f0: 7c6f 33be 1549 88be c204 aabd 23cf 56bd
-0.21558097 -0.13309732 -0.15856753 -0.29115644 0.6945604 -0.60482854 -0.47232157 0.41511706
0.29268265 0.082694024 0.6214399 -0.60117275 -0.57481813 0.62876296 -0.021267561 -0.13607742
-0.21946892 0.8988043 0.20885414 0.81286395 -0.22497655 -0.38056892 -0.12532648 0.25826925
-0.41527182 0.100704335 0.72878426 0.24466193 0.87458163 0.08781744 0.13614383 0.8358336
-0.22107157 -0.60080725 -0.0680497 0.5878674 0.09956063 -0.8740943 1.1754671 -0.27879745
0.32128838 -0.15357134 0.47733784 -0.5196322 -0.3191035 0.589599 -0.41305688 -0.3536198
-0.27457812 -0.17723888 -0.036611084 -0.55395865 -0.20797937 0.76818067 -0.30221218 0.36191446
0.0058863275 0.17077067 0.011035052 -0.0066030403 0.06734653 -0.7639763 -0.21517116 -0.35223603
-0.11621963 0.40451482 0.4344638 -0.34928367 -0.3197426 -0.06942574 0.00066259713 -0.16527945
-0.28254488 -0.41629386 -0.018568201 0.22721097 0.81384397 -0.016883751 0.5699253 0.09088289
-0.5573915 -0.004564127 -0.699386 -0.07192773 -0.49716312 0.5928882 -0.2888257 0.029044032
-0.007848455 -0.40755627 -0.02966173 0.15015037 0.045260407 0.11083265 -0.05200506 -0.08335823
0.011174246 -0.91166586 0.012462737 -0.23730718 0.08510164 0.18148275 -0.69515425 0.6014642
-0.303664 0.029220782 -0.81844574 -0.26029018 -0.44657198 0.022433292 0.11428784 0.12243498
0.11117178 -0.081494786 0.0063103097 1.3892472 -0.21345095 -0.9673063 0.26801226 0.30160645
-0.03583715 -0.67671734 0.66747564 -0.27665183 -0.26290262 0.02269607 -0.4241406 -0.0015178514
-0.012366404 0.12859915 0.055508815 -0.114104785 -0.03153665 -0.74379635 -0.037771214 0.12304217
-0.41869912 0.24285908 -0.22997184 0.18882687 0.011486458 -0.060020603 -0.15805152 -0.112606704
-0.20789549 -0.33857787 -0.09254039 -0.28469643 -0.023468716 0.093203045 0.45509854 -0.41895297
-0.30279234 0.71450895 0.072698265 -0.72625756 -0.2695947 -0.40090007 0.09123918 -1.5254695
0.034734525 1.0833709 -0.049485054 0.33743793 -0.32367387 -0.062255446 0.44328672 -0.15683497
0.06278213 -0.03378524 -0.06713971 -0.93041974 0.1935339 0.36502808 -0.6256544 0.16885106
0.027030732 -0.03531391 -0.6491888 -0.30127317 -0.06039699 0.11384551 -0.04853458 -0.28862557
-0.207528 -0.20962408 0.018136367 -0.31824356 0.8539195 -0.31187254 -0.3626793 -0.0056411354
-0.7613799 0.3743625 0.3065979 -0.8574913 0.6674126 0.078368515 -0.44538587 -0.076863214
0.4613103 0.12650299 -0.14932169 -0.16033307 -0.16459948 -0.12722848 -0.18500291 0.09771764
0.061516132 -0.2701643 -0.32905403 -0.20873034 -0.21022294 0.37649962 0.65685433 0.032824807
0.10196046 -0.0058199833 -0.44109437 0.108798385 0.6780948 -0.16260305 -0.063875616 -0.16785516
0.057505134 -0.03134308 0.145005 0.2515317 -0.58967865 0.35966018 0.2037564 -0.4173839
-0.066222355 0.13537462 0.1287953 -0.93074876 -0.0374584 0.51247567 -0.7203565 1.8839052
-0.6430578 0.38178706 0.11214406 -0.8550724 0.66328 -0.19148551 -0.17092402 0.87927043
-0.14715442 -0.11091546 -0.80700946 -0.04906085 -0.17522997 -0.26618257 -0.08301689 -0.052443635

arith.constant17 f4 [300, 100]
00000000: c025 96bd b2ac 1cbd 1079 50bc 86ec 843d
00000010: f825 ce3d c01e ea3c d955 a43d 81e4 9bbc
00000020: 9d4d 013d 9291 f3bd 6a19 17bd 374f 06bc
00000030: f999 493d 0a03 923d 6880 b53c 5688 083e
00000040: b5ad a03c 67c9 ca3d 48c9 f73c d2c3 533c
00000050: 92ed 15bd 5bac 9d3d 423c deba d6ae bebd
00000060: b08f 2ebd 8085 983c 5e19 213d 13d1 823d
00000070: 4047 5ebc 0e7d 6d3d 60d8 ca3c 8d2a 863d
00000080: 7098 3cbb 5c53 903d 4339 60bd 6e92 1a3c
00000090: 2ae1 d8bc f484 9cbd 46ec d5bb 709e 80bd
000000a0: 7e0b 31bd aa7b 7cbc 3541 693d 0e1a 4c3d
000000b0: 75ce 613d e34c b83c 5cab ce3d b99b 963d
000000c0: 5b10 ac3d 3426 063d 9e02 e4bc 6296 9b3c
000000d0: 7453 9ebd 0732 dcbc f5ce a5bd 6987 a73d
000000e0: b3c5 1bbc 40d9 8e3c 7b0e debc 43bb 973d
000000f0: 8eac 6bbd bfe0 28bd 4424 5fbc facc e1bd
00000100: 947f 3a3d cb16 883c 26a6 153e 7256 4bbd
00000110: 1214 88bd d233 7e3c 1740 8e3d 504a 003c
00000120: c657 7e3d 6be7 2c3d 31f2 44bc 9c63 6dbd
00000130: c901 a5bb 2c01 9d3c 5c42 d33c 5664 523c
00000140: 8bc1 cd3c d0f8 723d 4c9c 26bd e480 723d
00000150: 5efc a5bd 079e bd3d 727b f8bc 818c 0dbd
00000160: 64e3 40bd e821 08bd 58de d03b 5bd3 8b3d
00000170: 8c1f eabd a4af 513d d308 2ebd c62f 313d
00000180: e995 f8bd 3c2b cdbd 6993 6dbd a704 d33c
00000190: 0b0c c6bd 0010 b53c 844a aa39 2423 9bbc
000001a0: 4980 1cbd 6612 0cbc 1686 9e3c 0daa 363d
000001b0: cac7 e53c 753d e93d 1a94 e63c c9fe cfbd
000001c0: 17b1 e13b 8ce4 123d 632b 58bd c84f 4cbd
000001d0: cb3b 43bd d2eb 103e ddca 1e3c caf4 8abc
000001e0: c4a1 22bc 5709 8bbd fd81 4d3c 81d3 973d
000001f0: 11d8 d63b 9ee1 923b 7631 d7bc 449c e8bc
00000200: 59ea 0cbd cca0 373d 0692 0fbd 90e4 98bd
00000210: e4a7 35bd a9aa 5ebd b57d 92bd 98dd a6bd
00000220: d6a3 cfbb 59d7 eabc eb0e 06bc eadc 113d
00000230: 1213 053d fe07 203c 624f 083e 0439 1a3d
00000240: 0ac4 9b3d eb19 ad3d 2e58 65bd 1831 f4bd
00000250: 5634 813d a584 d3bc ef26 ddbd 8ba0 063d
00000260: b4a5 57bd ecb5 cb3a ff47 d9bd dea8 d23d
00000270: e903 4abd b880 13bd 378c 483d 632f 10bc
00000280: ed9e 73bd 1e27 f53c 4bbd c43c 9e3c 983b
00000290: 7d38 a73d 33d9 96bd e3b0 033e 6c7e c1ba
000002a0: 9480 45bd 1750 3c3d e0f0 4a3d 133a bbbd
000002b0: 62c8 e53c 7ac5 053d 1eef 1fbd 3489 ff3a
000002c0: defa a3bc d54e 0dbe bc45 f5bc 3142 45bc
000002d0: 4e49 8f3d 27f4 60bd e9cd 67bd 1983 75bd
000002e0: 8026 5dba 530e a8bc f7fb f43c 5a1b 01bd
000002f0: b571 03bc 9e80 0e3c cf9d 4abd 7a26 80bd
00000300: 4ebd cd3d 5648 283d e896 31bd 7cdd e93d
00000310: 22bf 4dbd 2a98 25bc 1c81 223c b513 d03c
00000320: 88a8 e3bd f62c 68bd 804a 44bd a6b1 f53c
00000330: be59 703c 6a4e 6d3c 4923 d53d b656 5a3d
00000340: 6c41 c13d 20ba b43a 087d e1bc b1f2 c2bd
00000350: 2ac8 18bd 4411 d23a 18f5 47bd 7e56 8cbd
00000360: 9ac0 febb 6ac7 e63c b87b e539 1a1e a63d
00000370: d7c7 693d 2535 d4bd ee9c a43d 2d8d 353d
00000380: 1e2e f13c b980 b63d 481e 6d3a 92dd c63d
00000390: 4f3a 8fbd f66e ad3b 0137 84bb e42b 533c
000003a0: 9647 3e3c c319 683d 21d8 403b 8378 c43c
000003b0: 8800 043d 1446 d7bb b107 03bd 5c1a 9a3d
000003c0: 1221 9d3d f0b1 483d f639 123d e00e 1abd
000003d0: cbfc 173e 68ff 48bd b2d0 003e 9ce5 51bd
000003e0: d21e 44bc 5e32 25bd bb75 1f3d 26be e5bd
000003f0: 6ad2 a13d 9e12 57bb 0067 673c 48e7 233d
-0.07331419 -0.038250633 -0.012724176 0.06490426 0.10065836 0.028579116 0.08024187 -0.019029858
0.03156816 -0.11893 -0.03688947 -0.008197597 0.049219105 0.07129486 0.022155955 0.13333258
0.01961408 0.09901696 0.030247346 0.012925105 -0.036603518 0.0769889 -0.0016955214 -0.09310691
-0.0426175 0.018618345 0.039330833 0.06387534 -0.013566792 0.05798059 0.024761379 0.06551085
-0.0028777383 0.070471495 -0.05474211 0.009434326 -0.026474554 -0.07642546 -0.00652841 -0.062802196
-0.04322385 -0.015410343 0.056946952 0.049829535 0.055128533 0.0224976 0.10091278 0.073539205
0.08401557 0.032751277 -0.02783328 0.018992607 -0.07730761 -0.026879324 -0.080961145 0.08180124
-0.009507584 0.017437577 -0.027106514 0.07408764 -0.057537608 -0.04122996 -0.013619486 -0.11025424
0.045531824 0.016612431 0.14614162 -0.049642988 -0.06644453 0.015515285 0.06945818 0.0078302175
0.062095426 0.042212885 -0.012020634 -0.057956323 -0.005035613 0.019165598 0.025788479 0.012841305
0.025116703 0.059319317 -0.0406764 0.05920495 -0.08104776 0.09258657 -0.0303323 -0.034557823
-0.047091857 -0.03323546 0.0063741617 0.06827422 -0.11431798 0.051192895 -0.042488884 0.04325845
-0.12137968 -0.10018012 -0.05800191 0.025759054 -0.09670266 0.022102356 0.00032480445 -0.018937655
-0.03820828 -0.008549308 0.019351047 0.044595767 0.028049368 0.11388675 0.028146792 -0.10156018
0.006887566 0.03586249 -0.05277575 -0.049880773 -0.047664445 0.14152458 0.009691921 -0.016962428
-0.009926263 -0.06788891 0.012543199 0.07413388 0.006556519 0.004482462 -0.026268702 -0.028394826
-0.03440318 0.044831082 -0.03505137 -0.0746547 -0.044349566 -0.054361973 -0.07152883 -0.081477344
-0.0063366694 -0.028667139 -0.008182268 0.03561107 0.03248889 0.0097675305 0.13311532 0.03765203
0.07605751 0.08452209 -0.055992298 -0.119234264 0.063088104 -0.025820086 -0.107984416 0.03286795
-0.05264826 0.0015541888 -0.10609435 0.10286115 -0.049320135 -0.036011428 0.048961844 -0.00880036
-0.059477735 0.02992588 0.024016043 0.004645898 0.08165071 -0.07365646 0.12860446 -0.0014762408
-0.048218325 0.045974817 0.049546123 -0.09141936 0.028049652 0.03265903 -0.0390464 0.0019495846
-0.020017084 -0.13799603 -0.029940479 -0.012039707 0.06996404 -0.05492034 -0.056592856 -0.059939478
-0.0008436218 -0.020514643 0.029905302 -0.031520225 -0.008022715 0.008697657 -0.049466904 -0.06257339
0.10045873 0.04108461 -0.043356806 0.11419198 -0.050231107 -0.0101070795 0.009918477 0.025400022
-0.11116129 -0.056683503 -0.04792261 0.029991936 0.014669834 0.014484027 0.10407121 0.05330535
0.09436306 0.001378838 -0.02752544 -0.09518946 -0.037300266 0.0016026874 -0.048817724 -0.068524346
-0.0077744247 0.02817126 0.0004377046 0.0811121 0.057075348 -0.10361699 0.080377445 0.04432409
0.029440936 0.08911271 0.0009045345 0.0971023 -0.06993543 0.0052927686 -0.0040348773 0.012888882
0.011613747 0.056665193 0.0029425698 0.023983246 0.03222707 -0.0065696333 -0.031989757 0.07524559
0.07672323 0.04899782 0.035699807 -0.037611842 0.14842527 -0.0490717 0.12579611 -0.051244363
-0.011970239 -0.040331237 0.038930636 -0.112179086 0.079014614 -0.0032817493 0.014123678 0.04001549

sequential_9_1/gru_8_1/while/gru_cell_1/Squeeze f4 [300]
00000000: 472f 41be 2303 76bf 25b0 91be ed90 38bf
00000010: 2b14 1bbf fd25 9abe 3ad2 c6be 0257 c9be
00000020: 369c abbe a940 42be 8a90 b2be 7e56 f0be
00000030: 3113 0cbf 94ea efbe 40fc 46be 81e4 50be
00000040: 883d 22bd aa2c b5be 8d3d 0abf a224 243d
00000050: 896a 89bd d371 81be 41c2 4cbe 3d1e 0d3d
00000060: 6ad5 48be 8624 31be 0a83 2ebe d60f 05bd
00000070: ade0 12bf 1dfd f0bd 559e e23c cb53 263d
00000080: 6f33 a1bc f38a 0bbd 86ec 47bf 850d d6bd
00000090: a2da e9bd bbf8 ff3c f400 19bf a5b1 cebe
000000a0: 089f ebbe 16bf 45be 7bc6 c0be 04b5 0a3d
000000b0: 0801 97bd 1887 80be e91f c9bc c67f a83c
000000c0: 8a7a 59be 4863 cebe d30b 64be 828f efbd
000000d0: 8526 33be 5824 75bf 4ca4 adbe 647c 56be
000000e0: 0843 073d f7c8 dabe e600 1dbf 88dc 2ebd
000000f0: 96d5 d23c d96f 1bbe c695 94be 4a8b 0bbe
00000100: 409b 02bf 4cbf 21bf dfc4 b8be f5f0 db3c
00000110: ff77 47be 0566 93be 2f9f 5cbe e3ae b2be
00000120: d701 05be 1783 a6be 800e ec3c f51d e9bd
00000130: d5d4 23bf 1201 9ebe f33d b5bd 26cc 23bf
00000140: cea6 6cbe 5bd2 47bf 1329 9cbe f624 3ebd
00000150: 4a15 3cbe 7afc e9be 7008 86bd 9199 f1be
00000160: 3a0a 0abf 7c3c 3bbe 3bf2 bfbe 8caa 29be
00000170: e091 013d c275 74be 1b05 3bbe 6689 bebe
00000180: 68fb d33a 3e10 59bd 45bc d2be e1dd 9dbe
00000190: 1b54 be3e cd6c 3e3d 73e4 193d bfde 56be
000001a0: 40ae 6b3d 68ef dc3d 041e 82bb 0011 0b3e
000001b0: 464a 8a3d 3a73 993d 2772 32bc 7faa 263d
000001c0: 718c 16be 7d56 533d 09b7 833e ea41 653e
000001d0: 47dc 253e dc68 033d e68d 4c3d 3241 d43d
000001e0: f24e 283b e46e c23d e6ba 053d a0b9 7f3d
000001f0: 7043 c53e 0e8e f43d ece8 04be 28fd c2b9
00000200: c908 6c3d 0858 533d f2fe 0e3d 25dd 963d
00000210: 727c 2d3c 308e a93d 8a7c 103d c917 a3bc
00000220: abdf 8d3d d161 593d 9469 2bbc e7ab c63b
00000230: 2c4e f83b 0044 ca3e c422 e33d 67a9 8d3d
00000240: da83 533d 4909 d53d 1fb8 a73d 9453 003d
00000250: 2f7b b23e 8d85 ed3d 4123 873e 3fba a63e
00000260: 6d47 c63e 2586 70bd ddcd 783e 977e a93d
00000270: fcb5 933d f9e8 963c 7b7e a63d 54c6 6cbd
00000280: e46d 243d 78e5 d23e 4db8 5f3d 5e34 e03e
00000290: 6d71 853c bca7 d63c 93d0 933c 5d06 373d
000002a0: 5abd aa3e a1db 8f3d 3e6e b83e 9586 093e
000002b0: 033c e23d 18fe ea3c 6ec3 5c3d 7d98 6f3d
000002c0: b2f7 593d 2533 eb3d cb8d 74bd e904 38be
000002d0: f743 743d a27a 573d 1b0e a23d d50d 473d
000002e0: c508 b83e 815b 07bd cebe 10bd 921f 983b
000002f0: 2ff7 ef3a 3991 ae3e 9d03 c93c 63f0 b23e
00000300: 44fb c43d f2b6 d13d 3ca1 b83e c069 583c
00000310: c791 013e 53fe 1ebe 82be d43d 046f 143e
00000320: dcbf 9e3e bb61 7e3d 86b9 4c3c 2dde c8bc
00000330: b9a7 4c3d be17 da3d 5ff2 01bd 80b6 1a3e
00000340: 94d5 423d f660 79bd 9fcc 04bd 1c88 1fbd
00000350: 6a11 6cbd 6741 533d 15e9 4ebe 2d32 2fbe
00000360: effc ec3d 15af cb3c adec 363d 56fa 70bd
00000370: 5b2f 6a3d a465 be3d 158a 343d 2273 3ebd
00000380: 0b10 a13e 6135 f1bd ea94 fd3a 97dd 293d
00000390: c682 213d 20d6 5f3c 816e dcbc 2a13 30bd
000003a0: de06 663d 251c f93c 7bad 383d ebdb 373d
000003b0: e462 83bc 668a 1dbd f386 7ebd 324b 40bd
000003c0: b152 dbbc 7a5b a13e 9459 a83d d353 44bd
000003d0: 5c41 963d 4df3 9f3d a80b b23c 7ae2 dcbc
000003e0: 0b2f 923e bb35 be3d 2805 43be a600 85be
000003f0: 0959 ae3e 6208 93bd 4d9f 3c3e 0f5c 56bd
-0.18865691 -0.96098536 -0.284547 -0.7209614 -0.6057765 -0.30107108 -0.38832265 -0.39324194
-0.33517617 -0.18969978 -0.348759 -0.46940988 -0.54716784 -0.46858656 -0.19432163 -0.20399667
-0.039609462 -0.35385638 -0.5400017 0.040074 -0.06709773 -0.25282153 -0.19995977 0.034452666
-0.19612661 -0.17299089 -0.17042175 -0.032485805 -0.5737408 -0.117670275 0.02766339 0.040607255
-0.019677846 -0.03406806 -0.7809528 -0.104517974 -0.11418654 0.031246534 -0.5976708 -0.40369907
-0.4601977 -0.19311175 -0.3765143 0.033864036 -0.073732436 -0.25103068 -0.024551349 0.02056874
-0.21238151 -0.4031012 -0.22270136 -0.11697294 -0.17495163 -0.9575858 -0.3391441 -0.20945889
0.03302291 -0.4273145 -0.61329496 -0.042690784 0.025736611 -0.15179385 -0.29020518 -0.13627353
-0.5101814 -0.6318252 -0.360877 0.026848296 -0.19479369 -0.28788772 -0.21545099 -0.34899053
-0.12988983 -0.3252189 0.028815508 -0.11382667 -0.6399663 -0.30860192 -0.088497065 -0.6398338
-0.23110506 -0.7805535 -0.30500087 -0.046421967 -0.18367496 -0.45700437 -0.06544578 -0.47187474
-0.53921854 -0.18284792 -0.37489495 -0.16568965 0.031633258 -0.23873046 -0.18263666 -0.37214202
0.0016172947 -0.052994005 -0.41159263 -0.30833343 0.37173542 0.04649048 0.03757138 -0.20983408
0.057539225 0.107878506 -0.0039708633 0.13580704 0.06752448 0.07492681 -0.010891474 0.04068994
-0.14702012 0.051596154 0.25725582 0.22388425 0.1619731 0.032082424 0.049940012 0.103639975
0.002568182 0.09493807 0.032648943 0.062432885 0.38528013 0.11941157 -0.12979478 -0.0003719118
0.057625566 0.051597625 0.034911104 0.07366399 0.010588752 0.08279073 0.03527502 -0.019908803
0.06927427 0.0530718 -0.0104621835 0.006062973 0.007577678 0.39505005 0.110906154 0.069170766
0.051639415 0.10402162 0.08189415 0.031329706 0.34859607 0.115977384 0.26394084 0.3256397
0.3872637 -0.05872168 0.2429728 0.08276098 0.07212445 0.018421637 0.08129593 -0.057806328
0.040143862 0.41190696 0.054619122 0.43789953 0.016289437 0.026203029 0.018043792 0.044683803
0.3334759 0.07024313 0.36021608 0.13430245 0.110466026 0.028685614 0.053897314 0.058495034
0.053214736 0.114843644 -0.059705537 -0.17970623 0.05963513 0.052607186 0.07912847 0.048597176
0.3594419 -0.03304625 -0.035338216 0.0046424353 0.0018307919 0.3409517 0.024537856 0.34949026
0.096182376 0.10239972 0.36060512 0.0132088065 0.12653266 -0.15526704 0.10387899 0.14495474
0.31005752 0.06210492 0.012495404 -0.024520004 0.04996464 0.1064906 -0.031725284 0.1510868
0.047566965 -0.060883485 -0.032421704 -0.038948163 -0.057633795 0.051576044 -0.20206101 -0.17108984
0.11571681 0.024863759 0.044659305 -0.05883249 0.057174068 0.0929673 0.044076998 -0.046496518
0.31457552 -0.11777759 0.0019346748 0.04147109 0.039431356 0.013661891 -0.026908161 -0.042987026
0.056158893 0.030408928 0.04508732 0.044887464 -0.016038366 -0.038462065 -0.062140416 -0.04694671
-0.026772829 0.31515104 0.08220211 -0.047931504 0.07336685 0.07810078 0.021734074 -0.026963461
0.28551516 0.09287592 -0.19044936 -0.25977057 0.34052303 -0.07179333 0.18420143 -0.052333888

sequential_9_1/gru_8_1/while/gru_cell_1/Squeeze_1 f4 [300]
00000000: 472f 41be 2303 76bf 25b0 91be ed90 38bf
00000010: 2b14 1bbf fd25 9abe 3ad2 c6be 0257 c9be
00000020: 369c abbe a940 42be 8a90 b2be 7e56 f0be
00000030: 3113 0cbf 94ea efbe 40fc 46be 81e4 50be
00000040: 883d 22bd aa2c b5be 8d3d 0abf a224 243d
00000050: 896a 89bd d371 81be 41c2 4cbe 3d1e 0d3d
00000060: 6ad5 48be 8624 31be 0a83 2ebe d60f 05bd
00000070: ade0 12bf 1dfd f0bd 559e e23c cb53 263d
00000080: 6f33 a1bc f38a 0bbd 86ec 47bf 850d d6bd
00000090: a2da e9bd bbf8 ff3c f400 19bf a5b1 cebe
000000a0: 089f ebbe 16bf 45be 7bc6 c0be 04b5 0a3d
000000b0: 0801 97bd 1887 80be e91f c9bc c67f a83c
000000c0: 8a7a 59be 4863 cebe d30b 64be 828f efbd
000000d0: 8526 33be 5824 75bf 4ca4 adbe 647c 56be
000000e0: 0843 073d f7c8 dabe e600 1dbf 88dc 2ebd
000000f0: 96d5 d23c d96f 1bbe c695 94be 4a8b 0bbe
00000100: 409b 02bf 4cbf 21bf dfc4 b8be f5f0 db3c
00000110: ff77 47be 0566 93be 2f9f 5cbe e3ae b2be
00000120: d701 05be 1783 a6be 800e ec3c f51d e9bd
00000130: d5d4 23bf 1201 9ebe f33d b5bd 26cc 23bf
00000140: cea6 6cbe 5bd2 47bf 1329 9cbe f624 3ebd
00000150: 4a15 3cbe 7afc e9be 7008 86bd 9199 f1be
00000160: 3a0a 0abf 7c3c 3bbe 3bf2 bfbe 8caa 29be
00000170: e091 013d c275 74be 1b05 3bbe 6689 bebe
00000180: 68fb d33a 3e10 59bd 45bc d2be e1dd 9dbe
00000190: 1b54 be3e cd6c 3e3d 73e4 193d bfde 56be
000001a0: 40ae 6b3d 68ef dc3d 041e 82bb 0011 0b3e
000001b0: 464a 8a3d 3a73 993d 2772 32bc 7faa 263d
000001c0: 718c 16be 7d56 533d 09b7 833e ea41 653e
000001d0: 47dc 253e dc68 033d e68d 4c3d 3241 d43d
000001e0: f24e 283b e46e c23d e6ba 053d a0b9 7f3d
000001f0: 7043 c53e 0e8e f43d ece8 04be 28fd c2b9
00000200: c908 6c3d 0858 533d f2fe 0e3d 25dd 963d
00000210: 727c 2d3c 308e a93d 8a7c 103d c917 a3bc
00000220: abdf 8d3d d161 593d 9469 2bbc e7ab c63b
00000230: 2c4e f83b 0044 ca3e c422 e33d 67a9 8d3d
00000240: da83 533d 4909 d53d 1fb8 a73d 9453 003d
00000250: 2f7b b23e 8d85 ed3d 4123 873e 3fba a63e
00000260: 6d47 c63e 2586 70bd ddcd 783e 977e a93d
00000270: fcb5 933d f9e8 963c 7b7e a63d 54c6 6cbd
00000280: e46d 243d 78e5 d23e 4db8 5f3d 5e34 e03e
00000290: 6d71 853c bca7 d63c 93d0 933c 5d06 373d
000002a0: 5abd aa3e a1db 8f3d 3e6e b83e 9586 093e
000002b0: 033c e23d 18fe ea3c 6ec3 5c3d 7d98 6f3d
000002c0: b2f7 593d 2533 eb3d cb8d 74bd e904 38be
000002d0: f743 743d a27a 573d 1b0e a23d d50d 473d
000002e0: c508 b83e 815b 07bd cebe 10bd 921f 983b
000002f0: 2ff7 ef3a 3991 ae3e 9d03 c93c 63f0 b23e
00000300: 44fb c43d f2b6 d13d 3ca1 b83e c069 583c
00000310: c791 013e 53fe 1ebe 82be d43d 046f 143e
00000320: d005 a43e 787b 2a3e d653 693d 9b33 80bc
00000330: 69dd 0c3e e7ed 123e dfd7 b2bd 20e4 503e
00000340: 10b7 a13d 3a90 f6bd 5693 aebd a63e 36bc
00000350: 9765 fb3c a2ec d93d 7473 63be 52c9 4bbe
00000360: 1d98 063e 5384 943d ab76 c43d a371 7cbd
00000370: 4d05 773d 8761 f83d 2c22 aa3d 9030 42bd
00000380: 82dc af3e 69ac 29be 9644 04bc 7ba6 a73d
00000390: 89b4 df3d 4368 c73a 7f6b ddbc a244 32bd
000003a0: 0052 bf3d 4e73 bd3c 9e06 313e a118 283d
000003b0: 52b8 2e3b 76bd 21bd 2597 f3bd f6da 913c
000003c0: 083b db3c f285 bc3e 6ccb f73d 5a1c 47bd
000003d0: aee5 c03d 7b32 f83d b950 d83c bbbb ddbc
000003e0: 4c37 8f3e 644d 223e 8597 78be 3eb9 aebe
000003f0: b0d9 ad3e 2c2d 4b3d 0fa3 803e a4af 50bd
-0.18865691 -0.96098536 -0.284547 -0.7209614 -0.6057765 -0.30107108 -0.38832265 -0.39324194
-0.33517617 -0.18969978 -0.348759 -0.46940988 -0.54716784 -0.46858656 -0.19432163 -0.20399667
-0.039609462 -0.35385638 -0.5400017 0.040074 -0.06709773 -0.25282153 -0.19995977 0.034452666
-0.19612661 -0.17299089 -0.17042175 -0.032485805 -0.5737408 -0.117670275 0.02766339 0.040607255
-0.019677846 -0.03406806 -0.7809528 -0.104517974 -0.11418654 0.031246534 -0.5976708 -0.40369907
-0.4601977 -0.19311175 -0.3765143 0.033864036 -0.073732436 -0.25103068 -0.024551349 0.02056874
-0.21238151 -0.4031012 -0.22270136 -0.11697294 -0.17495163 -0.9575858 -0.3391441 -0.20945889
0.03302291 -0.4273145 -0.61329496 -0.042690784 0.025736611 -0.15179385 -0.29020518 -0.13627353
-0.5101814 -0.6318252 -0.360877 0.026848296 -0.19479369 -0.28788772 -0.21545099 -0.34899053
-0.12988983 -0.3252189 0.028815508 -0.11382667 -0.6399663 -0.30860192 -0.088497065 -0.6398338
-0.23110506 -0.7805535 -0.30500087 -0.046421967 -0.18367496 -0.45700437 -0.06544578 -0.47187474
-0.53921854 -0.18284792 -0.37489495 -0.16568965 0.031633258 -0.23873046 -0.18263666 -0.37214202
0.0016172947 -0.052994005 -0.41159263 -0.30833343 0.37173542 0.04649048 0.03757138 -0.20983408
0.057539225 0.107878506 -0.0039708633 0.13580704 0.06752448 0.07492681 -0.010891474 0.04068994
-0.14702012 0.051596154 0.25725582 0.22388425 0.1619731 0.032082424 0.049940012 0.103639975
0.002568182 0.09493807 0.032648943 0.062432885 0.38528013 0.11941157 -0.12979478 -0.0003719118
0.057625566 0.051597625 0.034911104 0.07366399 0.010588752 0.08279073 0.03527502 -0.019908803
0.06927427 0.0530718 -0.0104621835 0.006062973 0.007577678 0.39505005 0.110906154 0.069170766
0.051639415 0.10402162 0.08189415 0.031329706 0.34859607 0.115977384 0.26394084 0.3256397
0.3872637 -0.05872168 0.2429728 0.08276098 0.07212445 0.018421637 0.08129593 -0.057806328
0.040143862 0.41190696 0.054619122 0.43789953 0.016289437 0.026203029 0.018043792 0.044683803
0.3334759 0.07024313 0.36021608 0.13430245 0.110466026 0.028685614 0.053897314 0.058495034
0.053214736 0.114843644 -0.059705537 -0.17970623 0.05963513 0.052607186 0.07912847 0.048597176
0.3594419 -0.03304625 -0.035338216 0.0046424353 0.0018307919 0.3409517 0.024537856 0.34949026
0.096182376 0.10239972 0.36060512 0.0132088065 0.12653266 -0.15526704 0.10387899 0.14495474
0.32035685 0.16648662 0.056964718 -0.015649607 0.13756336 0.14348565 -0.087325804 0.20399523
0.078962445 -0.12039228 -0.08524196 -0.011123335 0.03068809 0.10640837 -0.2221201 -0.19901016
0.13143964 0.07251801 0.095929466 -0.06163181 0.06030779 0.12127977 0.08307299 -0.047409594
0.34347922 -0.16569676 -0.008072993 0.081860505 0.10923106 0.0015213568 -0.027028797 -0.043522485
0.09341812 0.02312627 0.1728768 0.041039113 0.0026660156 -0.039487325 -0.11894063 0.017804604
0.026761547 0.36820942 0.120993465 -0.048611023 0.09418808 0.121190034 0.026405679 -0.027067056
0.27971876 0.15849835 -0.2427655 -0.34125704 0.33955145 0.049603626 0.25124404 -0.050948754
