models/tflite/GRU/GRU-Bidirectional.tflite (tflite, 89884 bytes, 10 tensors)

arith.constant3 f4 [2, 100]
0	0x3eee9390	0.46596956
1	0x3e2112b5	0.15729792
2	0x3ecd8828	0.4014294
3	0x3d85a9be	0.065265164
4	0x3ec53920	0.38520145
5	0x3ea75544	0.3268224
6	0x3edc399c	0.43012702
7	0xbe409c1d	-0.18809552
8	0x3d840096	0.06445424
9	0xbc4056e0	-0.011739463
10	0x3eab9823	0.3351451
11	0xbe9043b9	-0.28176668
12	0x3e9c8a73	0.30574378
13	0x3e5d15b9	0.21590318
14	0xbe2e235d	-0.17005678
15	0xbda532d1	-0.08066333
16	0x3ef373a0	0.47549152
17	0x3d68daf9	0.056849454
18	0x3e64e878	0.22354305
19	0xbe7e932a	-0.24860826
20	0x3e0ac8be	0.1355314
21	0x3d1e6ca2	0.03867782
22	0xbd83073c	-0.06397864
23	0x3ec68f03	0.38780984
24	0x3daf9ac6	0.085744426
25	0x3eb63858	0.35589862
26	0x3d8d4236	0.06897394
27	0x3abb3ba0	0.0014284737
28	0x3eb772f9	0.35829905
29	0xbe7e149f	-0.24812554
30	0xbe79e245	-0.24402721
31	0xbe848e93	-0.25890025
32	0xbd8d5a70	-0.06902015
33	0x3e75dac9	0.24009241
34	0x3e619cff	0.22032546
35	0x3e16c619	0.14724006
36	0x3e64a03e	0.22326753
37	0x3ee345e0	0.44389248
38	0x3f51483e	0.8175086
39	0x3ea0d10c	0.3140949
40	0x3edf235d	0.43581668
41	0xbe8653b1	-0.26235726
42	0x3ee3c046	0.4448263
43	0xbcbced0e	-0.023062255
44	0xbd34ee0e	-0.04417234
45	0x3ee56dfb	0.4481047
46	0x3e52fec1	0.20604993
47	0xbe137333	-0.14399414
48	0x3eb564a0	0.35428333
49	0x3e1332b0	0.14374804
50	0xbe4f87cc	-0.20266646
51	0x3e8341c1	0.25636104
52	0x3e981ae6	0.29708022
53	0x3eba51a3	0.3639041
54	0xbe76b889	-0.24093832
55	0xbe67b7b6	-0.22628674
56	0xbe9a37e4	-0.30120766
57	0x3e14da2d	0.14536352
58	0xbec06362	-0.37575823
59	0xbe9dbf14	-0.30809844
60	0x3de2abcc	0.11067924
61	0x3e90cbc7	0.2828047
62	0x3ef4a3cc	0.47781217
63	0x3da8d901	0.08244515
64	0x3d26c453	0.040714573
65	0x3f2a6bb5	0.665706
66	0x3ede4115	0.4340903
67	0x3e74f804	0.23922735
68	0x3e634a5a	0.22196332
69	0x3efabada	0.4897068
70	0x3ea49513	0.32144985
71	0x3ee542e2	0.4477759
72	0x3e76909a	0.24078599
73	0xbdd1036d	-0.102057315
74	0x3de6dbe5	0.1127241
75	0x3eae75de	0.340743
76	0x3e7bb1d4	0.24579555
77	0x3e772bac	0.24137753
78	0x3ed5fa8a	0.4179271
79	0x3e37c254	0.17945224
80	0x3e18dd50	0.14928174
81	0xbe986f77	-0.2977254
82	0x3edfcd7d	0.43711463
83	0xbe635729	-0.22201218
84	0x3ec6c7cf	0.38824317
85	0x3e176baa	0.14787164
86	0xbde27056	-0.11056583
87	0xbe9ed354	-0.31020606
88	0xbcca6b49	-0.02470936
89	0x3e9b23eb	0.3030084
90	0x3e5f358d	0.21797772
91	0x3e90ef29	0.28307465
92	0x3e339533	0.17537384
93	0xbe758b5a	-0.2397894
94	0x3e895b94	0.2682768
95	0x3e759001	0.23980714
96	0x3d96259d	0.07331393
97	0x3ec910ce	0.39270633
98	0xbe115dca	-0.14195934
99	0xbe51dbb8	-0.20493972
100	0xbef1f231	-0.4725509
101	0xbee3cf33	-0.44494018
102	0xbe77ec44	-0.24211222
103	0x3eb7d0fd	0.35901633
104	0xbe9def52	-0.3084665
105	0xbec3e2d5	-0.38258997
106	0xbee330e0	-0.44373226
107	0x3e2413c9	0.16023172
108	0xbb95236e	-0.0045513427
109	0xbe899079	-0.26868036
110	0xbe8a58d4	-0.27020895
111	0x3d6bb39f	0.057544347
112	0xbf050aaf	-0.51969427
113	0xbe67e8c5	-0.22647388
114	0x3c61f37f	0.013790964
115	0x3e0730d9	0.13202228
116	0xbdd6ca73	-0.10487833
117	0xbe740f98	-0.23834074
118	0x3e05337c	0.13007921
119	0x3df88353	0.12134423
120	0xbca9d41b	-0.020731023
121	0x3e965656	0.29362744
122	0x3e8c63f2	0.27420002
123	0xbe8112cb	-0.2520965
124	0xbeb7a7c7	-0.3587019
125	0xbed22ce3	-0.4104987
126	0x3e997865	0.29974666
127	0x3d6411ab	0.055680912
128	0xbe7ede64	-0.24889523
129	0x3d430b11	0.047617976
130	0x3e232542	0.15932181
131	0x3ebf7118	0.3739097
132	0x3c9f73ab	0.019464334
133	0xbf2bf955	-0.67177325
134	0xbf01b432	-0.5066558
135	0xbe699d0e	-0.22813818
136	0xbe4e1a48	-0.20127213
137	0xbeca426e	-0.39503807
138	0xbf7e30c9	-0.9929319
139	0xbec98ab3	-0.39363632
140	0xbf0746b7	-0.5284228
141	0xbdf48c3e	-0.119408116
142	0xbe87960d	-0.26481667
143	0x3e78ebd4	0.24308711
144	0x3e0debae	0.13859436
145	0xbd9770d1	-0.07394565
146	0x3d7e63f0	0.062107027
147	0xbcf99772	-0.030467723
148	0xbec8d9d5	-0.39228693
149	0xbe90da67	-0.28291628
150	0x3e3df5f0	0.18550849
151	0xbec5928c	-0.3858837
152	0xbeb22d43	-0.34800157
153	0xbe9f875e	-0.31157964
154	0x3d8ed61a	0.069744304
155	0x3e91eb71	0.2849994
156	0x3e8cace3	0.27475652
157	0x3e32c76c	0.17458886
158	0x3d906de3	0.07052209
159	0x3e9efa6e	0.31050438
160	0xbea90851	-0.33014157
161	0xbdcceb6f	-0.10005843
162	0xbec098c8	-0.37616563
163	0xbf094963	-0.53627604
164	0xbe925d62	-0.2858687
165	0xbe9e43c2	-0.3091107
166	0xbedf2f55	-0.435908
167	0x3dac86ba	0.084241346
168	0xbe6e9339	-0.23298348
169	0xbeeffbc9	-0.46871784
170	0xbee58ae3	-0.44832525
171	0xbef8a219	-0.4856117
172	0xbce5bc35	-0.028043846
173	0x3e1474a9	0.14497627
174	0xbdaf3093	-0.08554187
175	0xbeb7d91b	-0.35907826
176	0xbeaae446	-0.33377284
177	0xbefdf573	-0.49601325
178	0xbee0b535	-0.4388825
179	0x3dda6132	0.1066307
180	0x3d8e3bd0	0.06945002
181	0xbd2b5952	-0.04183323
182	0xbee036c3	-0.4379178
183	0x3e57f9a3	0.21091323
184	0xbec71a12	-0.38887078
185	0x3d3a0c62	0.045421965
186	0x3e7c161e	0.24617812
187	0x3dbf7737	0.0934891
188	0xbd108479	-0.035282586
189	0xbe5de0c1	-0.21667768
190	0xbd161ef2	-0.036650605
191	0xbf07618a	-0.5288321
192	0xbe700ef0	-0.23443198
193	0x3e5d08cb	0.21585386
194	0xbbf73f7f	-0.007545411
195	0x3d244eb0	0.040114105
196	0xbe4c8e8c	-0.19976252
197	0xbebc8ca4	-0.3682605
198	0x3ea6d2d9	0.3258274
199	0x3e48c292	0.19605473

arith.constant4 f4 [2]
0	0x3c9a3c8b	0.018827697
1	0xbc9a3c8e	-0.018827703

arith.constant18 f4 [150, 3]
0	0x3e7b780f	0.24557517
1	0x3d8dfda3	0.06933143
2	0x3d221c8e	0.039578013
3	0xbed66800	-0.4187622
4	0xbe09bad5	-0.13450177
5	0x3e73d453	0.23811464
6	0xbf018c90	-0.50605106
7	0x3d9b7bae	0.075919494
8	0x3d230682	0.03980113
9	0xbf04ed09	-0.51924187
10	0xbd2561a9	-0.04037634
11	0x3f20d834	0.628299
12	0x3e286452	0.16444519
13	0xbf1a97c0	-0.603878
14	0xbcedefc7	-0.029044999
15	0x3e1ed454	0.15510684
16	0xbf09f28b	-0.53885716
17	0xbde4de5f	-0.111752264
18	0x3e4592b9	0.19294252
19	0x3e2a1ed6	0.16613325
20	0xbe4a9d69	-0.1978661
21	0x3cc20710	0.023685008
22	0xbe25f16e	-0.1620538
23	0x3e0ae20e	0.13562796
24	0xbd9a4d46	-0.0753427
25	0xbe2a0b6d	-0.16605921
26	0xbe0ad1bc	-0.1355657
27	0x3d933350	0.071875215
28	0xbdfae638	-0.12250942
29	0xbc6566b9	-0.014001542
30	0xbf249de4	-0.6430342
31	0x3e501197	0.2031921
32	0x3dbe928e	0.09305297
33	0xbf1b1946	-0.6058544
34	0x3eb54506	0.35404223
35	0x3e962fc8	0.2933333
36	0xbdba9c59	-0.09111852
37	0x3c6d17af	0.014470979
38	0x3f37f75c	0.71861815
39	0xbebf4994	-0.37360823
40	0x3e156174	0.14587957
41	0xbefb38bd	-0.49066725
42	0xbcf6e282	-0.030137304
43	0x3ecc2cb4	0.39877856
44	0x3d37ef78	0.04490611
45	0xbf85a38c	-1.0440536
46	0x3f12a774	0.57286763
47	0xbe87b167	-0.26502535
48	0x3eaffa9f	0.34370896
49	0xbf08f6e0	-0.535017
50	0x3ec465d3	0.38358936
51	0xbed0f9fc	-0.40815723
52	0x3c891ece	0.016738322
53	0x3e4f2c30	0.202317
54	0x3c4ee66c	0.012628179
55	0x3e1a28f4	0.15054685
56	0x3db6cf5e	0.08926271
57	0xbd0d2c6a	-0.034466185
58	0xbec1ea2f	-0.3787398
59	0x3ef2b431	0.474031
60	0x3d9411c6	0.072299525
61	0xbefa6a24	-0.48909104
62	0x3f1b58ed	0.60682565
63	0xbef67c26	-0.48141593
64	0x3e3708a9	0.17874397
65	0x3d937471	0.07199944
66	0xbe3fbae3	-0.18723635
67	0x3d021070	0.031753957
68	0xbe343c04	-0.17601019
69	0xbd7a1204	-0.061052337
70	0x3e1bc39d	0.1521134
71	0xbe0b4651	-0.13601042
72	0x3e854e85	0.26036468
73	0xbe850eed	-0.2598795
74	0x3e2c8370	0.16847014
75	0xbe35116d	-0.17682429
76	0x3e081817	0.1329044
77	0xbdb8679c	-0.09004137
78	0xbe39f00e	-0.1815798
79	0xbeb6639c	-0.3562287
80	0x3eef42b6	0.46730584
81	0xbe632d01	-0.22185136
82	0xbdae00b3	-0.08496227
83	0x3d86c294	0.065800816
84	0xbe38dcef	-0.1805303
85	0xbee35664	-0.44401848
86	0x3f021716	0.50816476
87	0xbe83c213	-0.25734004
88	0x3e4f75ec	0.20259827
89	0x3d0a7796	0.033805452
90	0x3ced78e4	0.02898831
91	0x3e7f0dca	0.24907604
92	0xbe0d6fe0	-0.13812208
93	0x3e5f7beb	0.21824615
94	0xbebf30af	-0.3734183
95	0xbdfd04b8	-0.12354416
96	0xbe7f79a4	-0.24948746
97	0xbc0219ac	-0.007940691
98	0xbe922b9d	-0.285489
99	0xbe096a65	-0.13419493
100	0xbeafecb8	-0.3436029
101	0xbe752f4e	-0.23943827
102	0xbe45c9d0	-0.19315267
103	0xbe5895e6	-0.21150932
104	0x3e95159f	0.29118058
105	0xbdc75da6	-0.09734659
106	0x3e8a1a7a	0.26973325
107	0x3e054ba8	0.13017142
108	0xbdacdbea	-0.08440383
109	0xbe862a85	-0.26204315
110	0x3c6ee7a3	0.014581594
111	0x3e15a10f	0.1461222
112	0x3d67ffd3	0.056640457
113	0xbe639f9f	-0.2222886
114	0xbda7335e	-0.081640944
115	0xbd7b25f9	-0.06131551
116	0x3d804df6	0.0626487
117	0x3ea05e23	0.3132182
118	0x3ec342c7	0.38136885
119	0x3d6cdbd2	0.057826824
120	0x3cb5e8b1	0.022205682
121	0xbd4444c5	-0.047917146
122	0xbe998806	-0.2998659
123	0xbf30baa5	-0.69034797
124	0x3d995b1d	0.074880816
125	0xbc3b0399	-0.011414432
126	0xbee3f3fd	-0.44522086
127	0x3e01402d	0.12622137
128	0x3e0d8298	0.13819349
129	0x3e62b965	0.22141035
130	0xbeba2603	-0.36357126
131	0x3d080a02	0.03321267
132	0xbdc9e1c2	-0.09857513
133	0x3e03af6a	0.12859884
134	0xbe5f5710	-0.21810555
135	0x3e98e307	0.29860708
136	0x3ba2603c	0.0049553197
137	0x3e1211f9	0.14264669
138	0x3e21c52c	0.15797871
139	0x3e3f5a45	0.18686779
140	0x3cd82dcf	0.02638903
141	0xbefe2602	-0.49638373
142	0x3dde8236	0.108646795
143	0x3d90c166	0.07068138
144	0x3d1b38cc	0.037895963
145	0xbe96fb41	-0.29488567
146	0xbe1f677b	-0.15566818
147	0xbe2767b4	-0.16348153
148	0xbeb0d323	-0.34536085
149	0xbe15be30	-0.14623332
150	0x3d6cffc0	0.05786109
151	0xb9eff334	-0.00045766833
152	0xbd9bd509	-0.076089926
153	0x3f0af3a5	0.5427802
154	0x3e52e52f	0.20595239
155	0x3c900b4c	0.017583512
156	0x3f33189b	0.6995942
157	0xbe0a8d4b	-0.13530461
158	0x3d9bf33b	0.07614752
159	0x3f10eb49	0.56609017
160	0xbddea93e	-0.10872124
161	0xbe928ca8	-0.28622937
162	0x3eb3550e	0.3502583
163	0x3e701cf0	0.23448539
164	0x3e2e5336	0.1702393
165	0xbd2e801e	-0.04260265
166	0x3ef1aae0	0.4720068
167	0xbd9db3a4	-0.07700279
168	0x3c9aebe0	0.018911302
169	0x3dfe8e33	0.12429466
170	0xbe9a619c	-0.30152595
171	0xbd76aae4	-0.060221568
172	0x3c9304c7	0.017946614
173	0xbe44ec23	-0.19230704
174	0x3d1a5b1e	0.037684552
175	0x3d44061a	0.04785738
176	0xbd053bf5	-0.032527883
177	0x3ec76dfe	0.38951105
178	0xbdb4eaed	-0.08833871
179	0xbe984d10	-0.29746294
180	0x3ea1ef7b	0.31628022
181	0xbdae4259	-0.085087486
182	0x3d08bef5	0.033385236
183	0x3eb75795	0.35809007
184	0xbe02fcb5	-0.12791713
185	0xbd8b0137	-0.06787341
186	0x3e9a51bf	0.30140492
187	0x3e257616	0.16158327
188	0xbeb5aae5	-0.35481945
189	0x3e2146d9	0.15749682
190	0xbe9983eb	-0.29983458
191	0x3dbe5e8e	0.092953786
192	0xbe3a6f76	-0.18206581
193	0x3c099a4a	0.008398602
194	0xbe282428	-0.16420043
195	0x3f539e21	0.8266316
196	0xbeb9be07	-0.36277792
197	0x3ed2a845	0.41144004
198	0x3e75c125	0.2399946
199	0x3dbc30c6	0.0918899
200	0x3e484925	0.19559152
201	0x3ecff810	0.40618944
202	0xbda634b1	-0.08115519
203	0xbda61440	-0.08109331
204	0xbe22aae1	-0.15885498
205	0x3e0cd00c	0.13751239
206	0x3dab13c9	0.08353383
207	0x3cbe28e5	0.02321286
208	0x3e13ae2f	0.14421915
209	0xbe95db08	-0.2926867
210	0x3dcb40ed	0.09924493
211	0x3d8b72d8	0.06809014
212	0xbec8021b	-0.39064106
213	0x3f62284c	0.8834274
214	0xbdcc3e89	-0.09972865
215	0x3cad4321	0.021150174
216	0x3df7e317	0.12103861
217	0x3cbdfc55	0.02319161
218	0x3e232dc3	0.15935425
219	0x3e0ecd64	0.13945538
220	0xbe24c3b9	-0.16090287
221	0xbd21f127	-0.03953662
222	0x3e0f1fa1	0.13976909
223	0xbd91e376	-0.07123463
224	0x3e86429b	0.2622269
225	0x3e9df64b	0.3085197
226	0x3c90d0a8	0.01767762
227	0xbdb50f99	-0.08840866
228	0x3ecaf624	0.39640915
229	0xbcd67e6f	-0.026183335
230	0xbe96b158	-0.29432178
231	0x3f396bcb	0.72430104
232	0xbdb0b667	-0.086285405
233	0xbe32b50b	-0.17451875
234	0x3d1a5d6b	0.037686747
235	0x3e3fad4d	0.18718453
236	0xbeebd8b5	-0.46063772
237	0x3e288758	0.1645788
238	0xbbbf2481	-0.005833209
239	0xbe069e05	-0.13146217
240	0x3da56c17	0.08077257
241	0x3d9e82d0	0.07739794
242	0xbe01116e	-0.12604305
243	0x3eb3627a	0.3503607
244	0xbe432f48	-0.19061005
245	0xbdade9f4	-0.08491889
246	0x3e6b1aab	0.22959392
247	0xbdcee635	-0.10102502
248	0x3e4ce5c6	0.20009527
249	0x3ea48361	0.32131484
250	0x3d45b6ad	0.048269916
251	0xbe74bf74	-0.23901159
252	0x3ef3644c	0.47537458
253	0x3e31c11a	0.17358819
254	0xbe0c198d	-0.13681622
255	0xbe120bbe	-0.14262292

arith.constant19 f4 [150, 50]
0	0xbceaf140	-0.02867949
1	0xbc9e87d2	-0.019351874
2	0xbcc6902b	-0.024238667
3	0xbda2843c	-0.07935378
4	0xbe48885a	-0.19583264
5	0x3da97f95	0.082762875
6	0xbd802e31	-0.0625881
7	0x3d84521f	0.06460976
8	0x3e1cdff0	0.153198
9	0x3ca1e791	0.01976374
10	0x3d3ff581	0.04686499
11	0xbd8f59aa	-0.06999524
12	0xbda76b95	-0.081748165
13	0x3d85cfba	0.06533761
14	0x3b9e4f60	0.0048312396
15	0x3d57735f	0.05260026
16	0x3dc98a92	0.09840883
17	0xbe12c5dc	-0.1433329
18	0x3da50246	0.08057074
19	0x3dcfd5d4	0.10148206
20	0x3de8de8e	0.11370574
21	0xbb49fb60	-0.0030819997
22	0xbd034c20	-0.03205502
23	0xbddccd9f	-0.107814066
24	0xbc849aee	-0.016187157
25	0x3d21bdb3	0.039487552
26	0x3b959520	0.004564896
27	0x3cf998d8	0.03046839
28	0xbd68aa12	-0.056802817
29	0x3d9d7e8b	0.07690152
30	0xbdedbb1e	-0.116079554
31	0x3c8ee7c2	0.017444495
32	0x3dc85178	0.09781164
33	0xbba9070e	-0.0051583117
34	0xbc00c05e	-0.007858364
35	0xbdb582a3	-0.088628076
36	0xbdafb0e8	-0.08578664
37	0xbca86b50	-0.020558983
38	0xbc87f41c	-0.016595893
39	0x3b4ac160	0.0030938014
40	0x3b7de280	0.003873974
41	0x3c36b1f4	0.011150826
42	0xbc9a0a22	-0.01880366
43	0x3c7f3a18	0.0155778155
44	0xbc95f72b	-0.018306335
45	0xbd15ed25	-0.03660311
46	0xbd6b06e1	-0.057379607
47	0x3d827c10	0.06371319
48	0xbd108e57	-0.035291996
49	0x3be305c8	0.0069281794
50	0x3d90fd77	0.070795946
51	0x3c63d500	0.013905764
52	0xbe0802c1	-0.132823
53	0x3e21f4fb	0.15816109
54	0x3d5010b2	0.050797172
55	0x3d9f2078	0.07769865
56	0x3e23a796	0.15981898
57	0x3cab6777	0.02092336
58	0x3cce8bf6	0.025213223
59	0x3dbbe771	0.09175003
60	0x3c8abba8	0.016935185
61	0xbbcb7693	-0.0062092035
62	0x3d1facfb	0.038983326
63	0xbdb72f14	-0.08944526
64	0xbd4a58b5	-0.049401004
65	0x3d57fea5	0.052733082
66	0x3bf6d10d	0.007532245
67	0x3d84bffb	0.0648193
68	0x3dceb5ed	0.10093293
69	0x3e0415a7	0.12898885
70	0xbd8ee3a6	-0.06977014
71	0xbda57301	-0.08078576
72	0xbe073e16	-0.13207278
73	0x3d1c7168	0.03819409
74	0x3d978749	0.073988505
75	0xbd8bc269	-0.0682419
76	0x3db201b7	0.08691733
77	0x3d9a6d33	0.07540359
78	0xbdb16909	-0.08662612
79	0x3ceb340f	0.028711347
80	0xbcb31fed	-0.02186581
81	0x3d0a07df	0.033698913
82	0x3d9e5439	0.07730908
83	0x3da09ce1	0.07842422
84	0xbd8827fb	-0.06648251
85	0xbc8ccf70	-0.017188758
86	0xbd8723ac	-0.06598601
87	0x3d732a69	0.059366617
88	0xbdb3ab68	-0.087729275
89	0xbdcde442	-0.10053302
90	0xbdbed371	-0.09317673
91	0x3d3c1bd7	0.045924988
92	0xbe25c28d	-0.16187496
93	0x3d1c6088	0.038177997
94	0x3cdd397a	0.027004946
95	0xbd590267	-0.052980807
96	0xbd58f52c	-0.05296819
97	0x3c296504	0.010339025
98	0x3d979c5e	0.074028715
99	0x3df97326	0.12180166
100	0x3c100d5f	0.00879225
101	0x3d681c61	0.05666769
102	0xbe2af148	-0.16693604
103	0xbd93c3c2	-0.07215072
104	0x3dca2727	0.09870749
105	0xbdd0fb57	-0.10204189
106	0x3b0bce28	0.0021332595
107	0x3c057c6f	0.008147343
108	0x3d487fab	0.04894988
109	0x3cb991ee	0.022652593
110	0x3d39650e	0.04526239
111	0x3d32a97f	0.043618675
112	0x3c2f66e4	0.010705683
113	0x3bf72805	0.0075426125
114	0x3cc61595	0.024180213
115	0x3ddee96e	0.10884367
116	0xbc93955f	-0.018015562
117	0x3d8a7a96	0.06761663
118	0xbc44f93b	-0.012022312
119	0x3ca99ae6	0.020703744
120	0xbd92785e	-0.071518645
121	0xbc8eb337	-0.01741944
122	0x3db3a1e0	0.087711096
123	0x3d3a297f	0.04544973
124	0xbd64e38c	-0.055881068
125	0xbd835a7c	-0.06413743
126	0xbd9135eb	-0.07090362
127	0x3dfd52c0	0.12369299
128	0x3db727fc	0.08943173
129	0x3d34610d	0.044037867
130	0x3da1186d	0.07865987
131	0xbd3388cd	-0.043831635
132	0xbdabc849	-0.08387811
133	0xbabf7434	-0.0014606775
134	0x3bfbfe42	0.007690222
135	0xbd99af78	-0.07504171
136	0xbd295ebb	-0.041350108
137	0xbe0a17d9	-0.1348566
138	0xbcb452bc	-0.022012107
139	0xbd73bcb0	-0.05950612
140	0xbcada6e1	-0.021197738
141	0x3dcaf71a	0.09910412
142	0xbd6e382a	-0.05815903
143	0xbd207882	-0.039177425
144	0xbd5da8e1	-0.054116134
145	0xbc5a3fef	-0.013320907
146	0xbd1de746	-0.038550638
147	0x3c9795ba	0.018504012
148	0xbc1b2aca	-0.009470651
149	0xbe018bcc	-0.12650985
150	0x3e354433	0.17701797
151	0xb7039e00	-7.844996e-06
152	0x3dffea31	0.1249584
153	0x3da07530	0.07834852
154	0xbd33e4eb	-0.043919485
155	0xbcb703ee	-0.022340741
156	0xbe1c95b3	-0.1529148
157	0x3cc0ef9f	0.02355176
158	0xbd0f0a3c	-0.03492187
159	0xbdf07748	-0.11741501
160	0x3d6fe7a7	0.05857053
161	0xbe42a68f	-0.1900885
162	0x3b772350	0.0037710257
163	0x3e62677f	0.22109793
164	0x3c95e7eb	0.018299064
165	0xbd9d4ff2	-0.07681264
166	0xbd4ef2cf	-0.05052453
167	0x3dbf6f54	0.09347406
168	0xbdb5cfde	-0.08877538
169	0x3c9d4066	0.019195747
170	0xbdfbc9c6	-0.122943446
171	0xbd2d9cfb	-0.042386036
172	0x3d8ec59b	0.06971284
173	0xbdbcdeb1	-0.092221625
174	0xbd4870da	-0.04893575
175	0xbcd7c2fe	-0.026338097
176	0x3bbcc35c	0.0057605933
177	0xbd7caa14	-0.061685637
178	0xbda86f7e	-0.082243904
179	0xbca126d0	-0.019671828
180	0x3d667c3e	0.05627083
181	0x3d723e49	0.05914143
182	0x3e0a133e	0.13483903
183	0xbd98e787	-0.07466035
184	0xbd262378	-0.04056117
185	0x3a6fe920	0.0009151865
186	0x3d17f957	0.037103023
187	0xbd4ba728	-0.04971996
188	0xbd0193ae	-0.03163498
189	0x3de5b265	0.11215667
190	0xbd8ffd8a	-0.070307806
191	0x3d0be0f1	0.034150068
192	0x3de2b168	0.11068994
193	0xbd495453	-0.049152683
194	0xbc269de1	-0.010169477
195	0x3e0be3aa	0.13661066
196	0x3b039a38	0.0020080935
197	0x3e0c38a1	0.13693477
198	0xbcef96ac	-0.02924665
199	0xbdf2c147	-0.11853271
200	0x3cbb9de9	0.022902446
201	0x3dfde933	0.12397995
202	0x3e1b7c14	0.15184051
203	0x3d9b2bd6	0.075767204
204	0x3d8e6620	0.069530725
205	0x3dcf917c	0.10135171
206	0x3d4ce281	0.0500207
207	0x3d7333d4	0.0593756
208	0x3b7e8888	0.0038838703
209	0x3e08a24b	0.1334316
210	0x3bac1d11	0.0052524884
211	0x3e1a4df1	0.15068795
212	0xbd74fb9a	-0.05981026
213	0xbe06d4fc	-0.13167185
214	0xbceb7208	-0.028740898
215	0xbdcff4be	-0.10154103
216	0xbd6e9cb0	-0.058254898
217	0xbd7c7942	-0.061639078
218	0xbe1b2f91	-0.15154864
219	0xbca4a924	-0.020100184
220	0x3c77921a	0.015110517
221	0xbbe9c03e	-0.0071335128
222	0x3dee9f6e	0.116515025
223	0xbd2a793e	-0.04161953
224	0x3d1f77f4	0.038932756
225	0xbdbb08c7	-0.091325335
226	0xbb74d0d8	-0.0037355926
227	0xbd093e0d	-0.03350644
228	0x3e496230	0.19666362
229	0x3e2aa063	0.16662745
230	0xbd002c2a	-0.031292118
231	0xbde81767	-0.11332589
232	0x3cf23ba0	0.029569447
233	0xbd499e58	-0.049223274
234	0x3d8149af	0.06312882
235	0x3c2abcd5	0.010420998
236	0xbc799d2b	-0.015235226
237	0xbd6a9e20	-0.057279706
238	0x3e03b11a	0.12860528
239	0x3dc16cfc	0.09444615
240	0x3de65fa6	0.11248712
241	0xbe1901cb	-0.1494209
242	0x3e4b6947	0.19864379
243	0xbde07193	-0.109591626
244	0x3ddbe376	0.10736744
245	0x3d7a44bf	0.061100718
246	0x3c7ac4bf	0.015305697
247	0xbd442972	-0.047891088
248	0x3c630faf	0.01385872
249	0xbd56eb2e	-0.05247038
250	0xbd8d6526	-0.06904058
251	0x3de80ce1	0.113305815
252	0xbd1289b8	-0.03577587
253	0xbce8da17	-0.028424306
254	0x396a2c40	0.00022332463
255	0x3c528c80	0.012850881

sequential_8_1/bidirectional_1_1/backward_gru_7_1/while/gru_cell_1/Squeeze f4 [150]
0	0x3b071fe8	0.0020618383
1	0xbe8ff6c8	-0.28117967
2	0xbed62d30	-0.4183135
3	0xbe82806b	-0.254886
4	0xbdbc85c2	-0.092052
5	0xbd6f67f8	-0.05844876
6	0xbe6b4811	-0.2297671
7	0x3d084433	0.033268165
8	0xbe4803f3	-0.19532757
9	0xbde9bbed	-0.11412797
10	0xbe42041c	-0.1894688
11	0xbe4ea83f	-0.20181368
12	0xbe6d8562	-0.23195413
13	0xbe949481	-0.2901955
14	0xbd5caa2a	-0.05387322
15	0xbf18b990	-0.59658146
16	0xbee8a84d	-0.45440903
17	0xbd6cdd40	-0.057828188
18	0xbca9592b	-0.020672401
19	0xbe84c5e7	-0.25932238
20	0xbe992a45	-0.29915062
21	0xbeceb8e9	-0.4037545
22	0xbd56f6b4	-0.05248137
23	0x3d11173f	0.03542256
24	0xbd1bec22	-0.03806699
25	0xbe5ab032	-0.21356276
26	0xbe53ffc8	-0.20703042
27	0xbeb91168	-0.36146092
28	0xbe83cf75	-0.25744215
29	0x3d78d060	0.060745597
30	0x3d09afa1	0.03361476
31	0xbd8ae005	-0.067810096
32	0xbe44dabe	-0.19224069
33	0xbda12515	-0.07868401
34	0xbe84b932	-0.25922543
35	0x3d03a82c	0.032142803
36	0xbde22a48	-0.11043221
37	0xbe287413	-0.16450529
38	0x3d164d58	0.036694854
39	0xbe2005b9	-0.15627183
40	0xbdb5e738	-0.08881992
41	0xbeb9f393	-0.36318645
42	0xbd9ce2c4	-0.076604396
43	0xbdb7d2b2	-0.08975734
44	0xbdcf085f	-0.101090185
45	0xbd30c4c6	-0.043156408
46	0xbde0e113	-0.109804295
47	0xbe07fe98	-0.13280714
48	0xbda45af3	-0.0802516
49	0xbde9fd24	-0.11425236
50	0x3deb6dc3	0.11495545
51	0x3e1948e8	0.14969218
52	0x3e3d3e27	0.1848074
53	0x3d8d4453	0.068977974
54	0xbd030bab	-0.03199355
55	0x3cb5e18f	0.022202281
56	0x3e581a8e	0.2110388
57	0x3d8bae4a	0.068203524
58	0x3e69063e	0.22756287
59	0x3e3a02ae	0.18165085
60	0x3d84a659	0.06477041
61	0x3d5bece9	0.053692732
62	0x3dace931	0.08442915
63	0x3d61bcfa	0.055111863
64	0x3d55b61a	0.05217562
65	0x3d4c1b88	0.049830943
66	0xbd2c8b47	-0.042125013
67	0x3d9a8d38	0.075464666
68	0x3d3d7b95	0.046260435
69	0xbbd16942	-0.0063907215
70	0x3ccd6b94	0.025075711
71	0x3ddaefac	0.10690245
72	0x3dc0f4bc	0.094216794
73	0x3d814cf3	0.06313505
74	0x3c0e7b80	0.008696437
75	0x3d8b52b4	0.06802884
76	0x3d232272	0.03982777
77	0x3dd95a67	0.10612946
78	0x3cbac867	0.022800637
79	0x3dad06bb	0.08448549
80	0x3ce4c653	0.0279266
81	0xbd46e7a9	-0.048560772
82	0x3d8796b7	0.066205435
83	0xbb46544a	-0.0030262643
84	0x3e09fa01	0.13474275
85	0x3d0b4eec	0.034010813
86	0x3e73950c	0.23787326
87	0x3e238d92	0.15971974
88	0x3e094007	0.1340333
89	0x3dca3275	0.09872905
90	0x3dd2763c	0.10276458
91	0x3dd0bc91	0.10192216
92	0x3d918ce7	0.07106953
93	0xbd63cf7b	-0.05561779
94	0x3ddfb785	0.109236754
95	0x3d69473e	0.056952707
96	0x3c245a57	0.010031304
97	0x3cdd6757	0.027026815
98	0x3b1be968	0.0023790244
99	0x3e7c772c	0.24654835
100	0xbd9b812b	-0.07592996
101	0x3dd49c95	0.10381428
102	0x3e1e8d41	0.15483572
103	0x3d4f472e	0.05060499
104	0x3cccef96	0.025016587
105	0x3cd51db8	0.026015148
106	0x3e4a0a0f	0.197304
107	0xbd3ee91d	-0.046609033
108	0x3e4a454c	0.19752997
109	0x3e25d052	0.16192749
110	0xbc5b7c30	-0.013396308
111	0xbba23f02	-0.004951359
112	0x3d70df77	0.058806863
113	0x3cb0e640	0.021594167
114	0xbd58d082	-0.052933224
115	0x3d6493e7	0.055805113
116	0xbd109997	-0.035302725
117	0x3d6a3c33	0.057186317
118	0xbd367e47	-0.04455402
119	0xbcc2cef1	-0.023780318
120	0xbc69db16	-0.014273426
121	0x3dbe90ad	0.093049385
122	0x3d40929e	0.047014825
123	0xbd4592a8	-0.048235565
124	0xbc9feb2e	-0.019521322
125	0x3bc20c9d	0.005921914
126	0x3ad611b1	0.0016332177
127	0x3dbb91dc	0.0915868
128	0xb96dc61c	-0.00022675883
129	0x3d414e85	0.047194023
130	0xbceb006e	-0.028686728
131	0x3d4c296f	0.0498442
132	0x3ca45830	0.020061582
133	0x3c98275d	0.018573457
134	0x3dc77758	0.0973956
135	0x3ccae603	0.024767881
136	0x3e2d83a6	0.16944751
137	0x3e0bccb3	0.13652305
138	0x3db04174	0.08606234
139	0xbda74b41	-0.081686504
140	0x3d8cc8c6	0.06874232
141	0x3da6715e	0.08127092
142	0x3cf2d8d5	0.02964441
143	0x3d64e0dd	0.05587851
144	0x3da71ecd	0.08160172
145	0xbd2a72d2	-0.041613407
146	0xbcceccd7	-0.02524416
147	0xba9bb1dd	-0.0011878569
148	0x3c51d667	0.012807465
149	0x3e2832dc	0.16425651

sequential_8_1/bidirectional_1_1/backward_gru_7_1/while/gru_cell_1/Squeeze_1 f4 [150]
0	0x3b071fe8	0.0020618383
1	0xbe8ff6c8	-0.28117967
2	0xbed62d30	-0.4183135
3	0xbe82806b	-0.254886
4	0xbdbc85c2	-0.092052
5	0xbd6f67f8	-0.05844876
6	0xbe6b4811	-0.2297671
7	0x3d084433	0.033268165
8	0xbe4803f3	-0.19532757
9	0xbde9bbed	-0.11412797
10	0xbe42041c	-0.1894688
11	0xbe4ea83f	-0.20181368
12	0xbe6d8562	-0.23195413
13	0xbe949481	-0.2901955
14	0xbd5caa2a	-0.05387322
15	0xbf18b990	-0.59658146
16	0xbee8a84d	-0.45440903
17	0xbd6cdd40	-0.057828188
18	0xbca9592b	-0.020672401
19	0xbe84c5e7	-0.25932238
20	0xbe992a45	-0.29915062
21	0xbeceb8e9	-0.4037545
22	0xbd56f6b4	-0.05248137
23	0x3d11173f	0.03542256
24	0xbd1bec22	-0.03806699
25	0xbe5ab032	-0.21356276
26	0xbe53ffc8	-0.20703042
27	0xbeb91168	-0.36146092
28	0xbe83cf75	-0.25744215
29	0x3d78d060	0.060745597
30	0x3d09afa1	0.03361476
31	0xbd8ae005	-0.067810096
32	0xbe44dabe	-0.19224069
33	0xbda12515	-0.07868401
34	0xbe84b932	-0.25922543
35	0x3d03a82c	0.032142803
36	0xbde22a48	-0.11043221
37	0xbe287413	-0.16450529
38	0x3d164d58	0.036694854
39	0xbe2005b9	-0.15627183
40	0xbdb5e738	-0.08881992
41	0xbeb9f393	-0.36318645
42	0xbd9ce2c4	-0.076604396
43	0xbdb7d2b2	-0.08975734
44	0xbdcf085f	-0.101090185
45	0xbd30c4c6	-0.043156408
46	0xbde0e113	-0.109804295
47	0xbe07fe98	-0.13280714
48	0xbda45af3	-0.0802516
49	0xbde9fd24	-0.11425236
50	0x3deb6dc3	0.11495545
51	0x3e1948e8	0.14969218
52	0x3e3d3e27	0.1848074
53	0x3d8d4453	0.068977974
54	0xbd030bab	-0.03199355
55	0x3cb5e18f	0.022202281
56	0x3e581a8e	0.2110388
57	0x3d8bae4a	0.068203524
58	0x3e69063e	0.22756287
59	0x3e3a02ae	0.18165085
60	0x3d84a659	0.06477041
61	0x3d5bece9	0.053692732
62	0x3dace931	0.08442915
63	0x3d61bcfa	0.055111863
64	0x3d55b61a	0.05217562
65	0x3d4c1b88	0.049830943
66	0xbd2c8b47	-0.042125013
67	0x3d9a8d38	0.075464666
68	0x3d3d7b95	0.046260435
69	0xbbd16942	-0.0063907215
70	0x3ccd6b94	0.025075711
71	0x3ddaefac	0.10690245
72	0x3dc0f4bc	0.094216794
73	0x3d814cf3	0.06313505
74	0x3c0e7b80	0.008696437
75	0x3d8b52b4	0.06802884
76	0x3d232272	0.03982777
77	0x3dd95a67	0.10612946
78	0x3cbac867	0.022800637
79	0x3dad06bb	0.08448549
80	0x3ce4c653	0.0279266
81	0xbd46e7a9	-0.048560772
82	0x3d8796b7	0.066205435
83	0xbb46544a	-0.0030262643
84	0x3e09fa01	0.13474275
85	0x3d0b4eec	0.034010813
86	0x3e73950c	0.23787326
87	0x3e238d92	0.15971974
88	0x3e094007	0.1340333
89	0x3dca3275	0.09872905
90	0x3dd2763c	0.10276458
91	0x3dd0bc91	0.10192216
92	0x3d918ce7	0.07106953
93	0xbd63cf7b	-0.05561779
94	0x3ddfb785	0.109236754
95	0x3d69473e	0.056952707
96	0x3c245a57	0.010031304
97	0x3cdd6757	0.027026815
98	0x3b1be968	0.0023790244
99	0x3e7c772c	0.24654835
100	0xbd9a6f9d	-0.0754082
101	0x3e046f9a	0.12933198
102	0x3e4d4f73	0.20049839
103	0x3d98a6a3	0.074536584
104	0x3d2d1c60	0.04226339
105	0x3d4a3318	0.049365133
106	0x3e485e15	0.1956714
107	0xbd42fce3	-0.047604453
108	0x3e46c251	0.19410063
109	0x3e2247fe	0.15847775
110	0x3b908abb	0.004411069
111	0x3cb66832	0.022266481
112	0x3da17116	0.078828976
113	0x3d00c80e	0.031440787
114	0xbd46b0c0	-0.048508406
115	0x3e12b0a5	0.14325197
116	0xbd1546a3	-0.036444318
117	0x3d96e0ba	0.07367082
118	0xbd229310	-0.03969103
119	0x3c30174e	0.010747744
120	0x3c622f26	0.013805186
121	0x3e25ed88	0.16203892
122	0x3d625f93	0.055266928
123	0xbd496bb7	-0.04917499
124	0xbcd1ee88	-0.025626436
125	0xbb912766	-0.0044297455
126	0x3cbeaaa3	0.023274725
127	0x3e107e09	0.14110579
128	0x3cf35715	0.02970461
129	0x3d48d362	0.049029715
130	0xbcf24576	-0.029574137
131	0x3c61df17	0.013786099
132	0x3d02307a	0.031784512
133	0x3c739b12	0.014868515
134	0x3de87aa6	0.11351518
135	0x3cb67da8	0.022276714
136	0x3e3de3b4	0.18543893
137	0x3e0e9e0f	0.13927482
138	0x3dd23448	0.10263878
139	0xbdb58899	-0.088639446
140	0x3d778b6c	0.060435697
141	0x3de88284	0.11353019
142	0x3d25b6a2	0.040457375
143	0x3c9f7368	0.01946421
144	0x3daf0cc8	0.0854736
145	0xbd3ae759	-0.045630787
146	0xbd2cf4e7	-0.042225745
147	0x3cd6919b	0.026192477
148	0x3d045700	0.032309532
149	0x3e4e672a	0.20156541

arith.constant28 f4 [150, 3]
0	0xbe3c2c02	-0.18376163
1	0xbe7e6aca	-0.24845424
2	0x3ea913a4	0.33022797
3	0x3dc73686	0.097271964
4	0xbe983f7f	-0.29735944
5	0x3e7a45cd	0.2444069
6	0xbf112a3f	-0.5670509
7	0xbe067494	-0.13130409
8	0xbd69016e	-0.05688613
9	0x3ddaefb4	0.10690251
10	0xbefb2357	-0.490504
11	0x3da025e2	0.078197256
12	0xbe4b31c0	-0.19843197
13	0xbe13fc27	-0.14451657
14	0x3e78d35e	0.2429938
15	0x3d81ca26	0.06337385
16	0x3dbf428d	0.093388654
17	0xbec97464	-0.39346611
18	0xbed76a2a	-0.42073184
19	0x3ee9b8d2	0.4564882
20	0xbe34e7aa	-0.17666498
21	0x3cb7edd0	0.022452265
22	0xbf1ae377	-0.60503334
23	0xbd90220e	-0.070377454
24	0x3e0b2f82	0.13592342
25	0xbba05f69	-0.0048941863
26	0x3e696834	0.22793657
27	0xbd9802c7	-0.07422405
28	0xbc476f00	-0.012172461
29	0xbc3cc22c	-0.011520904
30	0xbe6e11c3	-0.23248963
31	0xbebb8a9f	-0.36629197
32	0x3f2111e7	0.6291794
33	0x3da8c501	0.082407005
34	0xbecd5372	-0.40102726
35	0x3d6da31c	0.05801688
36	0xbf0af370	-0.54277706
37	0x39c65564	0.00037829124
38	0x3ec00c44	0.37509358
39	0xbe9640db	-0.29346356
40	0xbf0ee6cd	-0.55820924
41	0x3d005a0e	0.031335883
42	0xbd21f075	-0.03953596
43	0xbd9d6943	-0.07686093
44	0xbd8c7acb	-0.068593584
45	0xbdc8e899	-0.098099895
46	0xbe5c9a48	-0.21543229
47	0xbe1fd2d6	-0.15607771
48	0xbf43962e	-0.7640103
49	0xbdb7b02b	-0.08969148
50	0x3e78ff4a	0.24316135
51	0xbe80ee3a	-0.25181752
52	0xbe1511fa	-0.14557639
53	0x3e4add95	0.1981109
54	0x3c7c7c5e	0.015410511
55	0xbd83ea59	-0.06441183
56	0xbdc9dbfd	-0.098564126
57	0xbddf2fdd	-0.10897801
58	0xbed3663d	-0.4128894
59	0xbe11d6e4	-0.1424213
60	0xbd322aa9	-0.043497715
61	0x3e7050e3	0.23468356
62	0xbdbbe5d4	-0.091746956
63	0x3e6b7b47	0.22996245
64	0xbedd9112	-0.43274742
65	0x3d2be2d8	0.041964382
66	0x3dbe0d6d	0.092799045
67	0xbd8683d4	-0.06568113
68	0x3ca915ae	0.02064022
69	0xbd854370	-0.06507003
70	0x3e4ed552	0.20198563
71	0xbd765c05	-0.06014635
72	0xbf2f3c6d	-0.6845158
73	0xbd2da799	-0.04239616
74	0x3e71b824	0.236054
75	0xbecab254	-0.3958918
76	0x3da9f0d4	0.082978874
77	0x3edd7df8	0.4326017
78	0x3e44f3a7	0.19233571
79	0xbeafc08a	-0.34326583
80	0xbdd8059e	-0.105479464
81	0x3e2949e2	0.1653209
82	0x3e35b55a	0.17744961
83	0xbe1b3e67	-0.15160523
84	0xbbf61468	-0.007509757
85	0xbe54db9d	-0.20786901
86	0x3e59b1a1	0.21259166
87	0xbd5ec8d7	-0.054390755
88	0xbe94e847	-0.29083464
89	0xbd4c4abe	-0.049875967
90	0xbe4ed8cc	-0.20199889
91	0x3cf62459	0.030046629
92	0xbdef1d1b	-0.11675473
93	0xbe76b90a	-0.24094024
94	0xbe66c14d	-0.22534676
95	0xbdb17381	-0.08664609
96	0x3ccfa96e	0.025349345
97	0xbd870d78	-0.06594366
98	0xbd9d981f	-0.076950304
99	0xbf23f20d	-0.64041215
100	0x3f1a22fc	0.6020963
101	0xbe97a34c	-0.29616773
102	0xbeeabd7b	-0.45847687
103	0xbdbf465d	-0.093395926
104	0xbdc576f3	-0.096418284
105	0x3cd7df4e	0.026351597
106	0x3ec9f7a2	0.3944674
107	0xbe81c6c1	-0.2534695
108	0x3df37f68	0.11889535
109	0x3d961435	0.07328073
110	0xbcfc0546	-0.030764233
111	0xbe89d145	-0.26917472
112	0xbd5d7966	-0.054070853
113	0xbe0164f5	-0.12636168
114	0xbf6a6f9f	-0.9157657
115	0x3f1b5658	0.60678625
116	0x3f9d40ae	1.2285364
117	0xbe592014	-0.21203643
118	0x3e65fb04	0.22459036
119	0xbebdcaed	-0.37068883
120	0xbf740721	-0.9532338
121	0x3eb47545	0.3524572
122	0x3f21463d	0.629978
123	0x3dcddab7	0.10051482
124	0xbd8a36e1	-0.067487486
125	0xbe0f4521	-0.13991214
126	0xbe4a51b9	-0.19757737
127	0x3df96497	0.12177389
128	0xbdeee82a	-0.116653755
129	0xbd2d0b3a	-0.042247035
130	0xbecd649a	-0.40115815
131	0xbe1f77a1	-0.15572979
132	0x3e948a67	0.29011843
133	0xbe4811c2	-0.19538024
134	0x3e010b15	0.12601884
135	0xbf11793c	-0.56825614
136	0x3ea6748c	0.32510793
137	0x3e073416	0.13203463
138	0xbe954a5e	-0.291583
139	0x3e4e0226	0.20118007
140	0x3d001934	0.031274036
141	0x3e4d823b	0.2006921
142	0x3e279108	0.16363919
143	0x3c958f42	0.018256787
144	0xbf10ca44	-0.5655863
145	0xbe0c6d1b	-0.13713495
146	0x3e106414	0.14100677
147	0xbef90374	-0.48635447
148	0x3e40623e	0.18787476
149	0x3defcb8f	0.117087476
150	0x3ecc2513	0.39872035
151	0x3e3348ec	0.17508286
152	0xbcf5d2f3	-0.030007815
153	0x3e753a79	0.23948087
154	0x3e007e8a	0.12548271
155	0xbe722e46	-0.23650464
156	0x3f28de2d	0.65964013
157	0xbd81a8da	-0.06331034
158	0x3d6bc09d	0.057556737
159	0x3d337646	0.043813966
160	0x3e41ad57	0.1891378
161	0xbc040bab	-0.0080594225
162	0x3ef1d889	0.47235516
163	0x3e1510a4	0.14557129
164	0x3da57fdb	0.08081027
165	0xbc934609	-0.017977731
166	0xbc5f2074	-0.013618577
167	0x3e8df26d	0.2772402
168	0x3f19cca2	0.6007787
169	0xbd0f0db0	-0.034925163
170	0x3dd0e6f9	0.102003045
171	0x3e4d5e4c	0.20055503
172	0xbdfffcb1	-0.12499369
173	0xbdd73c8e	-0.10509597
174	0xbc4856b3	-0.012227702
175	0x3d270aa8	0.040781647
176	0x3daa79fc	0.08324048
177	0x3d427f84	0.04748489
178	0xbe88fa5a	-0.26753503
179	0xbe023c80	-0.12718391
180	0x3f01f6a4	0.5076697
181	0x3eabc4a1	0.33548453
182	0xbe96e5c1	-0.29472163
183	0xbc318a6c	-0.010836225
184	0xbc9fa1ab	-0.019486269
185	0x3d8f1330	0.069860816
186	0x3f505f75	0.81395656
187	0x3d5ff7d9	0.054679725
188	0x3d004d98	0.031324
189	0x3e029160	0.12750769
190	0x3cc06ce1	0.023489418
191	0xbe69beaf	-0.22826646
192	0x3e652bd3	0.22379999
193	0x3ddbbb8d	0.10729132
194	0x3d8d090b	0.068864904
195	0x3ea31c7c	0.3185767
196	0xbe6cd9e4	-0.23129994
197	0xba8bb12e	-0.0010657662
198	0x3f802b40	1.0013199
199	0x3daf1759	0.08549375
200	0x3dd332f6	0.103124544
201	0xbba04e33	-0.0048921346
202	0x3e5c8fee	0.2153928
203	0xbd943ff4	-0.072387606
204	0xbdf2b73d	-0.11851356
205	0x3de04c55	0.10952059
206	0x3e4843ad	0.19557066
207	0x3ec4922c	0.3839277
208	0x3e937f68	0.2880814
209	0x3e19f182	0.15033534
210	0x3e6fa850	0.2340405
211	0x3de6619e	0.11249088
212	0x3d7e4913	0.062081408
213	0x3dc81eba	0.097714856
214	0xbbd254d0	-0.006418802
215	0xbdb55b88	-0.08855349
216	0x3ead56af	0.33855197
217	0x3db9b384	0.09067443
218	0xbd89bfe4	-0.06726053
219	0x3eb0dbe5	0.34542766
220	0xbe5e5f24	-0.21715981
221	0xbdaa7c11	-0.08324445
222	0x3ef18fba	0.47179967
223	0xbe12e446	-0.14344892
224	0xbdaa513f	-0.08316278
225	0x3f2d5738	0.6771121
226	0xbd9800bc	-0.07422015
227	0x3dbbe13c	0.091738194
228	0xbe5db7fe	-0.21652219
229	0x3d360bba	0.044444777
230	0xbe26afa2	-0.16277936
231	0xbd4fec97	-0.05076274
232	0x3df7956c	0.12089047
233	0xbe6b8d0f	-0.23003028
234	0x3ed226d0	0.41045237
235	0xbd5a1ad5	-0.053248245
236	0xbe2c3513	-0.16817121
237	0x3cd91d58	0.02650325
238	0x3e1e7c80	0.1547718
239	0xbd1480bd	-0.036255587
240	0x3e9ccdb6	0.30625695
241	0xbd650b06	-0.055918716
242	0xbe851666	-0.2599365
243	0xbda21b69	-0.07915384
244	0x3e19a712	0.15005139
245	0xbe22b808	-0.15890515
246	0x3e93ec27	0.28891107
247	0xbe4243b1	-0.18971135
248	0x3e154355	0.14576466
249	0x3f7e4b18	0.99333334
250	0xbe9c7dd3	-0.30564746
251	0x3e98628c	0.29762685
252	0x3f0ab30d	0.5417946
253	0xbe3849d6	-0.17996916
254	0xbe488a36	-0.19583973
255	0x3e517bc9	0.20457377

arith.constant29 f4 [150, 50]
0	0xbd016100	-0.031586647
1	0x3c5b7b80	0.013396144
2	0x3d161b00	0.036646843
3	0x3cfbadf0	0.030722588
4	0x3c79fe60	0.015258402
5	0xbe2ecda6	-0.17070636
6	0xbca38348	-0.01996006
7	0x3cc89a24	0.024487562
8	0xbcc452fd	-0.023965353
9	0xbd9de28f	-0.07709228
10	0xbdca3bb3	-0.09874668
11	0xbcfffad0	-0.031247526
12	0xbddb8f84	-0.10720733
13	0xbcff6bc0	-0.031179309
14	0x3cb16574	0.021654822
15	0xbd18534a	-0.037188806
16	0xbd5e5f74	-0.05429025
17	0xbd2243cf	-0.03961545
18	0x3e23a78a	0.1598188
19	0x3deff27d	0.11716173
20	0xbdc13cf0	-0.09435451
21	0x3cde8ac4	0.027165778
22	0x3cf5c05a	0.029998947
23	0x3e15f01d	0.14642377
24	0x3e7abfe4	0.24487263
25	0x3d86be98	0.065793216
26	0x3dcf1671	0.10111702
27	0xbd4cf0d8	-0.050034374
28	0xbd51c363	-0.051211726
29	0x3d8b52b5	0.068028845
30	0x3c08b931	0.008344934
31	0x3d6e4f64	0.05818118
32	0xbd96ed88	-0.07369524
33	0x3dfb1f88	0.122618735
34	0x3e0c5911	0.13705851
35	0xbd317288	-0.043322116
36	0xbdc741da	-0.09729357
37	0x3d3ada41	0.0456183
38	0x3d6383c6	0.05554559
39	0xbd6cab1e	-0.057780378
40	0xbdae458a	-0.08509357
41	0x3dfb8c29	0.12282593
42	0xbd958c03	-0.07302096
43	0xbcf04a7e	-0.029332396
44	0xbd695285	-0.056963462
45	0x3d70e6b4	0.058813766
46	0xbddada1d	-0.10686133
47	0x3dd0c4a5	0.10193757
48	0x3dc035c6	0.093852565
49	0xbe39b8ff	-0.18136977
50	0xbdbe3aca	-0.09288557
51	0x3ce2b380	0.027673483
52	0x3cd3bace	0.025845911
53	0xbd11fccb	-0.035641473
54	0x3d8e5f67	0.0695179
55	0xbd5e05e8	-0.05420485
56	0xbd26b427	-0.04069915
57	0x3e360a5e	0.17777392
58	0xbdeb271e	-0.114820704
59	0xbe1cbf90	-0.1530745
60	0x3b09bb3c	0.0021016141
61	0x3c1bf355	0.009518464
62	0x3d3745dc	0.044744357
63	0x3d780562	0.06055201
64	0x3dcdee7c	0.10055253
65	0x3d37e019	0.04489145
66	0x3cdec546	0.027193677
67	0xbd466729	-0.048438225
68	0x3d72c8e6	0.059273623
69	0xbdae137c	-0.0849981
70	0x3d44085e	0.047859542
71	0x3a8cd972	0.0010745956
72	0xbd34a776	-0.044105016
73	0xbdc3595e	-0.0953853
74	0xbd0f7d2b	-0.03503148
75	0xbd0ebc12	-0.034847327
76	0x3d56259f	0.052281972
77	0xbb5572ea	-0.0032569715
78	0xbd1025c4	-0.035192266
79	0x3c75959c	0.014989283
80	0xbdec8e9b	-0.11550637
81	0x3d1f8c3d	0.0389521
82	0x3cb222ac	0.021745048
83	0xbcdc0e2c	-0.026862226
84	0x3ca76e46	0.020438325
85	0x3d021cd3	0.03176577
86	0x3d88aa74	0.06673136
87	0xbce4e054	-0.027939
88	0x3d6d4e42	0.05793596
89	0xbde8bf2d	-0.11364589
90	0x3cea6d2a	0.028616507
91	0x3de7b95e	0.11314653
92	0x3d2367c4	0.03989388
93	0x3d255de6	0.04037275
94	0xbd84572e	-0.06461941
95	0x3dd1bd53	0.10241189
96	0x3d6f93f4	0.05849071
97	0xbe81ebf2	-0.25375324
98	0x3d238f74	0.03993173
99	0xbd605f8a	-0.054778613
100	0xbe328b8b	-0.17436044
101	0xbd1fc69b	-0.039007764
102	0xbdad06b0	-0.08448541
103	0x3ba64c9c	0.0050750505
104	0x3d2c6108	0.042084724
105	0x3d912aaa	0.07088216
106	0x3db5579d	0.088546015
107	0xbbaa242a	-0.0051922994
108	0xbe6c6ece	-0.23089144
109	0x3d3ca2d3	0.04605372
110	0x3dc4af1a	0.096037105
111	0xbc93074a	-0.017947812
112	0xbe0fa6f4	-0.14028531
113	0x3c76497c	0.0150321685
114	0x3dc82a88	0.09773737
115	0xbcafdb20	-0.021466792
116	0x3db02afe	0.0860195
117	0x3caf54b4	0.021402694
118	0x3cdf39a2	0.027249161
119	0x3d12c7d4	0.035835102
120	0x3e0ec39b	0.13941805
121	0x3d828af4	0.063741595
122	0xbdbeb25d	-0.09311364
123	0xbd3e741d	-0.046497453
124	0x3dd5c64b	0.10438212
125	0xbb913a4e	-0.0044319993
126	0xbe1afcac	-0.15135449
127	0xbd9d04ca	-0.07666929
128	0xbb8c35df	-0.004278883
129	0x3df6f05b	0.12057563
130	0xbbfc0b8a	-0.0076918053
131	0xbd2642a2	-0.04059089
132	0xbc684d6f	-0.014178618
133	0xbc808a32	-0.015690897
134	0xbe153d34	-0.14574128
135	0x3da048ba	0.078263715
136	0xbdcc407e	-0.099732384
137	0x3df5cc84	0.12001899
138	0x3e05d1af	0.13068269
139	0xbd50c941	-0.05097318
140	0xbdbfc391	-0.09363473
141	0xbc93c1a2	-0.018036667
142	0xbd8f1d78	-0.069880426
143	0x3c459d0c	0.012061369
144	0xbd361e88	-0.04446271
145	0x3e08f09d	0.13373037
146	0xbdf5a546	-0.11994414
147	0xbc860490	-0.016359597
148	0x3cc2c302	0.023774628
149	0xbd456369	-0.048190508
150	0x3d488487	0.048954513
151	0xbdf745d0	-0.120738626
152	0x3de76fa2	0.11300589
153	0xbe187018	-0.1488651
154	0xbdb4339a	-0.08798905
155	0xbba308ae	-0.0049754
156	0xbde91475	-0.11380855
157	0x3d963be8	0.07335645
158	0x3da9bb38	0.08287662
159	0x3d42d792	0.047568865
160	0x3cad51d0	0.021157175
161	0x3d39a0b5	0.045319278
162	0x3d71feb5	0.0590808
163	0x3d2f46f0	0.04279226
164	0x3e3bdfde	0.18347117
165	0xbd8df931	-0.06932295
166	0x3be0ff3e	0.0068663647
167	0x3dc46bda	0.095908836
168	0xbd138b47	-0.036021497
169	0x3ddebd12	0.10875906
170	0x3c8bde6a	0.017073829
171	0xbcca91d2	-0.024727736
172	0xbda4717c	-0.08029458
173	0x3dac7162	0.084200636
174	0xbd1ced2e	-0.03831213
175	0xbcfdf007	-0.030998243
176	0x3dbcc8f1	0.09218014
177	0xbe0c8f1c	-0.13726467
178	0xbdec68dc	-0.11543438
179	0x3dcd50fe	0.10025214
180	0xbdd1ac2c	-0.10237917
181	0x3db84155	0.08996836
182	0xbc9a8321	-0.018861355
183	0x3de7b5e0	0.11313987
184	0xbcef76d4	-0.029231466
185	0x3c9fc1de	0.019501623
186	0x3dab1428	0.08353454
187	0xbd02e5cd	-0.031957436
188	0x3b9a010c	0.004699832
189	0x3d933fa4	0.07189873
190	0xbdb44ddc	-0.08803913
191	0xbd7eadb3	-0.06217737
192	0x3d5c7e0e	0.053831153
193	0xbda27140	-0.07931757
194	0x3bcf0d2a	0.006318708
195	0xbdfa288f	-0.12214767
196	0xbbc08767	-0.005875516
197	0xbc58464c	-0.013200354
198	0xbde55bf9	-0.11199183
199	0x3ddc598b	0.107592665
200	0xbe4a9bc1	-0.19785978
201	0x3b10fc4c	0.0022123037
202	0xbd6ef457	-0.05833849
203	0x3ce3dc73	0.02781508
204	0x3ce1aec0	0.027549148
205	0xbdff14bc	-0.12455127
206	0xbdd0f3f2	-0.10202779
207	0xbdd4eb9e	-0.10396503
208	0xbbc2e6a8	-0.0059479065
209	0x3e111c8e	0.14171049
210	0x3d63757e	0.05553197
211	0xbd3629b0	-0.04447335
212	0x3dc9699f	0.09834599
213	0x3d4bd87c	0.049767002
214	0xb9aa3230	-0.0003246232
215	0xbc9788b9	-0.018497812
216	0x3da0c111	0.078493245
217	0xbd7da405	-0.061924
218	0x3dc45279	0.09586043
219	0x3d4a095a	0.049325325
220	0x3e0c5ad2	0.1370652
221	0xbd17cce4	-0.037060633
222	0x3d0d7e39	0.034544203
223	0xbc5c5736	-0.013448527
224	0x3c4dde38	0.012565188
225	0xbb7e947c	-0.0038845828
226	0xbdaea7fb	-0.085281335
227	0xbc480869	-0.012209036
228	0xbdda5707	-0.106611304
229	0xbd824af0	-0.063619494
230	0x3d16217a	0.03665302
231	0x3e1de6aa	0.15420023
232	0xbcce94fc	-0.025217526
233	0x3d406650	0.046972573
234	0xbd5ab4cd	-0.05339508
235	0x3dea6d58	0.11446637
236	0x3d5609e7	0.052255537
237	0xbb5cce88	-0.0033692438
238	0x3cf6315a	0.03005283
239	0x3d921872	0.07133569
240	0x3c2a62ec	0.010399561
241	0xbd49125d	-0.04908978
242	0x3cb48213	0.02203468
243	0x3d9a00df	0.075196974
244	0x3de5c6fa	0.112195924
245	0x3ca73cd9	0.020414757
246	0x3e3bf69d	0.18355794
247	0x3d6ab4dc	0.057301387
248	0xbe1441fc	-0.14478296
249	0xbdb8b8f9	-0.09019656
250	0xbd1f3d2b	-0.038876694
251	0xbd86ee8b	-0.06588467
252	0x3cb73d39	0.02236806
253	0x3e509e8e	0.20372984
254	0xbd3f14e0	-0.046650767
255	0x3cdebe00	0.027190208

sequential_8_1/bidirectional_1_1/forward_gru_7_1/while/gru_cell_1/Squeeze f4 [150]
0	0xbe6129b9	-0.21988572
1	0xbe5579b6	-0.2084721
2	0xbec0437d	-0.3755149
3	0xbe1872b0	-0.148875
4	0xbe77fc20	-0.24217272
5	0xbe65f3cd	-0.22456284
6	0xbef0cce0	-0.47031307
7	0xbda16a2a	-0.07881577
8	0x3d353915	0.04424389
9	0xbd81cb2e	-0.063375816
10	0xbea8e0fc	-0.3298415
11	0xbe50a238	-0.20374382
12	0xbe9ce2e2	-0.30641848
13	0xbe1c968a	-0.15291801
14	0x3d2720ee	0.04080289
15	0x3c263f64	0.010146949
16	0xbee408b7	-0.445379
17	0x3d5a96c7	0.05336645
18	0xbbbf6c96	-0.005841802
19	0xbda963e6	-0.08271007
20	0xbd159ebf	-0.036528345
21	0xbd169542	-0.036763437
22	0xbe5c173b	-0.21493237
23	0xbe5e1667	-0.21688233
24	0xbe1a73d2	-0.15083244
25	0xbebcf28d	-0.36903802
26	0xbdfe959d	-0.1243088
27	0x3d0def84	0.034652248
28	0xbe4adbd0	-0.19810414
29	0xbe0bef3d	-0.13665481
30	0xbd4f93b3	-0.050677966
31	0xbe1e5ec5	-0.15465839
32	0x3cc31e5f	0.023818193
33	0xbf17f340	-0.59355545
34	0xbeba95d9	-0.3644245
35	0xbe2cae19	-0.16863288
36	0xbd9d6d8a	-0.076869085
37	0xbebf38ad	-0.37347928
38	0xbf83f99e	-1.0310552
39	0xbe6a1e28	-0.22863066
40	0xbf26c824	-0.6514914
41	0xbd6df4aa	-0.058094658
42	0xbea22bd8	-0.31674075
43	0xbdd73a31	-0.10509146
44	0x3cc6a01a	0.024246264
45	0xbe963f26	-0.29345053
46	0xbd7fd4ef	-0.06245893
47	0x3d396880	0.045265675
48	0xbe41fb68	-0.1894356
49	0xbdd9d294	-0.10635868
50	0x3d4bde36	0.049772464
51	0x3d01b47e	0.03166627
52	0x3e23cf2b	0.15996997
53	0x3ea6043e	0.32425112
54	0x3e19eadf	0.15031002
55	0x3d9f650b	0.07782944
56	0x3dbeb2c6	0.09311442
57	0xbc809d0f	-0.015699891
58	0xbdcd5718	-0.100263774
59	0x3dbc9323	0.092077516
60	0x3ca3eaf1	0.02000949
61	0x3e7bfdfc	0.24608606
62	0x3dcddfda	0.10052462
63	0x3d7d7691	0.06188065
64	0x3db14f56	0.0865771
65	0x3d411caf	0.047146495
66	0x3e3eb1a7	0.18622456
67	0x3d93db7c	0.07219598
68	0x3d143e66	0.03619232
69	0xbcc0a465	-0.02351589
70	0x3dbb5e83	0.09148886
71	0xbce29e37	-0.027663333
72	0x3e5b5e0d	0.21422596
73	0x3d688f7e	0.05677747
74	0x3d5fb783	0.05461837
75	0x3de79466	0.11307602
76	0x3e9873cc	0.29775846
77	0x3dad41d5	0.08459822
78	0x3dc7da09	0.09758384
79	0x3ead7c90	0.33884096
80	0x3e3e4337	0.18580328
81	0x3e87ffac	0.2656225
82	0x3a660db1	0.0008775844
83	0x3d6fea7e	0.05857324
84	0x3df72ee0	0.120694876
85	0x3d3b4208	0.04571727
86	0x3ba498dd	0.0050231055
87	0x3de33422	0.11093928
88	0xbe06ddc1	-0.1317053
89	0x3dc3da68	0.09563142
90	0x3aab3384	0.0013061618
91	0x3a864c47	0.0010246121
92	0x3d743c18	0.059627622
93	0xb957b06c	-0.0002056972
94	0x3e3375d0	0.1752541
95	0x3d3bbf6d	0.045836855
96	0x3dac68f4	0.08418456
97	0x3dbe987c	0.09306428
98	0x3d30a152	0.043122597
99	0x3d35f190	0.044419825
100	0x3c28485f	0.010271161
101	0xbc53e363	-0.012932631
102	0x3df47093	0.11935534
103	0x3e856088	0.2605021
104	0x3dd8c63c	0.10584685
105	0x3cd0c867	0.025486184
106	0x3d733965	0.059380908
107	0x3d12048f	0.03564888
108	0x3c8045b3	0.015658235
109	0x3d2c6720	0.042090535
110	0xbb46c60d	-0.003033045
111	0x3e5b5377	0.21418558
112	0x3da55686	0.08073144
113	0x3c99f794	0.018794812
114	0xbd64aa7f	-0.05582666
115	0x3d943975	0.072375216
116	0x3e30d31d	0.17268033
117	0x3d11a977	0.035562005
118	0xbd591da4	-0.053006783
119	0x3cbe2b9f	0.02321416
120	0x3d7d19f2	0.06179232
121	0x3badb7d5	0.0053014555
122	0x3e541410	0.20710778
123	0xbb24c547	-0.0025142
124	0xbbd97f1e	-0.006637468
125	0x3daa4189	0.08313281
126	0x3e652461	0.22377159
127	0xbd779e3d	-0.060453642
128	0x3d9a7618	0.07542056
129	0x3e81b7b5	0.2533547
130	0x3e0d02eb	0.13770644
131	0x3e43c503	0.19118123
132	0xbc741d57	-0.014899573
133	0x3d7b32d1	0.06132776
134	0x3db3e9f0	0.087848544
135	0xbd26762a	-0.040640034
136	0xbcb7b807	-0.022426618
137	0x3da7d2e1	0.08194519
138	0xbce0937e	-0.02741408
139	0x3cb9c89f	0.022678671
140	0xbd069da2	-0.032865174
141	0x3d0ec05b	0.034851413
142	0x3c8457bf	0.016155122
143	0x3ce964a3	0.02849037
144	0xbdbc74d8	-0.09201974
145	0xbb9c6b65	-0.0047735446
146	0x3d4c362c	0.04985635
147	0xbd630b91	-0.055430952
148	0x3c047e4d	0.008086753
149	0x3c7d2d11	0.015452639

sequential_8_1/bidirectional_1_1/forward_gru_7_1/while/gru_cell_1/Squeeze_1 f4 [150]
0	0xbe6129b9	-0.21988572
1	0xbe5579b6	-0.2084721
2	0xbec0437d	-0.3755149
3	0xbe1872b0	-0.148875
4	0xbe77fc20	-0.24217272
5	0xbe65f3cd	-0.22456284
6	0xbef0cce0	-0.47031307
7	0xbda16a2a	-0.07881577
8	0x3d353915	0.04424389
9	0xbd81cb2e	-0.063375816
10	0xbea8e0fc	-0.3298415
11	0xbe50a238	-0.20374382
12	0xbe9ce2e2	-0.30641848
13	0xbe1c968a	-0.15291801
14	0x3d2720ee	0.04080289
15	0x3c263f64	0.010146949
16	0xbee408b7	-0.445379
17	0x3d5a96c7	0.05336645
18	0xbbbf6c96	-0.005841802
19	0xbda963e6	-0.08271007
20	0xbd159ebf	-0.036528345
21	0xbd169542	-0.036763437
22	0xbe5c173b	-0.21493237
23	0xbe5e1667	-0.21688233
24	0xbe1a73d2	-0.15083244
25	0xbebcf28d	-0.36903802
26	0xbdfe959d	-0.1243088
27	0x3d0def84	0.034652248
28	0xbe4adbd0	-0.19810414
29	0xbe0bef3d	-0.13665481
30	0xbd4f93b3	-0.050677966
31	0xbe1e5ec5	-0.15465839
32	0x3cc31e5f	0.023818193
33	0xbf17f340	-0.59355545
34	0xbeba95d9	-0.3644245
35	0xbe2cae19	-0.16863288
36	0xbd9d6d8a	-0.076869085
37	0xbebf38ad	-0.37347928
38	0xbf83f99e	-1.0310552
39	0xbe6a1e28	-0.22863066
40	0xbf26c824	-0.6514914
41	0xbd6df4aa	-0.058094658
42	0xbea22bd8	-0.31674075
43	0xbdd73a31	-0.10509146
44	0x3cc6a01a	0.024246264
45	0xbe963f26	-0.29345053
46	0xbd7fd4ef	-0.06245893
47	0x3d396880	0.045265675
48	0xbe41fb68	-0.1894356
49	0xbdd9d294	-0.10635868
50	0x3d4bde36	0.049772464
51	0x3d01b47e	0.03166627
52	0x3e23cf2b	0.15996997
53	0x3ea6043e	0.32425112
54	0x3e19eadf	0.15031002
55	0x3d9f650b	0.07782944
56	0x3dbeb2c6	0.09311442
57	0xbc809d0f	-0.015699891
58	0xbdcd5718	-0.100263774
59	0x3dbc9323	0.092077516
60	0x3ca3eaf1	0.02000949
61	0x3e7bfdfc	0.24608606
62	0x3dcddfda	0.10052462
63	0x3d7d7691	0.06188065
64	0x3db14f56	0.0865771
65	0x3d411caf	0.047146495
66	0x3e3eb1a7	0.18622456
67	0x3d93db7c	0.07219598
68	0x3d143e66	0.03619232
69	0xbcc0a465	-0.02351589
70	0x3dbb5e83	0.09148886
71	0xbce29e37	-0.027663333
72	0x3e5b5e0d	0.21422596
73	0x3d688f7e	0.05677747
74	0x3d5fb783	0.05461837
75	0x3de79466	0.11307602
76	0x3e9873cc	0.29775846
77	0x3dad41d5	0.08459822
78	0x3dc7da09	0.09758384
79	0x3ead7c90	0.33884096
80	0x3e3e4337	0.18580328
81	0x3e87ffac	0.2656225
82	0x3a660db1	0.0008775844
83	0x3d6fea7e	0.05857324
84	0x3df72ee0	0.120694876
85	0x3d3b4208	0.04571727
86	0x3ba498dd	0.0050231055
87	0x3de33422	0.11093928
88	0xbe06ddc1	-0.1317053
89	0x3dc3da68	0.09563142
90	0x3aab3384	0.0013061618
91	0x3a864c47	0.0010246121
92	0x3d743c18	0.059627622
93	0xb957b06c	-0.0002056972
94	0x3e3375d0	0.1752541
95	0x3d3bbf6d	0.045836855
96	0x3dac68f4	0.08418456
97	0x3dbe987c	0.09306428
98	0x3d30a152	0.043122597
99	0x3d35f190	0.044419825
100	0x3ce2e9e8	0.027699426
101	0x3b6b0c2b	0.0035865407
102	0x3e263b15	0.16233476
103	0x3e820842	0.25396925
104	0x3e029307	0.12751399
105	0x3d0ef914	0.03490551
106	0x3db45cb9	0.08806748
107	0x3cd628bb	0.026142469
108	0xbb1e3943	-0.0024143017
109	0x3d1fe443	0.039036047
110	0x3d47f25a	0.04881511
111	0x3e4f1752	0.2022374
112	0x3e0046ef	0.12527059
113	0x3cc7cd39	0.02438985
114	0xbd6d7cf0	-0.057980478
115	0x3d79c7ed	0.06098168
116	0x3e6d205f	0.2315688
117	0x3d1181d6	0.03552421
118	0xbd393829	-0.045219574
119	0x3d2f5621	0.04280675
120	0x3d8d5fb7	0.06903022
121	0x3c4a7a71	0.012358294
122	0x3e620c81	0.22075082
123	0xbc28e935	-0.010309507
124	0x3c7b8d8f	0.015353574
125	0x3de7ba2d	0.11314807
126	0x3e7048c1	0.23465253
127	0xbd8c5745	-0.06852583
128	0x3ddf7e3b	0.109127484
129	0x3e7b260b	0.24526231
130	0x3e0e3088	0.138857
131	0x3e48adfa	0.19597617
132	0xbc925171	-0.0178611
133	0x3e18ac71	0.14909531
134	0x3e0c9d1d	0.13731809
135	0xbcc86a3d	-0.02446472
136	0xbd36eec0	-0.044661283
137	0x3e09accd	0.13444825
138	0x3d89e0d7	0.06732338
139	0x3c7dd828	0.01549343
140	0x3d1a8513	0.037724566
141	0x3cafbe90	0.021453172
142	0x3d29ad4d	0.041425038
143	0x3d2ded32	0.042462535
144	0xbdd488eb	-0.103776775
145	0x3cfc9f3d	0.03083765
146	0x3d714f66	0.05891361
147	0xbd69c725	-0.057074685
148	0x3cc0235a	0.023454357
149	0x3d586c19	0.052837465
