models/tflite/GRU/GRU-Deep.tflite (tflite, 254180 bytes, 18 tensors)

arith.constant3 f4 [2, 50]
00000000: 6256 e6bc eff0 c5be 769c e7bc ea8f a13e
00000010: db11 b03d db5e f83d 06de 36bd 4861 87bd
00000020: 7834 40be dacb ca3e fbdf 4c3e bfc7 ec3c
00000030: c12b 83be 1e77 1a3d acc5 8ebb decc d33e
00000040: c8fd 2a3e 111f 803e 4ce5 843e 5e2c a43e
00000050: 519c 893e c97e f13d 2e2e 243e ea71 41be
00000060: 5f69 d1be 7272 313e 72c7 55be a363 533d
00000070: 4b43 14be bdd8 11bd 64ab c33e 45a1 53be
00000080: 3039 663e 2bf9 73be 833e 0a3d 99f7 c1be
00000090: fbdd 8c3d f195 283e e36e 403e a094 d43e
000000a0: 386c d33e 1630 f93d 7a09 803e f379 a8be
000000b0: 9eb1 b3bd a0aa 44be fc08 97bd 5489 8b3e
000000c0: 8ff5 e7bd f4bb c43e 2ca2 71be 7fec db3d
000000d0: ce70 4d3e dbbd 96bd 1861 6e3e bbcf 7ebe
000000e0: e38a b73e 8dcd 85be f651 8b3c 11e2 d83c
000000f0: 99e6 5bbe 7852 c8be 0a85 9a3d 5bf5 92be
00000100: 4ee0 32be 4072 b23d 6303 86be 55b4 10be
00000110: 3db8 1cbe 0178 18be 37ce 83bd 98c1 a1be
00000120: 4e86 0e3e 18ad 353e 922f a63e ff37 babe
00000130: 3667 823e 71ac 5e3e e0ca ea3d 64db 853d
00000140: ddb9 81be 5f7e 05be ac39 8b3e 9fd3 27bb
00000150: 3422 6ebe cc3f c83d 99ed 133e ec76 bf3e
00000160: 017e bebd cf24 cfbe db47 d23d 0dba b13e
00000170: 2f36 9ebe a318 5bbe 7509 c23e fabf c3be
00000180: 09a6 77be 5aa0 32bd 1f26 6dbe ca19 a23d
-0.028117362 -0.3866038 -0.028272849 0.3155511 0.08597156 0.12127467 -0.04464533 -0.06610352
-0.18770015 0.3960865 0.20007317 0.02890384 -0.2561932 0.037711255 -0.0043570604 0.4136724
0.16698372 0.25023702 0.2595619 0.320651 0.26877072 0.117917605 0.16033241 -0.18891111
-0.40900704 0.17328814 -0.20876864 0.051608693 -0.14478795 -0.03560709 0.38216698 -0.20666988
0.22482753 -0.23825519 0.033751022 -0.37884215 0.06878277 0.16463448 0.187923 0.41519642
0.41293502 0.12167375 0.2500723 -0.3290554 -0.08774112 -0.19205713 -0.073747605 0.2725321
-0.113261335 0.38424647 -0.2359702 0.107384674 0.20062563 -0.07360431 0.23279226 -0.2488393
0.3584815 -0.26133385 0.017006855 0.026474984 -0.21474685 -0.3912542 0.075449064 -0.28702816
-0.17468378 0.08713198 -0.2617446 -0.14131291 -0.15304656 -0.14889528 -0.06435817 -0.31593013
0.1391842 0.17741811 0.32458168 -0.36370847 0.2546937 0.21745469 0.114644766 0.06535986
-0.25337115 -0.13036488 0.27192438 -0.0025608314 -0.23255235 0.09777793 0.14446105 0.37395418
-0.09301377 -0.4045777 0.102676116 0.34712258 -0.30900714 -0.21396117 0.3789784 -0.38232404
-0.24184431 -0.043609954 -0.23159073 0.07915075

arith.constant4 f4 [2]
00000000: 366f 2c3d 366f 2cbd
0.042098247 -0.042098247

arith.constant15 f4 [150, 3]
00000000: d5eb 02bd c218 36be 093b 2f3d c2d1 2abe
00000010: 7e15 633e b90d c03d 5abb 08be ec31 64be
00000020: a96a b83c 27ef 83be e96d 913c 2e58 f63d
00000030: 8ce5 dbbc fd89 2b3d 42c9 c9bd af35 aa3d
00000040: ae85 8d3d 4668 6abe 238d 82be eea4 8dbe
00000050: 169a 9c3e c7ad 9c3c cb83 7bbd f84d e4bd
00000060: dde2 a13d 91c1 0abe 418f cf3d d57c bbbc
00000070: 1d78 8e3d 95c1 563d 45df 0b3e 25e1 293d
00000080: d4cf 38be ceec abbe 4318 1e3e 976d bbbd
00000090: 5847 433e 47e2 193e 219b 16be 2bf8 d3bd
000000a0: 4691 15be 79a4 6cbe 3205 133d b69c 8dbd
000000b0: f055 983d a356 81bc f7a2 7a3c 3016 a8bd
000000c0: c634 86be 2374 3c3e 6a58 06bc 91cc 3e3d
000000d0: dd73 9ebc 6fa3 80bd 50d8 143e b76b 3a3d
000000e0: ef72 03be acbf 09bb 9eee 413e eb35 023e
000000f0: 9a36 a13b ba24 68be 8f5f 31be 054e 743c
00000100: c944 a23d 4e3a 2f3d e0bf 7e3e 5736 9c3d
00000110: 51fc 31be 92f4 02be 6345 6a3e 9dc1 bdbc
00000120: 79cc 863d f711 3d3d 39bd 80be 8577 6e3d
00000130: 7502 3cbd a650 3fbe ff1b dcbd 723e 993d
00000140: 249a a9b9 50ad 17be 4033 3a3e 2f82 623e
00000150: 13d6 263d 3537 aabc 6fc4 5c3e 08fc 963d
00000160: e069 b93d 3ed9 79be 84c7 f0bd bce4 343e
00000170: 35ad a03d 9f45 fcbd 4b03 603e c020 9e3d
00000180: 199b 7c3d 05ce 6d3e c8d6 593d 8dfb ffbc
00000190: 051f 07be 1a39 9f3c eca1 683e 2d2f 26be
000001a0: 503f 32be fbc2 69be b354 87be fbee e2bc
000001b0: 0ae7 2dbe a1ea 873d c9d8 293e 1f98 76be
000001c0: 480b 253e 1e04 f03c 737e 2b3b 95cc cc3d
000001d0: a8f5 b13d ab01 9fbc 7f6f 8f3e 4a9f 083d
000001e0: 6bde e83d a058 19bc c24e 2c3d 4806 d53c
000001f0: 5f70 21be 06d6 883d 8ccc a63d 143f 363d
00000200: c097 563e ee80 8a3e 2de7 22bd 18a9 10bd
00000210: 1975 13be 7ce4 a73c cf2c f6bd 788e 36be
00000220: ab72 5bbe 5fb6 92be 7218 24bd 4955 85bd
00000230: be33 24be 7d95 abbd f528 44be 8104 3c3d
00000240: 9fcd 05bd 47fb d3bd 441b 1fbe 239d 39bd
00000250: 6118 0dbe 4fc4 f43c 68d9 a1bd c80b cd3d
00000260: 6ecd 1c3e a06c 94bd 69f4 eb3d c5e7 423e
00000270: 2d11 b83d 1ec3 d0bd d6aa 32be 9a02 fa3d
00000280: ad24 ba3c 5c03 41bc 7b97 273e 63b7 073e
00000290: 757e 86bd 38d8 48be 103a 2d3d 77d2 123e
000002a0: 62a0 1f3e c3b9 3f3e 5615 72be e172 e03c
000002b0: c1d2 9cbd b964 69bd 472d 933e 5bd9 2bbe
000002c0: b7bd 183d d771 303e 6276 b7bc 9a6b edbd
000002d0: 9c64 4bbe bfab 423e 0dbc e43d 252c 993e
000002e0: baba 093e 258f 453e a116 ebbb 44b8 903a
000002f0: 1dfc e53b 6b14 75be 9911 003e 8e95 ecbd
00000300: 34ed 23bd d0ec 843c e100 ecbd e326 c53c
00000310: 4bc7 51be f411 1bbe cf03 1c3e cf7c d83d
00000320: 03d7 afbd fcff d03d 8879 57bd 4ac0 333e
00000330: b0ee 87be 19dc d73d 55da abbd 1235 243e
00000340: c8d2 50bd e2f0 39be 7e2d 22be 44bd 5b3e
00000350: fbca 69bd 181a 2fbe 879c f2bd 4f34 17bc
00000360: 0289 e6bd e81c 16be 6521 403e 2c1a 0f3e
00000370: acdd e3bd 3032 0d3d d51e 05be 4a5a 513d
00000380: e97e 0e3d 7268 113e 8673 43be 7a13 083e
00000390: 4740 813e 2679 ca3d 190c e8bd 1a54 863d
000003a0: f512 1fbe ebf3 4cbc 4100 a03e e148 3fbd
000003b0: 7948 993d 700d 1b3e 6a37 1cbe d976 45be
000003c0: cf81 fcba 3b43 163d a92f 913d 57d3 9a3e
000003d0: 11b8 61be 0799 d2bd 210d 8d3d da1f 1c3d
000003e0: 38f9 b2bd ed45 453e 9179 d43c c980 dc3d
000003f0: 40ab 31be a0cb 57be 6d91 18bd 4a01 57bd
-0.03196319 -0.17782882 0.04278091 -0.16681579 0.22176167 0.093776174 -0.13352719 -0.22284669
0.022511797 -0.25768396 0.017752605 0.12028538 -0.026842855 0.041879643 -0.0985284 0.083110206
0.06910263 -0.2289134 -0.25498304 -0.27664894 0.30586308 0.019125832 -0.061404984 -0.11147684
0.07904599 -0.13550402 0.101347454 -0.022886673 0.069565035 0.052430708 0.1365939 0.04147448
-0.1804803 -0.33579105 0.15438943 -0.09151762 0.19070184 0.15027724 -0.14707614 -0.10350069
-0.14606199 -0.23109616 0.035893627 -0.06914656 0.07438266 -0.015788382 0.015297643 -0.08207357
-0.26212138 0.18403678 -0.0081997905 0.04658181 -0.019342357 -0.062811725 0.14535642 0.04551288
-0.12836812 -0.0021018786 0.18938681 0.1271588 0.004919839 -0.2267026 -0.17321609 0.014911179
0.07923276 0.042780213 0.24877882 0.07627552 -0.17381407 -0.12788609 0.22878031 -0.023163611
0.06581969 0.04615971 -0.25144365 0.05821945 -0.04590078 -0.18683109 -0.10747527 0.074826136
-0.00032349036 -0.14812207 0.18183613 0.22119974 0.0407315 -0.020778278 0.21559308 0.0737229
0.09053397 -0.24399278 -0.117568046 0.1766538 0.078455366 -0.12317967 0.21876256 0.0772109
0.06167135 0.23223121 0.053183347 -0.031247878 -0.13195427 0.019436408 0.22718018 -0.16228934
-0.17406964 -0.22828285 -0.26431808 -0.027701845 -0.16982666 0.06636549 0.16586603 -0.24081467
0.16117585 0.029298838 0.00261679 0.099999584 0.08689433 -0.019409975 0.28014752 0.033355035
0.11370548 -0.009359509 0.042067297 0.026003972 -0.15765522 0.06681447 0.08144483 0.04449375
0.20956326 0.2705149 -0.039771248 -0.03531751 -0.14400138 0.020494692 -0.12020265 -0.17827785
-0.21430461 -0.28654763 -0.040062375 -0.065104075 -0.16035363 -0.08378122 -0.19156249 0.045902733
-0.0326668 -0.10350662 -0.15537745 -0.045315873 -0.13778831 0.029878763 -0.07902795 0.10012013
0.1531274 -0.07247281 0.11521227 0.19033726 0.08987651 -0.10193466 -0.17447981 0.122075275
0.022722567 -0.011780586 0.16366379 0.1325355 -0.065670885 -0.19613731 0.0422917 0.14338098
0.15588525 0.18723206 -0.23640952 0.027398529 -0.076573856 -0.056980822 0.2874548 -0.16782133
0.0372903 0.17230926 -0.022395317 -0.11592789 -0.19862598 0.19010828 0.1116868 0.29916492
0.13450137 0.19292887 -0.0071743284 0.0011041244 0.0070185796 -0.2393357 0.12506713 -0.11551963
-0.040021136 0.016226202 -0.11523605 0.024066394 -0.2048618 -0.15143567 0.15235828 0.1057068
-0.08585932 0.10205075 -0.052606136 0.17553821 -0.26549292 0.10540027 -0.08391253 0.1603587
-0.050982267 -0.18158296 -0.15837666 0.21458918 -0.057078343 -0.17099798 -0.118462615 -0.00922878
-0.11256601 -0.14659464 0.18762739 0.13974828 -0.11126265 0.03447169 -0.13000043 0.051111497
0.034789 0.14199999 -0.19087037 0.1328868 0.25244352 0.098863885 -0.113304324 0.0655901
-0.15534575 -0.012509326 0.31250194 -0.046700362 0.07484526 0.15141845 -0.15255514 -0.19283618
-0.001926476 0.03668521 0.070891686 0.30239365 -0.22042872 -0.10283094 0.0688727 0.038116314
-0.08738941 0.19264956 0.025936874 0.10766751 -0.17350483 -0.2107377 -0.037248064 -0.052491464

arith.constant16 f4 [150, 50]
00000000: 0036 af3c e217 d0bc ddee 823d fdc9 0c3e
00000010: 6091 6cbb 64d1 1cbe 88d3 473d 754c 533d
00000020: 00d7 d9ba 8817 dd3c 5551 f4bd 76ba 25be
00000030: 54f0 70be 9813 25bc caee 26bd 4019 c9bb
00000040: 32c3 adbc 1a2b e3bd 5bd7 dcbd d6ec bdbb
00000050: a816 ce3d 6674 f03d 90e6 5e3d cce8 9ebd
00000060: 27ae a33d fd66 863d 825a 2ebd 80f1 9fbd
00000070: b279 a93d d37d 893d 4a49 393c 1615 05be
00000080: e7a8 d1bd 9c6a 2abd 93a3 423d 034e 523e
00000090: 1260 1cbe cec6 26bd b280 dfbc 0d5e 9bbd
000000a0: e51e 553d 6604 0bbd 1070 fc3d df30 3fbd
000000b0: 76ad dc3b 1443 e23c 9a3e 1cbe 8bd9 0c3e
000000c0: 81ac 443d 52c1 71bd b83a f1bb 405d 89bd
000000d0: d8fe 92bd c378 953d 6d15 a0bd 7c67 d4bb
000000e0: 7053 19be d889 73bd 070f 8b3c 8cd0 eb3c
000000f0: f905 ccbd db08 003e 83b1 e6bd e473 5f3c
00000100: 5928 f13c 82de 66bd 0420 78bd 7d1f 59bc
00000110: f1e4 3cbd 170a 6ebd 2207 acbb d546 d93b
00000120: e8a8 113e 7668 88be fd06 033e 4d01 1eba
00000130: f25f cabd f360 ac3c cc24 bcbd 1be1 3bbd
00000140: 2da0 58bc f695 c5bc c6d7 debc c8d9 9abc
00000150: 8038 f83c da98 cc3c 1bd5 94bb 3518 c8bc
00000160: a039 9dbc e9c3 d23d 613e 07be 2fcd 9a3d
00000170: d5b4 6ebd a354 1a3d 7200 3abe be34 183e
00000180: e7e2 013d b2be 27bc ef45 c93d 73d6 cdbc
00000190: 8981 0dbc 5897 fd3c 406b 803c 1239 b33c
000001a0: 80df b8bd 12bf 84bd cba0 a13c 3ffc 5a3e
000001b0: 5251 8f3d 366b 723c 8fdd 4e3d 668f 2fbe
000001c0: aa78 36bb 10d1 e03d 86c6 05bc c37f 853d
000001d0: 42c1 0abe cef9 6e3c c1ab b7bd c754 1bbd
000001e0: bf4e abbd 0d0b 243e 0d3b 9dbd fe5a 36be
000001f0: 86dc 10bd 1cf6 87bd fda0 1cbe 9dfa 8c3d
00000200: 7038 14bd c5b0 90bd 039b 92bd a7ec 9bbd
00000210: a1a8 fc3c f66e 0dbc 2ad0 953d 9bcc 193d
00000220: a78f 61bd a776 2fbd 75f9 943c c5ad 29bc
00000230: c2c3 e5bd 3a3a 263a 2423 b73b 9398 5e3c
00000240: e913 11bd a2b9 85bb 040c 6bbc 7473 6cbb
00000250: 960e 1dbe 30a1 83bd cd8e 8b3b 9367 333d
00000260: ebc3 c33d 4065 023d 4b11 9b3d 0719 cfbd
00000270: cb7b a7bd 7e66 d8bd 0cc1 8dbc e113 b33c
00000280: 0080 9c38 0a37 a83d 7e0d 99bd 85eb 68bd
00000290: e81b 7cbb a4eb 073d bed0 00bd fbc4 0f3d
000002a0: e6d9 ab3d c9ac 503d 5011 44ba 62dd 13be
000002b0: 85a2 573d 8f41 bebd 255a 1ebe 36d1 91bd
000002c0: 0024 02bd 13d5 26bd bf64 a23c 0618 8dbc
000002d0: d8b7 f9bd fd8c 593d 6d33 3c3c 6c54 e93d
000002e0: 5df4 1abd eb27 98bd bf0d 81bc 3b4a 233e
000002f0: 111c c43d 8a68 a33c 1386 f13d a223 eebc
00000300: 059b 15bd afaf 863d 4e3d 1b3d dfee ae3d
00000310: 9900 f33d f201 ceb9 dc70 02be 3c31 0dbd
00000320: c306 9e3d b7e4 3fbe 45e3 533e bc44 b83b
00000330: a049 b7bd 71bf 6b3d 3a22 6bbd cad8 d13c
00000340: db6a dfbd 6ad3 533e 2a70 34bc a02a c43b
00000350: a03f dabd 786d 0e3e 72c3 00be 1b42 2dbe
00000360: 6872 a8bc 6a89 20bc 4c62 593d df8e 38bd
00000370: ad1c 0cbc 5120 bd3c 0587 883c 2420 813d
00000380: 6eb7 293d f480 b6bb 9d95 67bd fab3 63be
00000390: d04b 4ebd fefc 153d 7dfb d0bd 1d92 45bd
000003a0: a41a 20bb 083b e53d 02b6 9abd 9cd3 3c3e
000003b0: d198 c2bd 5218 293d 3eab c43d 2ea4 a93b
000003c0: b041 73bb 49be c13c 9da4 3abd 7d3b 5e3d
000003d0: 3996 413d 2aa7 853c 74ff 1bbe 5325 2fbe
000003e0: a3dc d3bd a87c 63bc a031 a03c e88e 9cbc
000003f0: 27aa b23d c4b9 3b3d 5689 943b 404c a33c
0.021388054 -0.025402013 0.06393216 0.13748927 -0.0036097392 -0.15314251 0.048785716 0.051586587
-0.0016619861 0.02698876 -0.11929575 -0.1618441 -0.23529178 -0.010075472 -0.04075507 -0.0061370432
-0.02121124 -0.11092205 -0.10783263 -0.0057960553 0.10062915 0.11740951 0.0544191 -0.07759246
0.07992201 0.06562612 -0.042566784 -0.07809734 0.08275165 0.06713452 0.011308977 -0.12996325
-0.10237294 -0.041605577 0.047519278 0.20537572 -0.15271023 -0.04071694 -0.027283046 -0.07586298
0.052031416 -0.03393974 0.12326062 -0.046677466 0.0067345453 0.027619876 -0.15258256 0.13754861
0.048016075 -0.059022255 -0.007361736 -0.06707239 -0.07177514 0.07298424 -0.07816587 -0.006482063
-0.14973235 -0.05945763 0.016974939 0.028785966 -0.09962077 0.12503378 -0.112643264 0.01363847
0.029438185 -0.056364544 -0.060577407 -0.013252136 -0.046116773 -0.05811509 -0.0052498737 0.0066307583
0.14224589 -0.26642197 0.12795635 -0.00060274155 -0.09881581 0.021042323 -0.09186706 -0.045868974
-0.013221783 -0.024119359 -0.027202498 -0.018902674 0.030300379 0.024975229 -0.0045420057 -0.024425605
-0.019192517 0.10291273 -0.1320739 0.07558667 -0.058277924 0.037678372 -0.18164232 0.1486387
0.03171053 -0.010238336 0.09827792 -0.025126671 -0.008636841 0.030955955 0.01567614 0.0218778
-0.09027004 -0.06481756 0.019729992 0.21385287 0.069979325 0.014796069 0.050504263 -0.17144546
-0.0027842917 0.109773755 -0.008165007 0.06518509 -0.13550285 0.014585925 -0.08968306 -0.037922647
-0.08364629 0.1601984 -0.07677279 -0.17808148 -0.035366558 -0.066387385 -0.15295787 0.06883738
-0.036186635 -0.07064966 -0.071584724 -0.07613497 0.030842127 -0.008632412 0.07315095 0.037548643
-0.05506864 -0.042837765 0.018185357 -0.010356371 -0.112189785 0.0006341074 0.005588906 0.013586181
-0.03541938 -0.004080967 -0.0143461265 -0.0036079558 -0.15337595 -0.064272285 0.0042589665 0.043799948
0.09558853 0.03183484 0.07571658 -0.101121955 -0.081779085 -0.10566424 -0.017303966 0.021860065
7.4625015e-05 0.08213623 -0.074732766 -0.056865234 -0.0038468782 0.03318371 -0.031449072 0.035099965
0.0839117 0.05094603 -0.00074793864 -0.1443992 0.052645225 -0.09289848 -0.15464075 -0.07119982
-0.031772614 -0.040730547 0.01982343 -0.01722337 -0.121932685 0.053112973 0.01148687 0.11393055
-0.0378307 -0.07429489 -0.015753625 0.15946285 0.09575666 0.019947309 0.11793151 -0.029069725
-0.03652479 0.06576478 0.03790026 0.08541655 0.11865348 -0.0003929283 -0.12738365 -0.03447078
0.077161334 -0.18739592 0.20692165 0.005623428 -0.0894959 0.05755562 -0.057405688 0.025616068
-0.10909053 0.20686117 -0.01101307 0.0059865266 -0.10656667 0.13908947 -0.12574556 -0.16919748
-0.020562366 -0.009798387 0.05307226 -0.045058127 -0.008551759 0.023086699 0.016665945 0.063049585
0.041434698 -0.0055695716 -0.056539167 -0.22236624 -0.05036527 0.036618225 -0.102042176 -0.048235048
-0.0024429942 0.111929 -0.075542465 0.18440098 -0.09501804 0.04128296 0.09602974 0.0051770424
-0.003711801 0.023650305 -0.045567144 0.05425595 0.047262404 0.016315062 -0.15234166 -0.17104082
-0.103448175 -0.013884701 0.019554913 -0.019111112 0.0872386 0.045831457 0.0045329733 0.01993382

sequential_6_1/gru_1_1/while/gru_cell_1/Squeeze f4 [150]
00000000: 931c d7bd d277 babd 9d63 b2bd a2c1 dbbd
00000010: e530 b2bd 705f 1b3b 9820 5dbd bc4b 99bd
00000020: 6bb0 b9bd 8f29 dfbd b699 31bd 93b9 b0bd
00000030: d1cd b2bd 5731 dfbd a347 1fbd c84b b4bd
00000040: f2d7 88bd e6a8 5fbd d2aa dabd 82d0 e7bb
00000050: 045d c9bd 488b 8dbd d6f0 4ebd af85 b0bd
00000060: 14ae f039 0d78 aabd 629b 91bd 943b 2ebd
00000070: 1dfe b5bd d6e2 4dbd e26e 13be b1a1 6ebd
00000080: 5fe3 8cbd 98dc b2bd 3a16 aebd d6f0 b4bd
00000090: bc0f 98bd 6dc6 96bd 2ac4 eabd 9558 a8bd
000000a0: 96fb bcbd c07a 82bd d898 76bd 9da8 a3bd
000000b0: e5dd 73bd b242 c4bd ca10 b4bd 58a1 90bd
000000c0: 8aad a9bd 8d51 9ebd bf46 a73d 77c1 57bc
000000d0: a7ad ff3c 760a 453d a7cc 4f3d 12ca 36bc
000000e0: 3a18 3d3c 0760 5e3d b57e e33d 3c56 4e3d
000000f0: c4a5 583b 1b75 933d ab7a 0b3d 32da 653d
00000100: 6bb9 a6bc 1db1 9a3d 40ba 603d cf2c ad3c
00000110: deb6 bf3d 1822 4a3d 2ad1 d23d ab45 123c
00000120: 3c3c 3c3b edf5 423d 7560 92bc bb8a 9b3d
00000130: 139d 833d b20e 853d b6fb 0e3d 7b33 e9bc
00000140: 9888 213d 16d9 4a3d c723 6b3d 32e1 0e3d
00000150: caef 833d 5e0b ce3c 32fd 853d 5e6b 683d
00000160: df0d a83d e107 5e3d c310 993d dc44 443d
00000170: 8475 253d c0d9 5f3d 5933 853d 5c8b ae3d
00000180: 6559 793d 88eb 4a3d b50f 843d 47b6 9b3d
00000190: 7ec9 b73d c212 133c 4e0f 303d b7cb 7e3d
000001a0: 34bd 863d 0145 7d3c 95a1 a93c 79ec 833d
000001b0: 1087 f03d cf9f 833d 0eb4 8c3c 33fa a73d
000001c0: 0c76 623d 70a5 8f3d 2eee 8a3b 678e a73d
000001d0: 2727 8e3d 9e56 143d 857b cb3d 7361 603d
000001e0: acd1 e13d 1545 843c 2f32 ec3c cb3d 743d
000001f0: 6e37 0dbc 9934 b23d ce12 973d d570 9b3d
00000200: b00e 4e3d d7a8 643c fde0 683d a9e6 803d
00000210: fac2 8f3d e7b2 3f3d 5ab7 973d 6ef3 183d
00000220: 4f0b 9c3d 1e0e 8e3d be2f bb3d 6105 8f3d
00000230: ef8c b83d a98b 7c3d c658 623d 90f5 8f3d
00000240: ca0d 973d 9e48 cb3d ddb3 8f3d 102f 7f3d
00000250: ddd8 9e3d d406 ad3d
-0.10503497 -0.09104885 -0.08710406 -0.10730292 -0.08700732 0.0023708008 -0.053986162 -0.07485148
-0.09066852 -0.108965985 -0.04335948 -0.086291455 -0.087306626 -0.10898083 -0.038886677 -0.088035166
-0.06681813 -0.054604433 -0.10677113 -0.0070744166 -0.098321944 -0.069113314 -0.050522648 -0.08619248
0.00045906065 -0.08323679 -0.07109715 -0.042537287 -0.08886359 -0.050265156 -0.14397767 -0.05825967
-0.06879305 -0.08733481 -0.08500333 -0.08834998 -0.07424876 -0.073620655 -0.114631966 -0.08220021
-0.09227674 -0.06371069 -0.060204357 -0.07991145 -0.059537787 -0.095830336 -0.08792265 -0.07062024
-0.08285053 -0.07730398 0.081677906 -0.013168684 0.031210734 0.04810568 0.05073228 -0.011156576
0.011541421 0.054290798 0.11108152 0.05037521 0.0033057788 0.072000705 0.034052532 0.05611629
-0.020352086 0.07553313 0.05486512 0.02113953 0.09361051 0.04934892 0.10293801 0.008927743
0.0028722426 0.047597814 -0.01786826 0.0759482 0.06426444 0.064969435 0.03490802 -0.02846693
0.039436907 0.049523436 0.057407167 0.03488273 0.064422205 0.025151905 0.06542434 0.05674302
0.08205771 0.054206733 0.074739 0.047917232 0.040395275 0.054651022 0.065039344 0.085226744
0.06087627 0.049541026 0.064483084 0.07603126 0.089739785 0.00897664 0.042983346 0.062205996
0.065790564 0.015458346 0.020706931 0.06441588 0.11744511 0.064269654 0.0171757 0.082020186
0.05528836 0.070139766 0.004239819 0.08181458 0.069410615 0.036215417 0.09935669 0.054780435
0.1102632 0.016146222 0.028832523 0.059629243 -0.0086191725 0.087014385 0.073766336 0.075898804
0.050306976 0.01395627 0.05685519 0.06293995 0.07019611 0.046801474 0.074080184 0.037341528
0.076193444 0.069362864 0.091399655 0.06983448 0.09011256 0.061656628 0.055260442 0.07029259
0.07375677 0.0992596 0.07016728 0.06230074 0.07756207 0.08448568

sequential_6_1/gru_1_1/while/gru_cell_1/Squeeze_1 f4 [150]
00000000: 931c d7bd d277 babd 9d63 b2bd a2c1 dbbd
00000010: e530 b2bd 705f 1b3b 9820 5dbd bc4b 99bd
00000020: 6bb0 b9bd 8f29 dfbd b699 31bd 93b9 b0bd
00000030: d1cd b2bd 5731 dfbd a347 1fbd c84b b4bd
00000040: f2d7 88bd e6a8 5fbd d2aa dabd 82d0 e7bb
00000050: 045d c9bd 488b 8dbd d6f0 4ebd af85 b0bd
00000060: 14ae f039 0d78 aabd 629b 91bd 943b 2ebd
00000070: 1dfe b5bd d6e2 4dbd e26e 13be b1a1 6ebd
00000080: 5fe3 8cbd 98dc b2bd 3a16 aebd d6f0 b4bd
00000090: bc0f 98bd 6dc6 96bd 2ac4 eabd 9558 a8bd
000000a0: 96fb bcbd c07a 82bd d898 76bd 9da8 a3bd
000000b0: e5dd 73bd b242 c4bd ca10 b4bd 58a1 90bd
000000c0: 8aad a9bd 8d51 9ebd bf46 a73d 77c1 57bc
000000d0: a7ad ff3c 760a 453d a7cc 4f3d 12ca 36bc
000000e0: 3a18 3d3c 0760 5e3d b57e e33d 3c56 4e3d
000000f0: c4a5 583b 1b75 933d ab7a 0b3d 32da 653d
00000100: 6bb9 a6bc 1db1 9a3d 40ba 603d cf2c ad3c
00000110: deb6 bf3d 1822 4a3d 2ad1 d23d ab45 123c
00000120: 3c3c 3c3b edf5 423d 7560 92bc bb8a 9b3d
00000130: 139d 833d b20e 853d b6fb 0e3d 7b33 e9bc
00000140: 9888 213d 16d9 4a3d c723 6b3d 32e1 0e3d
00000150: caef 833d 5e0b ce3c 32fd 853d 5e6b 683d
00000160: df0d a83d e107 5e3d c310 993d dc44 443d
00000170: 8475 253d c0d9 5f3d 5933 853d 5c8b ae3d
00000180: 6559 793d 88eb 4a3d b50f 843d 47b6 9b3d
00000190: 30d2 b73d f988 0c3c 348c 343d 72a6 7f3d
000001a0: 8b9f 883d 4396 7b3c 935c ff3c a144 823d
000001b0: b335 f93d e816 833d 53dc c93c 934e b93d
000001c0: c04f 5d3d 9530 9c3d d9d4 e93b faaf ad3d
000001d0: eda4 913d 5b59 163d 6f87 cf3d c7e3 753d
000001e0: db50 e23d f8e4 c83c 2a7b 083d 0792 783d
000001f0: 0e94 dcbb 4840 b73d 2ba8 a53d cd99 9b3d
00000200: 81de 573d 205e 883b 976b 613d 6161 873d
00000210: 7b78 903d 98d4 433d c522 9d3d 2c2c 1e3d
00000220: 4829 9c3d fd9d 8a3d 5147 c13d 7bf5 903d
00000230: 1a56 b93d 8413 7a3d ceb0 673d b084 943d
00000240: 042d 9c3d cd41 c93d ddbf a53d 47d6 733d
00000250: c972 953d 7e51 ac3d
-0.10503497 -0.09104885 -0.08710406 -0.10730292 -0.08700732 0.0023708008 -0.053986162 -0.07485148
-0.09066852 -0.108965985 -0.04335948 -0.086291455 -0.087306626 -0.10898083 -0.038886677 -0.088035166
-0.06681813 -0.054604433 -0.10677113 -0.0070744166 -0.098321944 -0.069113314 -0.050522648 -0.08619248
0.00045906065 -0.08323679 -0.07109715 -0.042537287 -0.08886359 -0.050265156 -0.14397767 -0.05825967
-0.06879305 -0.08733481 -0.08500333 -0.08834998 -0.07424876 -0.073620655 -0.114631966 -0.08220021
-0.09227674 -0.06371069 -0.060204357 -0.07991145 -0.059537787 -0.095830336 -0.08792265 -0.07062024
-0.08285053 -0.07730398 0.081677906 -0.013168684 0.031210734 0.04810568 0.05073228 -0.011156576
0.011541421 0.054290798 0.11108152 0.05037521 0.0033057788 0.072000705 0.034052532 0.05611629
-0.020352086 0.07553313 0.05486512 0.02113953 0.09361051 0.04934892 0.10293801 0.008927743
0.0028722426 0.047597814 -0.01786826 0.0759482 0.06426444 0.064969435 0.03490802 -0.02846693
0.039436907 0.049523436 0.057407167 0.03488273 0.064422205 0.025151905 0.06542434 0.05674302
0.08205771 0.054206733 0.074739 0.047917232 0.040395275 0.054651022 0.065039344 0.085226744
0.06087627 0.049541026 0.064483084 0.07603126 0.08975637 0.008577579 0.04407902 0.062414594
0.066710554 0.015355649 0.031172073 0.06360746 0.121684454 0.064008534 0.024641192 0.0904819
0.054031134 0.07626454 0.007135969 0.084808305 0.07111535 0.03670631 0.10133254 0.06003168
0.11050578 0.024523243 0.033320583 0.060686138 -0.0067315167 0.089478076 0.08088716 0.075976945
0.05270243 0.004161611 0.055034246 0.066103704 0.0705423 0.047810167 0.076726474 0.038616344
0.07625061 0.06768415 0.09437431 0.07078072 0.09049626 0.061053768 0.0565651 0.07251871
0.076257735 0.09827004 0.08093236 0.059530523 0.07297284 0.08413981

arith.constant23 f4 [150, 50]
00000000: b29e 3fbc 5da4 b93d 5eb6 97bd 03dd ed3c
00000010: 351b f2bd 6f39 0d3d ef2f a8bd 03a0 e0bc
00000020: b3c5 2b3e 6a41 9bbd 65dd 19be 2c6a 143d
00000030: 6898 0cbe 732e 213c 39b9 a3bd 4534 103e
00000040: 3ca3 d73d 8638 c03d 0f4f 043e a77a 253e
00000050: e4db 1bbe 8998 76bc c0cf 083e 7719 2ebe
00000060: 8f62 b73d 9304 b6bd 559b 8abd 2585 223e
00000070: bf8c df3d 5779 2a3d 4cbb 093e 4aef 80bc
00000080: ec47 c0bd 8201 bcbd 9adf 80bc c4c1 e5bc
00000090: 3f58 873d 80e0 353c 4e12 9b3d d236 11be
000000a0: eb23 1d3e 0bbe a0bd 5d79 0cbc cc2e 91bd
000000b0: b756 003e fe9f f5bd 6573 cc3d 8ab5 03bd
000000c0: b34b 1ebe 1ebd 2c3e bbb4 bdbd 7ccb 43bd
000000d0: f5e8 67bd 76a8 1ebe 7eb8 85bd e4d2 ed3d
000000e0: 2ae0 a6bc 0c08 8cbd d476 063d 077b 87be
000000f0: 842d 25be b2b6 d9bd 22b4 b23d e7d7 29bd
00000100: 763a 09be 4c99 273d e6f0 7cbd 1b5a e4bd
00000110: 9d5d f93d 3d05 11be 45a2 54be eec2 cc3d
00000120: 8de0 86ba 661c 49be 9b45 00be 2c72 e3bd
00000130: 56ae 4dbe 04fe 45be 8a31 883b 611a 61be
00000140: 49f4 eebc 4468 81bc f3a5 01be f3f6 963d
00000150: a790 263b b2d2 a2bd 9d77 50bd 1f4f 50be
00000160: 0e78 753b 75c5 8fbd f333 d6bc 6981 f5bd
00000170: 1c12 2ebe 9184 3a3d 13e7 13be c04a 7ebd
00000180: 8708 2ebd 066c 653c 814d 8cbd 70b9 51be
00000190: 24ad e33d 51c0 6fbe 8097 89bd 9beb 89be
000001a0: 1452 b6bd a378 de3a 1aec 5c3d 3905 ad3d
000001b0: 97dc 1c3c bb01 35be 83e9 81bc eac2 0cbe
000001c0: 94c7 093e 9331 393d d974 06bd 2866 ac3d
000001d0: dbe8 1ebe f01d 08be 509e ef3d 2432 b73d
000001e0: c1e6 103e a77f f43c 76d0 85be c3e8 35be
000001f0: f507 14bd ecb0 983d 9308 3bbe 0b3d 1c3d
00000200: 0ec7 6cbe 6f3b 0e3e b930 e4bd 8c11 63be
00000210: 5005 28be 1ec2 fcbb e58a 3f3c 9c3a 32be
00000220: 6f0a 11be f081 08be 245a 1cbe 0b9a d13c
00000230: 3b48 853e 1aac 9fbc e34f a7bd fa39 c7bd
00000240: f878 873d afe5 5ebd 3150 d1bd fd9b bfbd
00000250: 5783 41be 734f 803c 7fd1 5b3d f5ab 6bbe
00000260: b6c3 53bd 3f84 31bd a249 473c 84f4 04be
00000270: 6213 5d3d 806e 50bd 7866 22bd 74d2 eebd
00000280: 2085 bfbc 7d1c a9bd f86c 153e a8dc 9a3d
00000290: 0ee0 13bd 054c 46be 5c27 a8bd 3430 37be
000002a0: ebde e1bd ed29 32be 5b91 5b3a 3f57 af3d
000002b0: a09c 64be 8157 b9bc 024e 02bd d4d4 f0bd
000002c0: a158 d7bd 42df 68bd 0b7c 00bc c9af eebd
000002d0: 0d1c 42be 577c c6bd 8799 5dbd ade5 4ebe
000002e0: a99f 653d 6290 2bbd e281 063e 1cc8 fabb
000002f0: e958 06bd f82d 913c aa02 6b3b f8f1 f2bd
00000300: 0b49 d03d 1a93 ad3d 4a94 aebd 7a8f 893d
00000310: 49d2 9b3c b3eb 6b3d c4e2 00be ac27 793d
00000320: 3e90 39bd d5cc 27bd 5f82 23be 78f8 333d
00000330: 1b62 b4bd 9c90 db3c 6594 2fbe dd93 09be
00000340: a720 40bb 1248 9fbc 01fd 033e d22d d3bd
00000350: 8c57 2cbd 9289 063e 14ca e43c c039 70bd
00000360: b92f 8dbd 2e0b e5bd 4d4d 26bd 3ba6 d53d
00000370: 0631 b13d 9ba0 623d a1c3 09bd 26fb 2abe
00000380: 039b 1fbc 1f62 22be 9d50 42be 56ef d4bd
00000390: 893a 983c de3c 3fbd 483f cfbc 60fa 613c
000003a0: e44e bebd b0fa c03c cbe1 2b3e efd4 633d
000003b0: 879d 55be e4de 0ebe a279 83be d946 463d
000003c0: 8941 533e 1bb4 cb3d 6610 6bbe bd44 243e
000003d0: 92a1 30bd c437 39be d82f 3a3e e912 4ebe
000003e0: 12ac 57be 1c88 a23d 88c5 d83a 2a8f ebbc
000003f0: 3617 0f3e 572b 44bd 7434 e1bd 9111 acbb
-0.011695551 0.09064553 -0.07407831 0.02903605 -0.118215956 0.0344786 -0.082122676 -0.02742005
0.16774635 -0.07580836 -0.15025862 0.036234066 -0.13730013 0.0098377345 -0.07994313 0.14082439
0.10529181 0.09385781 0.12920783 0.1616007 -0.152206 -0.015051016 0.133605 -0.17001902
0.089543454 -0.08887591 -0.067679085 0.15871103 0.10915517 0.041619625 0.13450354 -0.015739102
-0.09388718 -0.09179975 -0.015731622 -0.028046496 0.066086285 0.011100888 0.07571851 -0.14181069
0.15345733 -0.07848748 -0.008573857 -0.07089004 0.12533079 -0.11993407 0.09982947 -0.03215555
-0.15458564 0.16869017 -0.09262987 -0.04780148 -0.05661865 -0.1549395 -0.0652933 0.1161249
-0.020370562 -0.06837472 0.032828167 -0.2646105 -0.16130644 -0.106305495 0.08725764 -0.041465666
-0.13401207 0.04091768 -0.061753176 -0.11149999 0.121760584 -0.14162154 -0.20765026 0.099981174
-0.001029031 -0.1963974 -0.12526552 -0.11105761 -0.20086035 -0.1933518 0.004156296 -0.21982719
-0.029169219 -0.015796788 -0.12660961 0.073713206 0.002541581 -0.07950343 -0.050895322 -0.20342682
0.0037455591 -0.07020084 -0.026147818 -0.11987574 -0.16999096 0.04553658 -0.14443617 -0.062083006
-0.0424886 0.014002806 -0.0685072 -0.20480895 0.11117008 -0.23413207 -0.067183495 -0.26937565
-0.08902374 0.0016973208 0.0539361 0.08448262 0.009574077 -0.17676441 -0.015858417 -0.13746229
0.1345504 0.045213293 -0.03282628 0.08417922 -0.15518515 -0.1329267 0.117001176 0.089451104
0.14150526 0.029846026 -0.26135606 -0.17764573 -0.0361404 0.0745562 -0.1826499 0.038144153
-0.23122808 0.1388986 -0.111421056 -0.22174662 -0.16408277 -0.0077135703 0.01169083 -0.1740517
-0.14164136 -0.13330817 -0.15268761 0.025586149 0.2603167 -0.019491244 -0.08169534 -0.09727855
0.0661487 -0.054418262 -0.102203734 -0.09355924 -0.18897758 0.015662884 0.053666588 -0.23014815
-0.051700316 -0.04333901 0.0121635515 -0.129839 0.053973563 -0.05088663 -0.039648503 -0.116612345
-0.023378909 -0.08257387 0.1459235 0.07561618 -0.036102347 -0.19364937 -0.08210632 -0.17889482
-0.11028846 -0.17398806 0.00083758467 0.08561563 -0.22325373 -0.022624733 -0.031812675 -0.11759344
-0.105149515 -0.05685354 -0.007842074 -0.11654622 -0.18956013 -0.09691685 -0.054101493 -0.20204802
0.056060467 -0.04188574 0.13135484 -0.0076532494 -0.032799635 0.017722115 0.0035859742 -0.11862558
0.10170182 0.08475323 -0.08524378 0.06716819 0.01902117 0.057597827 -0.12586504 0.06082885
-0.045303576 -0.040966827 -0.15967701 0.04393813 -0.08807775 0.026802354 -0.17146452 -0.13435312
-0.0029316337 -0.019443545 0.12889482 -0.10311474 -0.04207568 0.13138416 0.02792839 -0.058648825
-0.06893868 -0.11183773 -0.040601064 0.104320966 0.086519286 0.055328947 -0.033633832 -0.16697368
-0.0097415475 -0.15857743 -0.18976064 -0.10397212 0.0185826 -0.046688907 -0.02529873 0.013792604
-0.09292391 0.023557037 0.16785352 0.05562299 -0.20860873 -0.13952214 -0.25678736 0.04840741
0.20630468 0.09946462 -0.22955474 0.16041847 -0.043122835 -0.18087679 0.18182313 -0.20124401
-0.21061733 0.07936117 0.0016538361 -0.02875479 0.13973698 -0.047892895 -0.10996333 -0.0052511175

arith.constant24 f4 [150, 50]
00000000: e0b1 253e 58da f0bd cb1e 363d c4cb 203e
00000010: c409 2cbd 0e47 bf3d 9a70 17be 74b5 d03d
00000020: 443d 5c3e 9293 d03d f923 773d 00b2 93b8
00000030: 1861 1ebe 5b4b 383e 0240 8e3d 79b7 ea3d
00000040: 3509 41bd e45a bdbc c005 6cbd e4b0 12be
00000050: 4a6a 8d3d 57c4 bebd 3001 78bd 2083 9d3b
00000060: 92d6 323d 5a6b 10bd 143a d83b 045d bdbd
00000070: c811 b43d 42dc b3bd 50bf 3fbd 72d9 7fbd
00000080: ba35 7bbc b739 d4bd b602 b33d 4ce7 233e
00000090: 2e1d 933d d6ae 7d3d 5610 fc3c f06e d1bb
000000a0: d8a3 ed3b 7cf5 263d f6db 0bbd 5e2e 7dbd
000000b0: 209c 103c 7203 afbd 3818 19be a6a7 f7bc
000000c0: 021d d8bd 5f34 46bd 520b 903d a074 5c3d
000000d0: 0895 61bd 60ce c8bd cd03 1a3d 9500 8b3d
000000e0: ea4b 90bd d968 c93c 4ca9 fbbc 449d 823b
000000f0: a1f2 21bd d688 e2bd 6c72 bbbc 8db1 bebd
00000100: 6c13 16be 3bb8 2fbe 0106 89bd 5576 03be
00000110: 56a2 03bc 29d7 973d 24e7 98bc 5c33 b0bd
00000120: 98fd e33c 502c babd b37a c63d 0db1 843c
00000130: e6d8 bfbd 84d2 b33a cc83 f53d a799 83bd
00000140: a752 0d3c b14b 93bd 4b26 dabc 3957 543e
00000150: a498 afbd da54 b2bd 74a8 3dbc 3a3a d33d
00000160: 3471 aabc ba34 a2bb 300b 3dbd 55a3 613d
00000170: 7612 23be cef2 28bd 1c45 0b3e 9f14 9f3d
00000180: 7f5b 03bc 8895 c9bc c2e1 adbd f775 cfbc
00000190: 8b4e f83c 6aa5 37bd 40ee 943d a1ee 56be
000001a0: dc6a 903c 7f7d 00be 5e4e da3d 1524 f83d
000001b0: eae4 99bb 78a2 e03b ac87 82bb f10e 093d
000001c0: d48c b23d 144e ef3d 18ec e7bc d652 943b
000001d0: 3118 c7bc ea25 01be e15e ae3d 8adb 7f3d
000001e0: c715 04be b2ba 2cbd 0644 bebb 0b40 02be
000001f0: 2ba6 5a3d 4c6c efbc 33bc 043d 797c 2abd
00000200: dc1d 333b 2616 bd3d f2fa 8f3d e92a 2dbe
00000210: aa5f a43c 7deb 103c 648a 0bbd 3045 cbbd
00000220: c44d 47bb 5319 f03d 876c b4bb 2beb 8bbd
00000230: 6032 97bc 1976 0bbe 5bc0 5e3d b489 863b
00000240: 2f31 38bd 8eb3 1bbe 0762 ea3d 6eb6 a63d
00000250: 84cc 55bd b155 973d 6de5 c8bd 54a3 bfbc
00000260: a4f6 3dbe 0018 febc 6ee1 3fbd 931a c03d
00000270: 5837 c1bd c586 c3bd 2a3f c33c a0b3 b3bd
00000280: f8bd c93b 9215 c8bd 3741 8c3d a117 9fbc
00000290: cdfa 3e3d 585b 3e3a 3ea0 683c 6665 743c
000002a0: 065c 1bbd 988b b73d f093 083e 1447 1d3c
000002b0: f5ca 113d c837 04bd d1d2 563d 1ce7 873d
000002c0: 35dc 733d b49d 693c 4387 4fbd c4bc f0bd
000002d0: 24fb 1ebd 14ff c33d cc90 623d 1ee9 6c3d
000002e0: 9943 213d 30f4 b63c ec1c b7bc 102b 8b3c
000002f0: 7f51 133e b03e e9bd 11ba c1bd f8a0 a6bd
00000300: 585f 993d 90f3 233d 83c0 3d3d da10 65be
00000310: 1861 d23a ed96 d13d 8278 9ebc 048e d83d
00000320: ee34 94bd 37fe 4e3c 908e d8bd ebe4 d4bd
00000330: b055 823d b770 a1bd 3fa8 55bd 0a6d 603c
00000340: 1bce c73d 8130 093e 21f9 0e3e ff49 1a3d
00000350: e3f0 2b3e facb 17be c62a 733c d04c 6d3d
00000360: 46b1 903d 20c7 e73c 0f46 123d dcfb 453d
00000370: 57b6 f5bd 7628 c23d 8229 83bd 4011 1a3c
00000380: f816 993c e71e ffbc 1b38 a33d ccfc fbbd
00000390: f9f8 04be d8c0 4abd c33e 60bd 6b97 1a3e
000003a0: 3cec 3dbd a202 15be 2334 f03d 3267 0e3c
000003b0: fc0d 17be 6a92 5fbd 424c ba3d 1405 2fbd
000003c0: d465 c73d db6c be3d 74fd 3cbd d227 74bd
000003d0: 5401 433e a0a1 e43d ed01 783d 326b 87bd
000003e0: 5b52 aa3b 58c5 8e3d 0545 0abe dccc 143c
000003f0: b552 a8bd b8f6 95bb 08ca 0fbc 501d f43d
0.16181135 -0.11760396 0.04446296 0.1570273 -0.0420015 0.093397245 -0.14789048 0.101908594
0.21507746 0.10184397 0.06033704 -7.042661e-05 -0.15466726 0.17997496 0.06945802 0.11460776
-0.04712792 -0.02311463 -0.05762267 -0.14325291 0.06905039 -0.093147926 -0.060548007 0.004806891
0.04366166 -0.03525863 0.0065987203 -0.09246257 0.08792454 -0.08782245 -0.04681331 -0.06246323
-0.015332634 -0.10362571 0.087407514 0.16006202 0.071833 0.061934315 0.030769508 -0.0063913986
0.0072521977 0.040761456 -0.034145318 -0.061811797 0.008826286 -0.08545579 -0.14950645 -0.030231308
-0.10552408 -0.04838979 0.07033409 0.05382216 -0.055073768 -0.09804988 0.03760128 0.067872204
-0.070457295 0.024586128 -0.030720375 0.0039860327 -0.03953803 -0.11061256 -0.022881709 -0.09311209
-0.14655846 -0.17160122 -0.06690598 -0.12838109 -0.008034309 0.074140854 -0.018664904 -0.08603546
0.027830884 -0.09090483 0.09691372 0.016197706 -0.09367542 0.0013719355 0.11988029 -0.06425791
0.008625663 -0.07192171 -0.026629588 0.20736398 -0.08574036 -0.087075904 -0.011575807 0.1031384
-0.020805933 -0.004950133 -0.046153247 0.055087406 -0.15925011 -0.04124718 0.13600582 0.07767605
-0.00801742 -0.024607435 -0.084903255 -0.025324805 0.03031089 -0.044835486 0.07272005 -0.20989467
0.01762908 -0.12547873 0.106594786 0.12116257 -0.004696478 0.0068553053 -0.0039834585 0.033461515
0.08718267 0.11684814 -0.02831082 0.0045264764 -0.024303528 -0.1261212 0.085141905 0.06246523
-0.12898932 -0.042170234 -0.005806449 -0.12719743 0.053381126 -0.029226445 0.032406043 -0.041622613
0.002733103 0.0923274 0.07030286 -0.169109 0.020065147 0.008845207 -0.034067526 -0.09925306
-0.0030411342 0.1172358 -0.0055061015 -0.06831964 -0.018456638 -0.1361927 0.054382663 0.004105771
-0.04496878 -0.15205213 0.114444785 0.081402645 -0.052196994 0.07389391 -0.098093845 -0.02339331
-0.18551117 -0.031017303 -0.046845846 0.09380069 -0.09434384 -0.095471896 0.02383383 -0.08774495
0.0061566792 -0.09769739 0.06848376 -0.019420447 0.0466259 0.0007261536 0.014198361 0.014916753
-0.037929557 0.08962172 0.13337684 0.009599466 0.035593946 -0.03227976 0.052447144 0.066358775
0.059536178 0.014258791 -0.050666105 -0.11754754 -0.038813725 0.09570137 0.05531387 0.057839505
0.039371107 0.022333235 -0.022352658 0.016988307 0.14386557 -0.1138891 -0.094593175 -0.08136171
0.074888885 0.0400272 0.04632617 -0.2236971 0.0016050665 0.10233865 -0.019344572 0.10573962
-0.07236658 0.012633852 -0.10574067 -0.10395225 0.06364 -0.07882827 -0.052162405 0.013697872
0.097561084 0.13397409 0.13962223 0.037668224 0.1679111 -0.14823905 0.014841741 0.057934582
0.07065062 0.028293192 0.035711344 0.048335895 -0.11997669 0.094803736 -0.06404401 0.009403527
0.01868771 -0.031142665 0.07969686 -0.123040766 -0.129856 -0.049500316 -0.054747354 0.15096824
-0.04636787 -0.14551786 0.11728694 0.008691596 -0.14751428 -0.05458299 0.09096576 -0.042729452
0.09736219 0.09298106 -0.04614015 -0.059608288 0.19043475 0.1116364 0.06054871 -0.06612243
0.005197806 0.06971234 -0.13502891 0.009082045 -0.082189 -0.0045765303 -0.008776195 0.119196534

sequential_6_1/gru_2_1/while/gru_cell_1/Squeeze f4 [150]
00000000: 7cbb ee3b be07 b0bd 810e a0bd f507 8fbd
00000010: 6239 9abd f541 cdbd 0000 0000 1c14 a2bd
00000020: aa0f 94bd bc88 a3bd b318 60bd 9afc 9bbd
00000030: 1809 9fbd 170a 72bc d362 a4bd 3779 b1bd
00000040: 8f60 d6bd 8741 ddbd ca2e 6f3c f249 c8bd
00000050: f236 b5bd 0621 dfbd 313e 9abd ef01 b0bd
00000060: 7fa8 6fbd a597 213c a950 97bd 9094 b1bd
00000070: 7e80 84bd a58f 9ebd 8e18 a7bd 0000 0000
00000080: c87f 7abd c28c ccbd 4ee4 97bd 001d bebd
00000090: 4992 86bd 4d35 9abd 1213 98bd 0df3 99bd
000000a0: fae9 a0bd 744c 88bd 3446 9bbd a99b 9cbd
000000b0: 7cf7 d0bd ab6a 37bd 239d c0bd 8be6 243b
000000c0: 829c 96bd 6b8a 0e3c c878 143b 0416 493d
000000d0: 4845 6b3d 9641 6d3c 0d83 743d 76b6 113d
000000e0: 0000 0000 4479 893d 325b 813d c9fe 4c3d
000000f0: c61e 1d3d 78b5 933d 9454 8c3d 2bc2 b0bb
00000100: 03c1 453d 6d97 513d 965d 873d 3c4a 653d
00000110: 983d 093c a929 4e3d 6a73 543d 62d2 763d
00000120: 3e88 723d dd90 273d 1c9a e93c aac4 223b
00000130: 0deb 3b3d 01dc ef3c 7ea9 563d 5974 653d
00000140: 8785 953d 0000 0000 0f1a 013d 243d 873d
00000150: d412 6b3d 13a7 aa3d a322 1c3d 9441 1f3d
00000160: a8e0 583d a42f 473d dc5e 573d da66 e13c
00000170: 2380 2b3d 6acd 703d 24f7 c43d 4810 c13c
00000180: 183b 8d3d f529 c639 c261 4c3d 4e3a 0d3b
00000190: 7583 6ebc a622 713d 1399 853d 71db df3c
000001a0: e059 823d 2c5d 3c3d 0000 0000 7f41 913d
000001b0: b77a 903d 99a4 6d3d 4376 4e3d 6b4a 993d
000001c0: 8387 943d b0c4 113c 5a19 633d 7cfb 693d
000001d0: 649c 903d 252e 7e3d b8b3 95bc 9d23 5c3d
000001e0: 2c62 733d 96be 893d e5a6 8e3d b981 4d3d
000001f0: 49d0 2d3d fdc5 72bc 9abf 623d 1df4 2f3d
00000200: 5c2d 773d 6bce 783d 8c89 9d3d 0000 0000
00000210: 57bc 553d 302e 903d 99a2 813d 9a8c ae3d
00000220: 4de9 3b3d 90b6 503d c28c 7b3d c147 6d3d
00000230: c798 723d 7ecf 323d d035 583d d379 873d
00000240: d6a3 c03d 27b0 023d b2da 973d 7cd4 0abc
00000250: 1555 6e3d 148e 56bc
0.0072855335 -0.08595227 -0.078152664 -0.069839396 -0.07530476 -0.10022346 0.0 -0.07913992
-0.0722955 -0.079850644 -0.054711055 -0.07616539 -0.07765406 -0.014772913 -0.08026662 -0.08665698
-0.10467636 -0.10803514 0.014598558 -0.09779729 -0.088483706 -0.108949706 -0.07531393 -0.08594119
-0.0585103 0.009862815 -0.073884316 -0.08670914 -0.064698204 -0.07742242 -0.0815898 0.0
-0.061157018 -0.09987785 -0.074165925 -0.09282875 -0.065708704 -0.075296976 -0.074255124 -0.075170614
-0.078571275 -0.06655207 -0.075817496 -0.07646877 -0.10203454 -0.04477946 -0.094049715 0.0025161828
-0.0735407 0.008699994 0.0022655 0.04909326 0.05743912 0.014480969 0.059695292 0.0355744
0.0 0.06712583 0.06316222 0.05004767 0.038359426 0.07212347 0.068520695 -0.0053942404
0.048279773 0.0511698 0.06609647 0.055979 0.0083765015 0.0503327 0.05186788 0.06025923
0.059211962 0.040909637 0.028515868 0.002483646 0.04587846 0.02927971 0.052407734 0.05601916
0.07300859 0.0 0.031518992 0.066034585 0.057391003 0.08332648 0.03811897 0.0388809
0.052948624 0.048629418 0.0525807 0.027514864 0.041870248 0.058789648 0.09617451 0.023567334
0.06896037 0.00037796763 0.049897917 0.0021549645 -0.014557709 0.058870934 0.06523337 0.027326318
0.063647985 0.045987293 0.0 0.070925705 0.07054656 0.0580183 0.050405752 0.07484897
0.07252409 0.008896992 0.0554441 0.0571246 0.07061079 0.062055726 -0.018274173 0.0537449
0.059419796 0.067258045 0.06965426 0.05017254 0.042434964 -0.014817712 0.055358507 0.042957414
0.060345992 0.06074373 0.076922506 0.0 0.052181568 0.070400596 0.06329841 0.08522911
0.04587679 0.050955355 0.061413534 0.057929758 0.05922773 0.04365491 0.052785695 0.06615033
0.09406249 0.031906273 0.0741476 -0.008473512 0.05818661 -0.0130953975

sequential_6_1/gru_2_1/while/gru_cell_1/Squeeze_1 f4 [150]
00000000: 7cbb ee3b be07 b0bd 810e a0bd f507 8fbd
00000010: 6239 9abd f541 cdbd 0000 0000 1c14 a2bd
00000020: aa0f 94bd bc88 a3bd b318 60bd 9afc 9bbd
00000030: 1809 9fbd 170a 72bc d362 a4bd 3779 b1bd
00000040: 8f60 d6bd 8741 ddbd ca2e 6f3c f249 c8bd
00000050: f236 b5bd 0621 dfbd 313e 9abd ef01 b0bd
00000060: 7fa8 6fbd a597 213c a950 97bd 9094 b1bd
00000070: 7e80 84bd a58f 9ebd 8e18 a7bd 0000 0000
00000080: c87f 7abd c28c ccbd 4ee4 97bd 001d bebd
00000090: 4992 86bd 4d35 9abd 1213 98bd 0df3 99bd
000000a0: fae9 a0bd 744c 88bd 3446 9bbd a99b 9cbd
000000b0: 7cf7 d0bd ab6a 37bd 239d c0bd 8be6 243b
000000c0: 829c 96bd 6b8a 0e3c c878 143b 0416 493d
000000d0: 4845 6b3d 9641 6d3c 0d83 743d 76b6 113d
000000e0: 0000 0000 4479 893d 325b 813d c9fe 4c3d
000000f0: c61e 1d3d 78b5 933d 9454 8c3d 2bc2 b0bb
00000100: 03c1 453d 6d97 513d 965d 873d 3c4a 653d
00000110: 983d 093c a929 4e3d 6a73 543d 62d2 763d
00000120: 3e88 723d dd90 273d 1c9a e93c aac4 223b
00000130: 0deb 3b3d 01dc ef3c 7ea9 563d 5974 653d
00000140: 8785 953d 0000 0000 0f1a 013d 243d 873d
00000150: d412 6b3d 13a7 aa3d a322 1c3d 9441 1f3d
00000160: a8e0 583d a42f 473d dc5e 573d da66 e13c
00000170: 2380 2b3d 6acd 703d 24f7 c43d 4810 c13c
00000180: 183b 8d3d f529 c639 c261 4c3d 4e3a 0d3b
00000190: 590f 6ebc 5067 783d 505a 863d 52d2 ec3c
000001a0: 993f 863d 8014 403d 0000 0000 abc2 913d
000001b0: 52ee 913d 4307 713d 56bd 4f3d 45db 9a3d
000001c0: 7ae8 953d 23df 163c 29b1 6a3d b7a7 713d
000001d0: 890e 963d d049 853d 6ab2 95bc 258e 623d
000001e0: a92c 783d 9037 903d 47e9 8f3d 0eba 523d
000001f0: 60d6 2d3d b7ee 79bc 532e 6c3d 4353 363d
00000200: de51 7c3d 96e2 803d a8c2 9e3d 0000 0000
00000210: e967 5d3d 3b57 923d 7db8 813d 3fc4 b13d
00000220: 209f 463d 155e 4f3d 9aca 803d 3329 703d
00000230: 99a9 7a3d 2502 3d3d 880f 5f3d f65c 8a3d
00000240: 6d1b c13d a967 083d 17ce 973d f5fc 08bc
00000250: f02f 773d ceb2 57bc
0.0072855335 -0.08595227 -0.078152664 -0.069839396 -0.07530476 -0.10022346 0.0 -0.07913992
-0.0722955 -0.079850644 -0.054711055 -0.07616539 -0.07765406 -0.014772913 -0.08026662 -0.08665698
-0.10467636 -0.10803514 0.014598558 -0.09779729 -0.088483706 -0.108949706 -0.07531393 -0.08594119
-0.0585103 0.009862815 -0.073884316 -0.08670914 -0.064698204 -0.07742242 -0.0815898 0.0
-0.061157018 -0.09987785 -0.074165925 -0.09282875 -0.065708704 -0.075296976 -0.074255124 -0.075170614
-0.078571275 -0.06655207 -0.075817496 -0.07646877 -0.10203454 -0.04477946 -0.094049715 0.0025161828
-0.0735407 0.008699994 0.0022655 0.04909326 0.05743912 0.014480969 0.059695292 0.0355744
0.0 0.06712583 0.06316222 0.05004767 0.038359426 0.07212347 0.068520695 -0.0053942404
0.048279773 0.0511698 0.06609647 0.055979 0.0083765015 0.0503327 0.05186788 0.06025923
0.059211962 0.040909637 0.028515868 0.002483646 0.04587846 0.02927971 0.052407734 0.05601916
0.07300859 0.0 0.031518992 0.066034585 0.057391003 0.08332648 0.03811897 0.0388809
0.052948624 0.048629418 0.0525807 0.027514864 0.041870248 0.058789648 0.09617451 0.023567334
0.06896037 0.00037796763 0.049897917 0.0021549645 -0.014530026 0.0606454 0.065601945 0.028908882
0.06555099 0.04689455 0.0 0.07117208 0.07125534 0.058844816 0.050717674 0.075613536
0.07319732 0.009208473 0.05729786 0.058997836 0.07326991 0.06508219 -0.018273551 0.05531134
0.060589466 0.07041848 0.07026916 0.051446967 0.042440772 -0.015254668 0.057661366 0.044513
0.061601512 0.06293218 0.077519715 0.0 0.054054175 0.07145544 0.063340165 0.08680009
0.048491597 0.050626833 0.06288643 0.05863304 0.061196897 0.046144623 0.05445817 0.06756012
0.09429059 0.033301983 0.074123554 -0.008361091 0.06034845 -0.013165189

arith.constant31 f4 [150, 50]
00000000: aac5 1cbe 6bf5 52bd 0a77 bcbd d11f 22be
00000010: 4859 f2bd f0ce 473e 8052 0a3e 5672 39be
00000020: d73d 15be 9be5 45bd 0629 ccba c4ed 8e3c
00000030: 207f 64be 8ea9 983c 9cc1 40be 047f 3cbd
00000040: e2df 7b3d c427 1e3c cf6d bdbd f041 c1bd
00000050: e7c8 c7bd ca22 003e 8a9e 91bd 47fb 0fbe
00000060: 1adc 12be 7d62 f2bd 8859 753d 2cef a7bd
00000070: 6240 12be 1778 7ebe 8167 4dbe 0888 78bd
00000080: 3329 473e fb74 263d a98c 1fbd 7d17 5dbe
00000090: 7fde 8cbd 5441 a7bd f831 4fbe 1a58 cbbc
000000a0: 5e7c 1dbe 19eb 46be 9f95 60be 59a1 6fbe
000000b0: b40e 93bd 33a9 5dbd 0a84 bebd ade2 e6bc
000000c0: 7fad 843d bf8b 3abd 94bf d63d 262a ba3d
000000d0: 6350 50bd 58f8 dbbc c1e9 223e d722 1c3e
000000e0: 2f3c bdbd d1b6 103e 89ce 303e eaa5 2f3e
000000f0: a816 1a3e c170 e3bd 0bcb efbd d1bf 8cbd
00000100: 0156 f43d 0963 6cbd 471c 1c3e c0ee c63b
00000110: be36 9ebd b0d6 f23c ea65 c1bd 22f5 c8bd
00000120: 39dc 063e accb e6bd f37e 4f3d e482 243e
00000130: cf55 80bd 5ec3 a5bc fcfd c63d ef42 a1bc
00000140: 7202 2cbe 5cc8 6ebd 75a4 d2bd 3f85 0dbe
00000150: a4ca 01be 668a c0bc a850 20be d8a2 0a3e
00000160: 6645 043e 5a7e 0bbe e0aa 553d 2839 1fbd
00000170: 5a03 89bd 7126 26bc 948b 12be b48d 273e
00000180: 5dff 5e3d 544f e93d 7575 243c 02f3 d43d
00000190: f326 b3bd 5516 ea3c 4166 4cbc 6048 c3bd
000001a0: f450 413d 155e 0a3e 4ae3 febd 958c 883d
000001b0: 5457 2fbe ccfc 6b3c f039 ef3c 1369 22be
000001c0: 29a9 8c3d 367d 273e 46d3 1ebe ffe5 e9bd
000001d0: 282f 263d 9031 21bc 6769 82bd c7a1 0fbd
000001e0: e57c aebd 42fb e73d 5c19 f2bc 20e0 02bc
000001f0: e489 5c3d 8c8a f63d ba5e da3c 80ce ad3a
00000200: 17fb d03d f6a9 d13d fa5b 0bbe 6c1a 4f3d
00000210: 24f3 023d a9bb 22bd 9c2b 0abe 8073 173e
00000220: acf7 19be 5ba9 953d 56fe 9bbd 123d f9bc
00000230: a576 0abe 8ea0 84bd 9ff5 21be 252a 723d
00000240: effc 013e f63f 153e 3746 4ebd 08ac a7bc
00000250: c67e f6bd a68d 8e3d e4ac 1abe 2356 793d
00000260: ae2e 21be b986 a03c bbe9 833d ad71 b53c
00000270: cc91 303e ad2f 48be cdbd c1bd 4ede eabd
00000280: cd3b 62be f16c 74bd e793 cbbd b1a4 2ebe
00000290: ff85 4cbd e635 50be 97d2 973c 6c70 aa3d
000002a0: d452 ebbd e2d9 3c3e 0198 ae3d 741a 2bbd
000002b0: 3534 85bd 8a74 4cbd 80f4 883d 0059 6dbb
000002c0: dfbe 44be 81a4 ac3d 7a6f fbbd bed4 8abd
000002d0: 7333 853b a2c1 023e 6a3c 9cbd 505a 473e
000002e0: c88f cdbd 1230 27be 4e71 7e3b 07a5 fdbd
000002f0: e202 4dbe bc1c b33d 44d3 69be 531c 31be
00000300: 254b 5abd 0887 32be 94c0 6abe 3954 943d
00000310: f027 09bc bd17 f93d f8d0 19be 304e 2c3d
00000320: aa0c 503d 3925 f4bd 6434 34be 79ee 0fbd
00000330: 15e5 4ebe 306d ecbd 48a0 29bd dd32 ff3b
00000340: bbde 79be 61a1 c2bd 7517 043e b012 02be
00000350: 4a69 b0bd 26c1 693d 5d30 d2bd 56bb 21bd
00000360: cfd2 53be 1a1c c1bd d7b4 91bd e0c6 edbc
00000370: f4c8 0b3e ead6 86bd 4ffc 143d 7b30 ae3d
00000380: 6e91 7dbd 86fd 293e f194 4ebe b729 0fbd
00000390: 38e0 18bb ad73 43bc 4e5a ad3d 707e d23c
000003a0: 54f0 afbc 427a 5f3d 42c9 7b3d 35eb 65be
000003b0: 6a24 5abe ac08 033d 2f2b 803d 5720 acbd
000003c0: 3e31 19be 966e 2ebe 6d7e babd 899f 9c3d
000003d0: fc41 dabb e95f 13be 30ff 45bc 7e7a 07be
000003e0: 2ef5 48bd a127 763d e002 7c3d 5e60 2fbe
000003f0: 4c3d 80be 310a 66be 51a5 8bbd a38c c9bd
-0.15309778 -0.05150358 -0.092023924 -0.1583245 -0.11833435 0.19512534 0.13508034 -0.18110022
-0.14574371 -0.048314672 -0.0015576191 0.01744736 -0.2231412 0.018635537 -0.18823856 -0.04601957
0.06149281 0.009653036 -0.0924946 -0.09436405 -0.09755116 0.12513271 -0.07110317 -0.14060698
-0.14341775 -0.118351914 0.059899837 -0.08199915 -0.14282373 -0.24850498 -0.20059015 -0.060676605
0.1944931 0.040638905 -0.038952503 -0.21590991 -0.06878375 -0.08166757 -0.20233905 -0.024822284
-0.15379474 -0.1942562 -0.21932076 -0.23401393 -0.07180539 -0.05411644 -0.09302528 -0.02818426
0.06478404 -0.04554343 0.104857594 0.090900704 -0.050857913 -0.026851818 0.15909483 0.15247665
-0.09239995 0.14132239 0.17266287 0.17153135 0.15047705 -0.111054905 -0.11708649 -0.068725236
0.119304664 -0.057711635 0.15245162 0.0060709417 -0.07725285 0.029643387 -0.09443267 -0.098123804
0.13169946 -0.11269316 0.050658178 0.16065556 -0.06266367 -0.02023476 0.097164124 -0.019685237
-0.16797808 -0.058296546 -0.10285274 -0.1382036 -0.12674958 -0.023503494 -0.15655768 0.13538682
0.12917098 -0.13622418 0.052164912 -0.038872868 -0.066900924 -0.010141001 -0.14311057 0.16362649
0.054442752 0.11392084 0.01003777 0.103979126 -0.08747663 0.028575102 -0.012475551 -0.09535289
0.047196344 0.13512452 -0.12445696 0.06667439 -0.17123157 0.014403533 0.029202431 -0.15860395
0.06868202 0.16356358 -0.15510282 -0.114208214 0.040572315 -0.009838477 -0.0636776 -0.035066392
-0.085199155 0.113272205 -0.029553108 -0.007988006 0.05384244 0.120381445 0.026656497 0.0013260394
0.102041416 0.102374956 -0.13609305 0.050562307 0.03197016 -0.039729748 -0.13493198 0.14790154
-0.15035886 0.073076926 -0.0761687 -0.030424628 -0.13521822 -0.06475936 -0.15816353 0.059122223
0.12694143 0.1457518 -0.05035993 -0.020467773 -0.12035899 0.06960611 -0.15105015 0.060873162
-0.15740463 0.01959549 0.06441065 0.022148931 0.17243117 -0.19549437 -0.0946003 -0.114681825
-0.22093125 -0.059674207 -0.099403195 -0.17055012 -0.049932476 -0.2033306 0.018533034 0.08322224
-0.114904076 0.1844249 0.08525086 -0.041773275 -0.06504098 -0.049915828 0.0668726 -0.0036216378
-0.19213437 0.08429814 -0.12277122 -0.067788586 0.004064971 0.12769178 -0.076287106 0.19468045
-0.1003719 -0.16326931 0.003882486 -0.12384992 -0.20020631 0.08745715 -0.22834498 -0.17295961
-0.05329432 -0.17434323 -0.22925025 0.07242627 -0.008371338 0.12162731 -0.15021122 0.042066753
0.050793327 -0.11921162 -0.1759811 -0.035139535 -0.20204575 -0.11544263 -0.04141262 0.007788046
-0.24401371 -0.09503437 0.12899573 -0.12702441 -0.08613832 0.057068966 -0.10263131 -0.039485298
-0.20685886 -0.09429188 -0.071145706 -0.029025495 0.13650876 -0.0658396 0.036373433 0.08505341
-0.06190627 0.16600618 -0.20174004 -0.03495189 -0.0023327004 -0.011929435 0.0846449 0.025695056
-0.021476902 0.054559954 0.06147123 -0.22453006 -0.21302953 0.031990692 0.062582366 -0.08404606
-0.1496019 -0.17034373 -0.09106145 0.076476164 -0.006660698 -0.14392056 -0.012084767 -0.13230321
-0.049061947 0.060096387 0.06152618 -0.17126605 -0.25046766 -0.22464825 -0.06818641 -0.098412775
