models/tflite/GRU/GRU-Dropout.tflite (tflite, 114852 bytes, 10 tensors)

arith.constant3 f4 [2, 50]
00000000: bcd6 b2be 6b5b 75be b225 943e 2157 b93e
00000010: 2b1a 3cbc fd3a 943d 2200 71bc bbb6 7c3c
00000020: d4f8 42be a469 b5be a4c6 6c3d fa2f 9fbe
00000030: 58ff c7be 7a42 ddbe 7380 423e 5761 c13e
00000040: bff1 2c3e 2585 6dbe 94ae b43e df16 303e
00000050: c0ed b13e 214e b83e 18ac 833d f536 c83d
00000060: a115 ddbd 44e7 cabe 6990 f93c cd90 22bd
00000070: f290 693e 37e1 043f 2a1e c63e ac45 f33e
00000080: e266 d83e 2cfe bf3e b747 fe3e c857 e73e
00000090: 99b6 bf3b cc0a ccbb e159 e33e f65e 193d
000000a0: d399 af3e 1a7a 8ebe 0168 76be 2062 d7be
000000b0: 73b6 eabe 0c7a d03e c492 df3e af18 6abe
000000c0: 62ce 923e a87e c53d af83 ee3e 217b f63c
000000d0: 9930 c1bd 856a aebe 7184 e53e e9ec b33e
000000e0: 8f94 cabe 32bd a13e 90cf dc3e 2be4 7fba
000000f0: 0e29 d5be 73a1 773d 8c04 db3c 2889 033e
00000100: d69d 8cbe ee71 d0be d52f 52be 82be 23be
00000110: a905 f7be 7fd9 8cbe ea2f 91bd 3bc5 a7bd
00000120: dbae a8be 4b0b 043e bd37 b33e 14ce 263e
00000130: 5e73 913e 3837 f2be a8df d0be f758 85bc
00000140: c670 84be 8165 1d3d 1b54 8fbd f701 0ebf
00000150: 7983 21be 6a10 2f3d 44a9 2a3e 5d77 8e3e
00000160: aa81 2cbe a3bf d43e 2177 24be bf7d 813e
00000170: e6f9 0c3d 884e ba3e 8722 c03e 5a89 b3bc
00000180: eb4e bcbe ce6d 5c3e 6fdd 84be ddb4 a3be
-0.34929454 -0.23960654 0.2893501 0.36199287 -0.011480848 0.072378136 -0.014709504 0.015424426
-0.19040233 -0.3543216 0.057806626 -0.3109129 -0.39062 -0.4321478 0.18994312 0.37769577
0.16889094 -0.23195322 0.35289443 0.17196225 0.347517 0.35997108 0.06429309 0.09776107
-0.10795141 -0.39629567 0.030464368 -0.039688874 0.22809198 0.5190615 0.38694888 0.47514093
0.42265993 0.37498605 0.4966409 0.4518416 0.0058506248 -0.006226873 0.4440451 0.037444077
0.34297046 -0.2782753 -0.24063112 -0.4206705 -0.45842323 0.40718114 0.4366666 -0.22860979
0.28673083 0.096432984 0.46584842 0.03008801 -0.094330974 -0.34065643 0.44827607 0.35141686
-0.39566466 0.31589657 0.43127108 -0.00097614777 -0.41632885 0.060456704 0.026735567 0.1284529
-0.2746417 -0.4071192 -0.20526059 -0.15990642 -0.48246506 -0.27509686 -0.07089217 -0.081919156
-0.32945904 0.12894933 0.35003462 0.1628955 0.2840833 -0.47307754 -0.40795636 -0.016277773
-0.2586729 0.03842688 -0.06998464 -0.5547175 -0.15772809 0.042740263 0.16666132 0.27825442
-0.16846338 0.41552457 -0.16061069 0.2529125 0.03441801 0.3638804 0.37526342 -0.02191608
-0.3677896 0.21526262 -0.2595019 -0.31973925

arith.constant4 f4 [2]
00000000: df0c 113d e00c 11bd
0.035412665 -0.03541267

arith.constant15 f4 [150, 3]
00000000: fe8d 66be 0bc3 1e3d 2366 873d 4309 3a3d
00000010: 72b6 a4be b22d 6e3d 3dd6 9bbd 4b64 83be
00000020: d4e2 1f3e b2d5 80bd 9c59 943e 0a85 843d
00000030: c10e 89bc 5bf1 04be a67e c7bd 04cd 173e
00000040: 88b8 29be c6aa f33d 6f84 2f3d 29ba 803e
00000050: 0e8e 7cbd 1de0 2d3e 8c28 973c 1db5 21be
00000060: 9899 9ebe 7162 3f3e 3cca 83be 9835 99be
00000070: b357 4b3e a6d3 583d fb42 0fbe f633 ccbd
00000080: 2c1e 0f3e 86f4 94bd 11b8 a83c 297b b83d
00000090: 93b8 f4bd 9edc 8f3e fa30 643c e371 913d
000000a0: e125 08be 6f1d 7fbd 003e 2dbe 5ba7 32bd
000000b0: c3be 19be 077c d6bc 050d 63be aed8 983e
000000c0: b8cd 9fbd 0dd2 a93e 52d3 e5bc 6560 18bf
000000d0: 15fe 083e d27d 5d3d 64c5 2cbd 40dd 8bbe
000000e0: fd69 c53e e1b3 b1bc 3221 c4be 6918 363f
000000f0: 4457 e6be 8127 7e3e b0d9 283f baff d4bd
00000100: 3441 373e 96fa 31bd 3fc5 ecbe 577b 543e
00000110: 900c 3dbe 26be 30be 8068 3ebd d056 803d
00000120: 66e9 efbe 7e66 dc3c 5655 983c cd58 07be
00000130: a1dc e6bd 74f5 bbbd e018 c33d b8a7 ebbe
00000140: 4555 f83e 946e cebe d2ba 073f 1a6e ab3e
00000150: f3ab a2be f231 6d3e fec0 6ebe 6921 16be
00000160: ee48 1a3d c1fc a9bc 5b00 0e3d a183 b5be
00000170: 82ce e83e fc85 5dbe d66f f0bc a1eb b9bd
00000180: ef0c 01be 2b80 bb3d 9de9 babd 1e7e 053d
00000190: b8bf 7bbe edff 65be c991 223d 9468 35bf
000001a0: 3a06 153e 3ba8 55be fc11 0e3e 206e 623e
000001b0: 6a0e 00bf f289 763e 0950 e73d 2f68 c0be
000001c0: 3bcc 143e 46cb cdbd 4a62 f2be e269 873e
000001d0: a435 17bb f218 a8be 8992 ad3e 1953 38bb
000001e0: 5ba6 71bd ba19 62bc 3717 613e f6dc 763e
000001f0: 0085 64be b684 80be b241 e1be e290 82bd
00000200: c3d5 ac3e 4bd0 fcbd e476 ce3d 8c9b 1dbe
00000210: 67dd 033d b0b9 06bf 998f 91bb 26a6 19be
00000220: d290 653e 2154 39be a7a3 2ebe 98ae 91bd
00000230: 0ec5 0b3e 5d11 afbe 396a 453d c46d 023e
00000240: 51e8 21be 4691 c83d 3755 4fbe 422f 3bbe
00000250: 3947 3bbc a92c 78bd 82b1 383e 0fac 53bd
00000260: c6ae 86bd cc7d a83c cd46 823d df74 513c
00000270: e88e c63e ce7d 47bd 484c ecbd 2c1e a33e
00000280: 368e 56be 0b38 02be f220 0d3e 1eb6 bfbb
00000290: 3597 9b3d fdef 88be 9933 b9bd 41e6 bbbd
000002a0: 680d ebbd bf0c ca3d 6cb4 f1bd 74f9 dfbd
000002b0: a451 813d 8211 003b c7c2 aa3d aac2 5c3d
000002c0: 0d37 993e fa40 e23c 654b fa3c dac4 753d
000002d0: 2995 b23e c8a8 733d cbc8 1f3d d7ed 6e3e
000002e0: 7e69 0ebe c5ab f33d 26a6 813e 3dca 38be
000002f0: 9e9f e0bd c25e 3d3e 0a55 20be 2458 16be
00000300: 910f 043e 9fdf 08bd ba12 bcbd af93 2d3e
00000310: 8f5f db3d bf22 83be 9398 2a3f aa68 80be
00000320: 7746 1c3e 90b8 c03e 5af1 1dbd 55f2 623d
00000330: 2bd7 9cbc 21cb 923e f46d 05be d5f9 8d3e
00000340: eef6 e9bc b1c9 333e 39f2 873d de71 403e
00000350: 47d7 5fbc 6ee7 373e 4919 85be c559 31be
00000360: b8c5 b63e 60af 56be 1b59 823e f7f9 b33e
00000370: ba7f 563e 253a b0bd eb6b b93e 2617 523e
00000380: 3edc 86be 7a30 89bd cfd5 cebd b35e 30bd
00000390: 39f7 7c3e b295 803e 23a4 51be c2f9 bf3d
000003a0: 7e49 5a3e a124 9a3d c2b5 a93e 5ddf 7b3d
000003b0: c472 bd3d 9cfb d83e fac6 e93d fe6f dc3c
000003c0: 1b1f 8abd 77c7 973d 835d 2fbe 5f04 663e
000003d0: d970 6dbc 3fa0 84bd 9026 94bd 69b3 473e
000003e0: 37c3 b7bc 03c7 85be cc3a ea3b cc90 85be
000003f0: 5551 2f3e 00c0 cbbd 561d 0e3d d862 973e
-0.22515103 0.038760226 0.06611278 0.04541899 -0.32170445 0.058149047 -0.07609222 -0.25662455
0.15613872 -0.06290759 0.28974617 0.06470688 -0.016730668 -0.12982695 -0.09740953 0.14824301
-0.165743 0.11897807 0.042850908 0.2514203 -0.06165891 0.16980024 0.018451951 -0.15791745
-0.30976558 0.18689896 -0.2574023 -0.299237 0.19857673 0.05293622 -0.13990395 -0.09970848
0.13976353 -0.07273202 0.020595582 0.09007866 -0.11949267 0.28098005 0.013927693 0.071018
-0.132957 -0.06228393 -0.16918182 -0.043616634 -0.15014176 -0.026182188 -0.22172935 0.29852813
-0.078029096 0.3316807 -0.028054867 -0.59522086 0.13378175 0.05407507 -0.042180434 -0.27317238
0.38557425 -0.021692218 -0.38306576 0.71130997 -0.44988453 0.24819757 0.65957165 -0.104003385
0.17895967 -0.043451868 -0.46244237 0.20750175 -0.18461823 -0.17260036 -0.046486378 0.06266558
-0.46857756 0.02690434 0.018595379 -0.13217469 -0.112725504 -0.09177676 0.09526229 -0.46026397
0.48502555 -0.4031874 0.5301944 0.33482438 -0.31771812 0.23163584 -0.23315808 -0.14661182
0.037667207 -0.020750405 0.034668308 -0.35451987 0.45470053 -0.21633142 -0.029350203 -0.09078146
-0.1260259 0.091553055 -0.091265894 0.032590978 -0.24584854 -0.22460909 0.039689813 -0.708627
0.14553156 -0.20864956 0.13874048 0.22112322 -0.50021994 0.2407606 0.11294562 -0.37579486
0.14531033 -0.10048537 -0.47340614 0.2644797 -0.0023072744 -0.32831532 0.3390086 -0.0028125702
-0.05899654 -0.013800079 0.21981512 0.24107727 -0.2231636 -0.2510125 -0.43995434 -0.063752905
0.33756837 -0.12344416 0.1008127 -0.15391368 0.032193568 -0.52627087 -0.004442167 -0.15004787
0.22418526 -0.18098499 -0.17054616 -0.07113379 0.13649389 -0.34192935 0.048197005 0.12737185
-0.15811278 0.09793334 -0.2024735 -0.18279746 -0.011430555 -0.060589466 0.18036464 -0.05167776
-0.06576304 0.020567797 0.063611604 0.012784212 0.38780904 -0.04870396 -0.11537987 0.31858957
-0.20952687 -0.12716691 0.13782099 -0.0058505675 0.075972 -0.26745597 -0.090430446 -0.09174777
-0.114771664 0.098657124 -0.11801991 -0.10936251 0.063144 0.0019541685 0.08337932 0.053896584
0.29924813 0.027618874 0.030553529 0.060002185 0.34879425 0.059487134 0.03900985 0.23332916
-0.1390743 0.11897997 0.25322074 -0.18045898 -0.109679446 0.18493178 -0.1565744 -0.1468206
0.12896563 -0.033416387 -0.09183259 0.16950868 0.10711586 -0.25612447 0.6663906 -0.25079852
0.15261255 0.3764081 -0.03856025 0.055406887 -0.019145569 0.286706 -0.13030225 0.2772967
-0.028560128 0.17557408 0.06637997 0.18793437 -0.013662166 0.17959377 -0.25995854 -0.173194
0.35697722 -0.20965338 0.25458607 0.35151646 0.20947161 -0.0860484 0.36215147 0.20516643
-0.26339906 -0.06698699 -0.100993745 -0.043059062 0.24703683 0.25114208 -0.2047277 0.093738094
0.21317098 0.07526518 0.33146483 0.061492313 0.092504054 0.42379463 0.11414905 0.02690887
-0.06744214 0.07411092 -0.17125516 0.22462605 -0.014492237 -0.06475877 -0.07233918 0.19502033
-0.022431953 -0.26128396 0.0071481224 -0.26087034 0.1712087 -0.099487305 0.034695946 0.295676

arith.constant16 f4 [150, 50]
00000000: c0a2 0d3d 165a 613e 88b2 533c 5c03 e73d
00000010: a00d f83a 3c7b f0bd eca7 c0bd d086 6a3d
00000020: 4e53 2cbd 8d4c fabc fa77 28bd 58ba 33bd
00000030: 0876 2abe 158a b2bd b5cd 0ebd 5cc2 d33d
00000040: 6eff 893d cdd9 67bd 5a29 163d 7feb 8abd
00000050: 90cb 17bb a83d 97bd 1312 b3bd 568b 2cbc
00000060: 3d3f 2fbd 6205 1fbe 009d 983d 6fc8 a9bd
00000070: 676f 69bd 8bd4 38bd 1da9 a83d 6a0e 8e3c
00000080: 649d b13a b897 a33d 7af5 25bd 8ce8 583d
00000090: c32d cbbc 10d5 d9bc 1295 f63d c586 923d
000000a0: 1d52 bfbd 540f 76bd 1850 20bc b620 5dbd
000000b0: f030 473d f45d 653c 3e6d c93c eed6 8a3d
000000c0: e4ad 8d3d 4075 e53d c7ae 47bd c081 c0bc
000000d0: 1d47 ad3c f0ce 063d b16e 793d f641 d6bd
000000e0: f42c 1a3d 39f3 aabd bda5 4ebc 28eb a93d
000000f0: 1b61 f0bc 4396 60bd e176 0abe 6f6d 1abe
00000100: 79cc 813c 80e1 853d 5a50 a0bd 7b8c ce3d
00000110: 9963 c6bd 1cf9 3ebd 90f2 a33c cf64 183e
00000120: 30e3 793d 2abe a93d b8bd a03d 1489 5d3d
00000130: c6f4 1e3d 18cb 333b 3d25 36bb 9d02 3ebd
00000140: 8871 17be 5703 ec3a 765f 0d3e b881 113e
00000150: dc85 dabb 2a97 4dbd 6ecc b0bd 949b f43d
00000160: 6300 2c3d 2c84 2ebc b2b3 44be 12d8 8c3d
00000170: b0da 733c 9b4b 4d3e 86d1 a43c 31b4 933d
00000180: b3e3 5ebc cae0 0bbd 4331 b6bd 6937 a13d
00000190: 502c 613d 408e 25be c0f5 823d 6664 e6bc
000001a0: 124c bcbb 32d7 5cbd 6bc3 523d 3574 963d
000001b0: 4b9e 2d3d ea2c 0c3c 543b 1b3e 32bb 993c
000001c0: d491 d93d 1dfe fa3c bc53 453c 14bc 1f3d
000001d0: 63e3 6b3d 00ac fbbc 687b 0e3e c87d 4ebd
000001e0: 8d70 57bd bc2a 9cbc d063 673c 7652 75bd
000001f0: e2b2 d7bd 9e1e 88bc 6c93 083e 67c1 bc3d
00000200: 32a6 f93d b210 0f3e 3038 9b3b e223 28be
00000210: bd35 003e f076 763d a867 73bb 0ff4 d7bc
00000220: 6745 de3c b29a 16bd 5b33 56be 8dd7 96bd
00000230: a1ce 0e3e 6011 de3b e9b2 7c3d 6813 433d
00000240: de6c f73b a603 b6bc 0e3d 803b 8b57 2a3d
00000250: 1c10 10bd 1839 b23d 6501 34bd 4bf3 31bd
00000260: fe6e b8bb b8d9 443e a34e 17be 419c 9d3d
00000270: 28a3 1f3c 1ddb 0bbd 321a 85bd 5c8b 133d
00000280: 189d 92bd c8fc 6f3d 714b 013e a83d 0bbd
00000290: f593 403c c871 24bd c781 debc 42b5 62be
000002a0: 2804 863d e563 8abd ed2a 013e 48c6 813d
000002b0: cce3 e33c a097 533a 1f57 4fbd b6bc e2bd
000002c0: 4654 2d3d f86c 393a 0753 86bb 3abb 853c
000002d0: 7fe1 fa3d d3d5 e03c 1052 603d 222c b43d
000002e0: 285c 923d 904e 5e3d 5db6 43bc 1c7f d5bc
000002f0: a55e f93c a39b 61bd a322 7abc 78a0 0e3a
00000300: 350b 8b3d 51dc 143e befd af3d b539 6fbd
00000310: f399 e63c c262 33bc fba1 153c 2932 09be
00000320: 13ac 1e3d 165d bc3c 0280 993d a497 87b9
00000330: b03c e33d 99e3 42bd 0cb1 66bb e356 adbc
00000340: 64fa 603c 72ef 06bd d3cb c43d 5dd7 53bd
00000350: 8ac4 de3d da46 7c3d 16a7 c73c 875f 213e
00000360: 9811 2f3d 7288 26bd 1c02 eebc c939 523d
00000370: 5238 30bc 5023 e53d 571f 5bbd bd87 d03d
00000380: 8209 c0bc 837e 9d3d 91e2 9ebc 1d73 f43d
00000390: 1dd9 3abe a32d b23d 5d96 3abe 1070 bf3b
000003a0: 700f b63b fa93 debd 6825 c33d 1930 b33d
000003b0: 43e0 203e ae9e c63d 307c a9bc f313 823d
000003c0: 99e5 90bd bad7 e73d 4ec9 c23d 55e0 09bd
000003d0: 4661 44bd 1ae7 ed3c c74c 303c 0dd7 ba3d
000003e0: 4d28 0b3c c01a 9a3d f277 a13d 3e8d 2ebe
000003f0: 7a0d 35bc fcb4 9d3d 3516 aabd 9090 893d
0.03457904 0.22007021 0.012920983 0.112799376 0.0018924959 -0.11742255 -0.094070286 0.057257473
-0.042071633 -0.03055408 -0.041130044 -0.043878883 -0.16646588 -0.08717743 -0.034864146 0.103398055
0.067381725 -0.056604195 0.03666053 -0.067831986 -0.0023162104 -0.07384807 -0.08743682 -0.010531267
-0.042784918 -0.15529397 0.074518204 -0.08290183 -0.056991007 -0.04512457 0.08235381 0.017340858
0.0013550934 0.079879224 -0.040517308 0.05295615 -0.024802094 -0.026590854 0.12040152 0.071546115
-0.09341834 -0.06007321 -0.009784721 -0.053986274 0.048630655 0.013999451 0.024588224 0.06779276
0.06917933 0.11204004 -0.048750665 -0.02349937 0.021152074 0.032912195 0.06089658 -0.104618
0.037640527 -0.08347172 -0.012612757 0.082968056 -0.029343178 -0.0548308 -0.13521911 -0.15080808
0.01584457 0.06537151 -0.07827826 0.10085388 -0.096869655 -0.046624288 0.020013124 0.14882205
0.06100768 0.08288224 0.07848686 0.054085806 0.038807653 0.0027434286 -0.0027793192 -0.04638921
-0.14789402 0.0018006366 0.13805947 0.1420964 -0.0066687893 -0.05019299 -0.08632742 0.11943737
0.041992556 -0.010651629 -0.19209173 0.0687715 0.014883682 0.20048372 0.02011944 0.07212103
-0.013604092 -0.034149922 -0.08896115 0.07871897 0.0549739 -0.16167545 0.06394529 -0.028124046
-0.005746373 -0.053916164 0.051455896 0.073463835 0.042387288 0.00855563 0.1515935 0.01876602
0.10623518 0.030638749 0.01204389 0.038997725 0.0575899 -0.030721664 0.13914263 -0.050412923
-0.05259757 -0.019063346 0.014122918 -0.059893094 -0.10532166 -0.016616162 0.13337487 0.09216576
0.12189902 0.13971213 0.0047369227 -0.16419938 0.125205 0.06017202 -0.0037140641 -0.026361493
0.027132703 -0.036768623 -0.20918028 -0.07365332 0.1394601 0.0067769736 0.06169406 0.04762593
0.00755082 -0.022218537 0.0039135283 0.041587394 -0.035171613 0.08702296 -0.043946642 -0.043444913
-0.0056284657 0.19223678 -0.14776091 0.07695819 0.009743489 -0.03414451 -0.06499137 0.036021575
-0.071588695 0.05859068 0.12626435 -0.033994347 0.011754026 -0.040147573 -0.027161492 -0.22139457
0.065437615 -0.067573346 0.12614031 0.06336647 0.027818583 0.0008071605 -0.050620195 -0.1107115
0.042316698 0.00070734276 -0.004099253 0.016324628 0.12250041 0.02744571 0.05476576 0.0879748
0.07146484 0.05427414 -0.011945334 -0.026061587 0.030440638 -0.055080067 -0.015267047 0.0005440782
0.06789247 0.14537169 0.08593319 -0.058404643 0.02814958 -0.010948839 0.009132857 -0.13398041
0.03873832 0.022993606 0.07495119 -0.00025862188 0.110955596 -0.047580335 -0.0035200743 -0.021159595
0.013731573 -0.032943197 0.09609189 -0.05171906 0.108773306 0.061591007 0.024371665 0.15759097
0.042741388 -0.04065747 -0.02905374 0.05132464 -0.010755615 0.11188376 -0.053496685 0.1018214
-0.023442034 0.07690146 -0.019395145 0.119360186 -0.18246885 0.08700111 -0.18221422 0.0058422163
0.0055560395 -0.10868068 0.09528619 0.08749408 0.15710549 0.096982345 -0.0206891 0.06351461
-0.07075042 0.113204435 0.09511052 -0.033661205 -0.04794433 0.029040862 0.010760493 0.09123049
0.008493495 0.075246334 0.07884206 -0.17046067 -0.011050576 0.07700536 -0.08305017 0.06717026

sequential_7_1/gru_5_1/while/gru_cell_1/Squeeze f4 [150]
00000000: 64f7 2bbe 938c 93bd 7bd3 edbd 9369 2bbe
00000010: d0b2 86bd 946b f8bd 1a84 4ebe e63b 32be
00000020: 1863 76be 75f7 cbbc 06ad 0dbe 93ff 2cbe
00000030: 3355 cfbd d012 99bd aa68 98bd 7333 08be
00000040: fb22 a9be 7310 0cbe 8403 5cbe 5924 81be
00000050: d642 24bf bc31 41be 11fe 63be e940 19be
00000060: def6 5dbe d97c 95bb bbb2 57be cd47 b6be
00000070: 77a0 6fbe a2fd e7bd bb8b 8cbe 15ec 2bbe
00000080: 8ac0 f8bd b524 a8bd 63f1 f63a 2dca 46bd
00000090: 5137 6fbe 56ee 96bd c560 37be 7eaa b7be
000000a0: 9c8c 46be 6655 22bd 2d37 55be 394f 44be
000000b0: f2af 82bd 6891 acbe a37c e9bd 4ef5 b2bd
000000c0: 4430 22be 6468 e3bd 03ae e13d 6263 fc3d
000000d0: f2b7 883d c3c7 d33d 70ef 54bd dfdb 1c3e
000000e0: aa24 c2bc eb7e 1c3e d11f 353d 45d5 703d
000000f0: d0c2 d33d 157e 003e ea1c 993d 40d6 0c3e
00000100: 0f25 253e fe30 a03d e263 2fbc f594 1c3d
00000110: 2e1a 63bc 2331 4dbd 4501 a7bd f78b 023e
00000120: f367 ec3c bd67 c03d f1fe cf3c a8a8 e13d
00000130: acc5 603c 2bca 06bd ea64 603d 071a d13d
00000140: 9a71 0ebd 6011 163e a07a d13d 32eb d63c
00000150: 35f0 01bc 7dde 703d 257a 013e f008 ac3d
00000160: 51a8 473d 8e39 a13c 8f0f 5c3d 9e94 a0bc
00000170: d423 9d3c 0787 d43d 7a7e a9bc 1099 df3c
00000180: aaf9 ac3d 150e 623d 677c e63d dd73 ac3d
00000190: 3cc1 d13d c0da f03d 313a 913d d5d4 cc3d
000001a0: a9c4 96bc e3ad 0e3e 91e3 813c d151 163e
000001b0: 1037 2b3d 5bd2 4d3d 663e bc3d 6960 ea3d
000001c0: 2605 963d 5a48 023e 21d5 1e3e 8a87 9c3d
000001d0: fb70 d63c a7ec 0e3d 1614 013c c472 d9bb
000001e0: 43fe 65bc a9ad d73d 2cf7 c43c c2f8 b73d
000001f0: a370 6e3a b082 a73d bccf 96bb 8e5e 9a3a
00000200: 5f00 1f3d c629 b23d 97dc 86bc 91ff e53d
00000210: 8e42 e13d d105 0f3d c329 bc3c c525 6c3d
00000220: 58ef fe3d b469 a33d ea8b 563d ecdd 173d
00000230: 020f 413d cfe9 bebc 37fb 053c cdf1 c23d
00000240: d9bd 9f3c 20a1 1b3d 013a a83d bb7d 3a3d
00000250: 081b 013e 8a8c a33d
-0.16793591 -0.07204547 -0.11612602 -0.16739492 -0.065770745 -0.12129894 -0.2016758 -0.17405662
-0.24061239 -0.02489827 -0.13835534 -0.16894369 -0.10123672 -0.07474291 -0.07441838 -0.13300876
-0.330345 -0.1367815 -0.21485716 -0.25223044 -0.64164484 -0.18866628 -0.22264887 -0.14966168
-0.21676204 -0.004562002 -0.21064274 -0.35601655 -0.23401056 -0.113276735 -0.27450356 -0.16789277
-0.12146099 -0.08210126 0.0018840249 -0.048532654 -0.23360945 -0.07369678 -0.17908008 -0.35872263
-0.19389576 -0.039632224 -0.20821829 -0.19170846 -0.06381215 -0.33704686 -0.11400726 -0.087381944
-0.15838724 -0.11103895 0.11019518 0.12323643 0.0667571 0.10340836 -0.051986158 0.15318249
-0.023699123 0.1528279 0.044219796 0.05879714 0.10339892 0.12548096 0.07476218 0.13753605
0.16127418 0.078218445 -0.010704966 0.038227994 -0.013861222 -0.05009569 -0.08154539 0.12748705
0.02885816 0.093947865 0.02539012 0.11018497 0.013719004 -0.032907646 0.05478374 0.102100424
-0.034776308 0.14655066 0.10228467 0.026235197 -0.007930805 0.05880593 0.1264425 0.08400142
0.048744503 0.019680765 0.053725775 -0.019602116 0.019182123 0.10377317 -0.020690192 0.027294666
0.08446057 0.05518921 0.112541966 0.08420537 0.10241935 0.11760473 0.07091177 0.10001532
-0.018404322 0.1393352 0.015855582 0.14679648 0.04180056 0.05024944 0.09191589 0.1144417
0.07325201 0.12722912 0.1551099 0.076430395 0.02617692 0.034893658 0.007878324 -0.0066359956
-0.0140376715 0.1053117 0.024043642 0.08982994 0.00090957637 0.081792235 -0.0046024006 0.0011777447
0.038818713 0.08699374 -0.016462607 0.11230386 0.109990224 0.034917656 0.022969132 0.057653207
0.12447995 0.07979146 0.052379526 0.037076876 0.047133453 -0.023304848 0.00817757 0.09518776
0.019499706 0.037995458 0.08214188 0.045530062 0.12607968 0.0798579

sequential_7_1/gru_5_1/while/gru_cell_1/Squeeze_1 f4 [150]
00000000: 64f7 2bbe 938c 93bd 7bd3 edbd 9369 2bbe
00000010: d0b2 86bd 946b f8bd 1a84 4ebe e63b 32be
00000020: 1863 76be 75f7 cbbc 06ad 0dbe 93ff 2cbe
00000030: 3355 cfbd d012 99bd aa68 98bd 7333 08be
00000040: fb22 a9be 7310 0cbe 8403 5cbe 5924 81be
00000050: d642 24bf bc31 41be 11fe 63be e940 19be
00000060: def6 5dbe d97c 95bb bbb2 57be cd47 b6be
00000070: 77a0 6fbe a2fd e7bd bb8b 8cbe 15ec 2bbe
00000080: 8ac0 f8bd b524 a8bd 63f1 f63a 2dca 46bd
00000090: 5137 6fbe 56ee 96bd c560 37be 7eaa b7be
000000a0: 9c8c 46be 6655 22bd 2d37 55be 394f 44be
000000b0: f2af 82bd 6891 acbe a37c e9bd 4ef5 b2bd
000000c0: 4430 22be 6468 e3bd 03ae e13d 6263 fc3d
000000d0: f2b7 883d c3c7 d33d 70ef 54bd dfdb 1c3e
000000e0: aa24 c2bc eb7e 1c3e d11f 353d 45d5 703d
000000f0: d0c2 d33d 157e 003e ea1c 993d 40d6 0c3e
00000100: 0f25 253e fe30 a03d e263 2fbc f594 1c3d
00000110: 2e1a 63bc 2331 4dbd 4501 a7bd f78b 023e
00000120: f367 ec3c bd67 c03d f1fe cf3c a8a8 e13d
00000130: acc5 603c 2bca 06bd ea64 603d 071a d13d
00000140: 9a71 0ebd 6011 163e a07a d13d 32eb d63c
00000150: 35f0 01bc 7dde 703d 257a 013e f008 ac3d
00000160: 51a8 473d 8e39 a13c 8f0f 5c3d 9e94 a0bc
00000170: d423 9d3c 0787 d43d 7a7e a9bc 1099 df3c
00000180: aaf9 ac3d 150e 623d 677c e63d dd73 ac3d
00000190: d1a8 d83d 178d f03d 5884 aa3d f4f2 e53d
000001a0: 6e8d 13bc 2a8f 173e 001b 2f3c 2ef1 173e
000001b0: 4905 663d c92d 4b3d 5ab0 c43d 1f43 fc3d
000001c0: 9c60 9f3d fbca 013e ca8d 253e 3d5a aa3d
000001d0: eb28 823d f31e 453d 83f6 aa3c 779f 81bc
000001e0: 9984 21bc 70d5 e83d b1ed 543d 60f3 c83d
000001f0: 5ff0 a43c 6b02 933d f77e 893c 36c3 d93a
00000200: 1ca4 433d 3142 e33d 5387 0fbc a0f1 f03d
00000210: fa22 ee3d 1cec 773d e447 863c d49b 9a3d
00000220: 0545 0e3e 9f9a 9d3d 4224 a03d fa59 983d
00000230: 5e7c 6e3d 8495 94bb 2d83 893c d0de d73d
00000240: 52c8 673b aa88 753d db4d b93d 8170 6c3d
00000250: 6fbe ff3d 3d4c b13d
-0.16793591 -0.07204547 -0.11612602 -0.16739492 -0.065770745 -0.12129894 -0.2016758 -0.17405662
-0.24061239 -0.02489827 -0.13835534 -0.16894369 -0.10123672 -0.07474291 -0.07441838 -0.13300876
-0.330345 -0.1367815 -0.21485716 -0.25223044 -0.64164484 -0.18866628 -0.22264887 -0.14966168
-0.21676204 -0.004562002 -0.21064274 -0.35601655 -0.23401056 -0.113276735 -0.27450356 -0.16789277
-0.12146099 -0.08210126 0.0018840249 -0.048532654 -0.23360945 -0.07369678 -0.17908008 -0.35872263
-0.19389576 -0.039632224 -0.20821829 -0.19170846 -0.06381215 -0.33704686 -0.11400726 -0.087381944
-0.15838724 -0.11103895 0.11019518 0.12323643 0.0667571 0.10340836 -0.051986158 0.15318249
-0.023699123 0.1528279 0.044219796 0.05879714 0.10339892 0.12548096 0.07476218 0.13753605
0.16127418 0.078218445 -0.010704966 0.038227994 -0.013861222 -0.05009569 -0.08154539 0.12748705
0.02885816 0.093947865 0.02539012 0.11018497 0.013719004 -0.032907646 0.05478374 0.102100424
-0.034776308 0.14655066 0.10228467 0.026235197 -0.007930805 0.05880593 0.1264425 0.08400142
0.048744503 0.019680765 0.053725775 -0.019602116 0.019182123 0.10377317 -0.020690192 0.027294666
0.08446057 0.05518921 0.112541966 0.08420537 0.10579074 0.11745661 0.08326024 0.1122798
-0.009005887 0.14800707 0.01068759 0.14838096 0.056157384 0.04960421 0.09603949 0.1231749
0.07782099 0.12675087 0.1616737 0.08317993 0.06355461 0.04812522 0.0208695 -0.01582311
-0.009858274 0.11368835 0.051984493 0.09812045 0.02013415 0.071781956 0.016784174 0.0016613964
0.04776393 0.110966094 -0.008760291 0.11764836 0.11627765 0.060527906 0.016391702 0.07549253
0.13893516 0.07695507 0.07819416 0.07439037 0.058224075 -0.004534425 0.016786182 0.10540545
0.0035367203 0.059944786 0.09048053 0.05772448 0.12487494 0.086571194

arith.constant24 f4 [150, 50]
00000000: e6f8 5ebe fff8 ffbc c692 af3d bcc6 3cbe
00000010: c870 623d 5f89 43be 7c14 983d e3a2 43be
00000020: 582f a4bc a2d2 7ebc 9a49 55be 38ca b7be
00000030: ac00 4cbe 3b80 b93d 9858 9b3d 31e3 0f3d
00000040: 6dae a43d 749e cfbe 4e27 ac3e 3973 2cbd
00000050: efd5 8d3d 6313 e3be 80f9 69be fb88 92be
00000060: 4047 5cbe 9b9e 0bbe c627 843e 9902 a13d
00000070: 50db 003d e17d 8abe 2055 643e 928f 383e
00000080: 33a6 dc3d 1654 ddbc 2747 fbbd 1b3d 2bbe
00000090: 79cd 88be 9f9b 89be 426d 95bd 3083 223d
000000a0: 355b a8bd 2279 6dbe c3fc ac3d 4967 0c3e
000000b0: 04b7 4bbe 3807 593e 39c7 60be 9c3c 43be
000000c0: 1f93 6cbe 7dbd 4bbe eb9b 83be 9ad3 e43d
000000d0: 4db8 813b e616 013a 6a83 92bd 97d4 b0bc
000000e0: 7e0a 7a3e f2f5 403c 7d9c 68bd 1566 f8bd
000000f0: 2e60 bd3d 2696 9bbe 84d0 29be 893d 28be
00000100: 5bbd 5bbd b014 04be 58f4 51bb f4f4 9cbe
00000110: ca66 003e 6d9e 4f3e 0faf e13e 41b2 aebd
00000120: 9c28 743d 23d6 95be fc27 46bb a768 203e
00000130: 8b4b e43d 8109 3e3e fcf2 093d 518c 95be
00000140: 0ef6 893e fac6 25be 159a a13d e69c 773d
00000150: 0ca6 1fbe 8660 8abe 29c8 4dbe 95e8 10bd
00000160: 4b97 32be 4bc6 a83d a010 533d 0a69 bfbc
00000170: dd27 1e3e 1680 ce3d 88ac 65bd 1f39 9a3e
00000180: cfc2 b1be fedf a3be f6fd 0fbe f00c 17be
00000190: a96f 23be fc23 193e b39f b03c 2ce7 03be
000001a0: df98 d9bd 1560 e83d 2463 2ebe ddfe 863e
000001b0: 0a95 89bd 849b 01b9 4e10 60be 411e d0bd
000001c0: c215 f0bd b09f 193d 67f3 063e 6ddc 8fbe
000001d0: 64ad 76be f382 49be c522 d3be 8b49 5dbe
000001e0: a0f4 eabe 1914 89be ce57 94be fb19 d9bd
000001f0: f1b6 5ebe 7e21 f2b8 bda2 22be 0839 c0be
00000200: 212d 5cbe 1561 7bbd 1522 06be 00d7 1abd
00000210: 8542 ad3d 7c81 ffbd ef97 63be 3bdd 3fbe
00000220: 2d89 c1be b9dd 6ebe bdb0 cfbe 4598 efbe
00000230: 397f 25be 8ff8 6bbb fc8a cfbe f84a 0dbe
00000240: fd95 5fbe 27f4 4abe cd22 a9bc 9bb6 cdbd
00000250: cfcc 633e 6156 e2bd 2fc3 85bd c6ab 35bd
00000260: f437 0bbe 83eb 52be eaa6 723d 35ae 0a3e
00000270: f471 49be 7606 81bc a096 b4be 3c48 4bbd
00000280: fb39 9fbe a93b 50be 6b33 d7bd 0afd 78bd
00000290: b0a5 ae3d 2d57 a3be 2a70 d7be ca4e b4be
000002a0: b955 6abe 6788 21be c9ba 07bf 8aa8 e4be
000002b0: 5ad2 afbe 0789 b1be ebc5 93be a9e8 91be
000002c0: 7e1b 31bd ed91 c1be 09b6 2fbe 6e13 9abe
000002d0: 151b d8be 82a8 bdbd 4d0f 0fbc 4c39 cebd
000002e0: a18b 58be 6e5b e1bd a392 0fbe 027e 29bd
000002f0: 1412 1fbe 9eaa 51be 21e1 b1be 51ee 30be
00000300: a40e afbe 742f 60bd bb5b 63be 0bd8 c9be
00000310: 856f afbe d192 97bd 6a5b dd3d f3a3 dbbd
00000320: 1fc8 d9be f1f6 02be f8ff c9bd 1ccd 08be
00000330: 7371 de3c 15fc d3bd bda3 623e b505 3cbe
00000340: 4eaf 233e b483 82be 2e17 ba3d 0acb 3cbe
00000350: 6f87 2cbe 2380 d9bd e9fe 89be 18c0 0ebe
00000360: 40bc c03d a030 5abc 1901 df3d ef76 e1bd
00000370: ee70 0a3e f6ed 83be 020c 9ebd 668c 01bd
00000380: ddd3 cfbd 27ce c6bd 6189 f03d aa9d 733e
00000390: e6fc a33e ca95 90be a903 d83c 0b15 733d
000003a0: 989c 48bc 0903 bf3d 111f 13be f831 73be
000003b0: 558e 47be 5d48 7fbe 120d 7cbe 9f04 cc3e
000003c0: 9daf aabd 035f 88be 5457 ebbd 76e4 123c
000003d0: d7b5 53bd db74 623e 5e55 afbe 7a32 9bbe
000003e0: 87f9 22be 78b8 4ebe 8aa7 dd3d 9b02 eebb
000003f0: 1496 7bbd 5e04 f5bd 76d9 2dbe 9689 133e
-0.21774635 -0.03124666 0.08572917 -0.18435186 0.055283338 -0.19095372 0.07425782 -0.19105105
-0.020042107 -0.015553148 -0.20828858 -0.35896468 -0.19922131 0.09057661 0.07585257 0.035128776
0.080410816 -0.40550578 0.33623737 -0.042102072 0.0692557 -0.44350728 -0.22849083 -0.28620133
-0.21511555 -0.13634722 0.25811595 0.078618236 0.031459153 -0.27049163 0.22298098 0.18023518
0.107738875 -0.027017634 -0.122694306 -0.16722529 -0.26719263 -0.26876542 -0.0729623 0.03967589
-0.08220521 -0.2319074 0.08446648 0.13711275 -0.19894034 0.2119416 -0.21950997 -0.1906609
-0.23102997 -0.19896503 -0.25704893 0.11173172 0.003958738 0.00049243716 -0.071539715 -0.021585746
0.24418065 0.011777388 -0.056789864 -0.121288456 0.092468604 -0.30387992 -0.16583449 -0.16429724
-0.05364738 -0.12898517 -0.003203651 -0.30655634 0.12539211 0.20275278 0.44078872 -0.08530093
0.05960904 -0.29264936 -0.0030236235 0.15664922 0.11147221 0.18558313 0.033678994 -0.29208615
0.26945537 -0.16189185 0.07890717 0.060452364 -0.15590686 -0.27026767 -0.20095886 -0.035378058
-0.17440526 0.082409464 0.051529527 -0.023365516 0.15444894 0.10083024 -0.05607274 0.30121705
-0.3471894 -0.3200683 -0.14061722 -0.14751029 -0.15960564 0.14955133 0.021560526 -0.12881154
-0.10624861 0.11346451 -0.17030007 0.2636632 -0.0671788 -0.00012360333 -0.2188122 -0.101620205
-0.117229 0.037505805 0.13178788 -0.2809786 -0.24089581 -0.1967886 -0.41237465 -0.21610086
-0.4588976 -0.26773146 -0.2897324 -0.106006585 -0.21749474 -0.000115456976 -0.15882392 -0.3754351
-0.2150159 -0.06137188 -0.13098939 -0.037802696 0.08459953 -0.12475869 -0.22225927 -0.18736736
-0.3779997 -0.23326768 -0.40564528 -0.4679586 -0.16161813 -0.0036006307 -0.40535724 -0.1379813
-0.2183456 -0.19819699 -0.020646477 -0.10044595 0.22246097 -0.11051632 -0.06531369 -0.04435327
-0.13595563 -0.20597653 0.059241213 0.13543017 -0.19672376 -0.015750151 -0.35271168 -0.049629435
-0.31098923 -0.20335259 -0.10507854 -0.06078819 0.08527696 -0.31902447 -0.42077762 -0.3521636
-0.22884263 -0.1577469 -0.53019387 -0.44659835 -0.34340173 -0.34674856 -0.28861937 -0.28497818
-0.04323911 -0.37806645 -0.17159285 -0.3009295 -0.42208162 -0.09260656 -0.008731675 -0.10069522
-0.21147014 -0.11003767 -0.14020781 -0.041379936 -0.1553424 -0.20475242 -0.34742072 -0.1727841
-0.34190857 -0.054732755 -0.22202961 -0.3942264 -0.3426477 -0.0740105 0.108084515 -0.1072463
-0.42535493 -0.12789513 -0.09863275 -0.13359493 0.027153706 -0.10350815 0.22132774 -0.18361552
0.15984842 -0.25491107 0.090864524 -0.18436828 -0.16848539 -0.10620143 -0.26952294 -0.13940465
0.09410906 -0.013317257 0.10888881 -0.11009013 0.13519642 -0.25767487 -0.07717134 -0.031628035
-0.101478316 -0.09707289 0.11744953 0.23790613 0.32028884 -0.2823928 0.026368933 0.05934624
-0.012244366 0.09326751 -0.1436732 -0.2374953 -0.19487889 -0.24929948 -0.24614361 0.39847276
-0.08334277 -0.26634988 -0.11491266 0.008965602 -0.051687088 0.2211489 -0.34244817 -0.30311948
-0.159155 -0.20187557 0.10822971 -0.007263494 -0.061422423 -0.119637236 -0.16977486 0.14407954

arith.constant25 f4 [150, 50]
00000000: 202b b7bd 72d5 983d 44f0 c9bb 6099 623d
00000010: cc5d 76bd 29be 893d 30f5 93bc 08b3 f8bd
00000020: 0656 37bd 6a1c e2bd 9478 37be 88cd 9fbd
00000030: 30fc 5b3c 9d19 1abe 2f45 c7bd 081f 7ebc
00000040: d990 95bd 9219 1cbe 73af ab3d a005 233d
00000050: b087 dabd 120b 0abe a1c3 43bd 94b7 05bd
00000060: 303b ea3d 4489 76bc 9ac6 08bd 2068 f43b
00000070: edf1 11bd 6d39 6a3d 6914 0c3c 9a90 a33c
00000080: 1628 3f3d 3bcf 96bd 3cec b93b 5c45 2f3e
00000090: 8855 f93d eaab 63bd ea68 363d 887b 7cbb
000000a0: 290a a73d 874a a2bc e1d1 05bd 0e65 bdbc
000000b0: 1c6a 3a3d 04cc f03d 7c02 073d 7a4d 653c
000000c0: aab1 9dbc d812 82bd 9bd0 c1bc a03a 143d
000000d0: 54cd 5f3d 0e97 013e 3e5a fe3d d163 583d
000000e0: af2c 3ebd 73a1 3bbc 691b ccbc 8e02 ab3c
000000f0: 97fa 1abc 286b 01be 3e44 6dbd b5cb 323d
00000100: dc4c c23d d17f 063e ed60 50bd 47f0 553c
00000110: 6a16 9abd f2c5 04bc 0626 a53d 9692 453c
00000120: 8dca 053d 0cd9 65bc fdf2 51bd 6343 a03b
00000130: 6954 3dbd a71a 563d 8675 d93c 1652 343c
00000140: 7e9b 8dbd 3c85 c8bd e679 5dbd b31b 1ebc
00000150: 882e 163c e132 81bc 6800 25bc f423 393e
00000160: 29e1 093e 4caf e3bd 570c a13b 4bda 083d
00000170: 23e0 72bd 0915 a83d 018a 90bd acf7 26be
00000180: 12b5 733c 45ee 16be 55b1 223e f0eb 8fbd
00000190: de38 c6bc e0ad d1ba e034 563d 4ef1 c73c
000001a0: add8 183e 7cb6 9dbd 80fb 7abb a63c 06be
000001b0: 3617 b13d cd94 863d 0080 2eb8 7491 88bb
000001c0: 1ac8 9e3d 94ff eeba 52cd 9e3d eb36 2d3d
000001d0: 1a54 a53c bb5a fcbd 9471 013e a17f a6bd
000001e0: d406 d63b 09a3 383d 5e52 893d 67d9 c0bd
000001f0: c1dd 383d 10da a73d a5ed 21bd a619 bcbc
00000200: cb81 a4bc 9cb4 f53d 627b 873d be52 40bb
00000210: 85ea 59bc 241f 08bd b967 61bc 5171 1fbe
00000220: ec74 c8ba 6107 03be e088 9a3d c511 16be
00000230: 8df0 983d 6a68 2cbe eaaf e3bc 4055 123d
00000240: d79b 353e 77b8 853c 7459 993d e493 cf3c
00000250: 0e37 023d ed30 b63d 8d23 5d3d e0cb d4ba
00000260: caa5 723d 0078 ed3a 7cca 63bd c7f0 cbbd
00000270: e948 273e 4e56 963d caa2 17bc 141a 5e3d
00000280: 0494 78bd c985 ae3c f485 3bbd 811b 6f3d
00000290: 6405 5b3e fd2c fc3c 1026 90bc e841 1fbd
000002a0: 8aca 99bc 2372 143e 5ed6 ab3c 4f72 673d
000002b0: 6c61 d9bc 0dca 30be 0708 e2bc 3c0c 6abb
000002c0: d286 e3bd 6500 d1bd cafd cc3c 2f46 9b3c
000002d0: 2a50 653d d910 a53d b81c afbc 54ae f6bd
000002e0: f149 3a3c a2a0 ebbd cb14 d13c b3ba 143d
000002f0: 34dd e6bc aee3 993d ae43 ba3d 54f8 c93b
00000300: 5a1d c3bd acc4 163c d59f a93d bdc9 c9bd
00000310: dde3 0a3d 42e0 5abd c2db ab3d 8c22 873c
00000320: 2734 56bd 92eb a93d bc08 c1bd 5a69 b9bd
00000330: e060 a03d fce5 023c 3eb2 24bd 737b 273e
00000340: d005 5e3c 3589 0a3e 4316 bb3c f2f1 f53c
00000350: 0248 3cbe 3ad4 4ebd 74e3 61bd 62fb 90bd
00000360: 1527 3a3d 9cf9 803c 195f 103e 67bb e33d
00000370: 92cb 4a3d e8f8 f63b e217 cdbd a8be 7c3d
00000380: 1354 aebc e527 16bd 6e8b 29bd b2ec 3fbd
00000390: 5a43 3bbd 3d9a 723d 1bda e7bd b6ff 67bd
000003a0: c10c 0dbd f43b 05be a180 e6ba 1045 063b
000003b0: 8486 be3c 624c 223e 80a0 263d 2a6e 413d
000003c0: 6c56 dabd c23e e5bd 7d0b 87bd fa39 483d
000003d0: 7792 1fbe ecb1 1c3e fae9 dbbc 60eb 523d
000003e0: 3dc0 543d 6ac6 f03c 7c80 453d 011b abbd
000003f0: e1c0 95bc 6102 253d 825a 57be f01e a13d
-0.08943772 0.074625865 -0.006162675 0.05532205 -0.060148045 0.06725723 -0.01806125 -0.121435225
-0.044759773 -0.11040576 -0.1791709 -0.07802874 0.013426825 -0.15048833 -0.097299926 -0.015510328
-0.07303018 -0.1524413 0.08383074 0.039800286 -0.106704116 -0.13480785 -0.04779399 -0.032645777
0.1143707 -0.015047375 -0.033392526 0.0074587017 -0.03563111 0.05718367 0.008549788 0.019966412
0.04666909 -0.07363745 0.0056739133 0.17116302 0.12174517 -0.055583872 0.044533648 -0.0038525779
0.08156235 -0.019810928 -0.03267086 -0.023119476 0.04551135 0.11757663 0.032961354 0.013995523
-0.019249756 -0.063512504 -0.023659041 0.03618872 0.054639176 0.12655279 0.12419556 0.052829567
-0.046429332 -0.011452067 -0.024915414 0.020875242 -0.009459159 -0.12638533 -0.05792641 0.0436513
0.09487316 0.13134696 -0.050873686 0.013057775 -0.075238064 -0.008103834 0.08063893 0.012058875
0.03266387 -0.014028799 -0.051257122 0.0048908456 -0.046223078 0.05227151 0.026545297 0.011005899
-0.069144234 -0.097910374 -0.05407133 -0.009650159 0.009166367 -0.015771331 -0.010070898 0.18080121
0.13464798 -0.111174196 0.004914801 0.033411305 -0.059295785 0.08207137 -0.07057572 -0.16305417
0.0148747135 -0.1473933 0.1588796 -0.070274234 -0.024197038 -0.0015997253 0.05229652 0.024407055
0.14926405 -0.07700822 -0.0038296878 -0.13109073 0.08647005 0.0657135 -4.1604042e-05 -0.00416773
0.0775301 -0.0018234127 0.077540055 0.042288702 0.020181704 -0.12321993 0.12640983 -0.08129812
0.0065315757 0.045077357 0.067051634 -0.09416466 0.045133356 0.08195889 -0.039533276 -0.022961449
-0.020081421 0.11997339 0.0661533 -0.0029346193 -0.013300543 -0.033232823 -0.01375764 -0.1557057
-0.0015293634 -0.12795784 0.07545638 -0.14655216 0.074677564 -0.16836706 -0.027793843 0.035725832
0.1773523 0.016323311 0.07487765 0.025339074 0.031790785 0.088960506 0.053988982 -0.0016235076
0.05924014 0.0018117428 -0.055613026 -0.09958034 0.16336407 0.0734068 -0.0092551205 0.05422409
-0.060688034 0.021304028 -0.045782045 0.05837584 0.21388775 0.03078317 -0.017596275 -0.038881212
-0.018773336 0.14496665 0.020976242 0.056505498 -0.026535712 -0.17264576 -0.027591718 -0.0035712859
-0.11109699 -0.102051534 0.02502336 0.018954365 0.055984654 0.08059854 -0.021375999 -0.12044969
0.011370168 -0.11505248 0.02552261 0.036310863 -0.02818165 0.075141296 0.0909494 0.006163636
-0.09527083 0.009202164 0.08282439 -0.09852932 0.033908714 -0.053436525 0.08391525 0.016495965
-0.05229583 0.082968846 -0.09425494 -0.09053297 0.078309774 0.007989403 -0.040209047 0.16355686
0.0135511905 0.13528903 0.022837764 0.030022595 -0.18386844 -0.050495364 -0.055148557 -0.070791975
0.045447428 0.015744023 0.14098777 0.111197285 0.049510546 0.007536996 -0.10014321 0.06170526
-0.021280324 -0.03665914 -0.041392736 -0.04685659 -0.04571853 0.059229124 -0.11320897 -0.05664035
-0.03443599 -0.13011152 -0.0017585942 0.0020487942 0.023257501 0.1584945 0.04068041 0.0472242
-0.10661015 -0.11193611 -0.06593988 0.048883416 -0.15583216 0.15302247 -0.026844967 0.051494002
0.051941145 0.029391486 0.048218235 -0.0835476 -0.018280448 0.04028547 -0.2103062 0.07867229

sequential_7_1/gru_6_1/while/gru_cell_1/Squeeze f4 [150]
00000000: 6415 1dbe 2a20 72bd 0269 08be d026 0cbe
00000010: 3e42 27be 7fd8 2fbd eda8 dfbd 8e1f 9fbd
00000020: c46d 21be 1b4d e7bd 6435 29be 163f 1a3c
00000030: d844 80bd 43e2 0fbe 0a81 fabd 22e3 d0bd
00000040: e45f 0abe 8de2 9f3c e907 cbbd d4dc 1fbe
00000050: c181 29be 9322 cebd 0054 19be 7eb1 df3c
00000060: 30ee 18be d579 fbbd 5877 993c 1f4e 09be
00000070: 8433 fbbd a3cf 2bbe 76f1 17be 5af2 1abe
00000080: 82cf f9bd 3644 2abe f7e8 01be 2012 12be
00000090: 2a73 bfbc f01f 1dbe 3152 38be d424 e2bd
000000a0: 5812 abbd 5f23 12be 3adb c1bd e4ff a2bd
000000b0: f81b 00be 2896 0cbe b697 22be 7492 913c
000000c0: 96b7 f0bd 0119 0fbe 0fcc 083e a459 b43d
000000d0: f5d7 693c 47d3 023d fb99 183e e636 d73c
000000e0: 5100 e13c fa8e cbbc ec5c 043e bcf8 c83d
000000f0: ced9 a03c 4e09 cdbc a791 a63d 49d3 0b3e
00000100: 5147 f43c af65 0a3d d320 d23c 3b0e 273d
00000110: d751 d73c af81 f83c a078 043d 2309 093d
00000120: 9c23 b43c 9717 133d cef4 2f3e 6314 f73d
00000130: b648 493d 3e41 eb3c 9647 db3c 9cc3 2c3d
00000140: 8438 173d 970e 043d d7f5 df3c 823a 3a3d
00000150: 6b50 1a3d 0aaa cc3c 4c0c 443c 800a 153e
00000160: 985a 333d 3b61 bc3d defe 173d 1a4f 0e3e
00000170: b986 b43d 8602 a83d b255 043e fc09 9e3c
00000180: d83d 4b3d cf50 163d 7368 c33c 48f2 e13c
00000190: a3a5 f53d f1ed 8a3d dd54 6b3c 9fcb 213d
000001a0: d413 ef3d c595 2c3d 5d0c 103d 42bc 013d
000001b0: d8f5 e13d f2c7 ba3d 0ef8 003d e231 12bc
000001c0: f62c 6d3d 4ad2 f63d 8f59 043d ae6b 1f3d
000001d0: a860 db3c 5878 c2bc 232a 0c3d f627 0a3d
000001e0: e361 2a3d ee12 013d 5686 043d fb7e 05bd
000001f0: 43bb 103e 7dc1 ab3d dd4d 06bd ab73 133d
00000200: f0ae 073d 707a 3f3d 43c7 173d e24a 1b3d
00000210: 08eb f93c a98d 6a3d 2f18 343d 555e 013d
00000220: 5b3b 1a3d 9193 073e dc69 5a3d f8a4 ae3d
00000230: 95f0 253d 9111 f03d 37c9 953d 8bd8 5f3d
00000240: 018e d33d b4ab 7c3c b7c6 593d 0152 e7bc
00000250: 9d2d ca3c d56f 0f3d
-0.15340191 -0.059112705 -0.13321307 -0.13686681 -0.16333863 -0.042931076 -0.10920892 -0.077696905
-0.15764529 -0.112940036 -0.16524273 0.009414455 -0.06263131 -0.14051156 -0.122316435 -0.10199572
-0.13513142 0.019517208 -0.09913618 -0.15611583 -0.16553403 -0.10065188 -0.1497345 0.027306315
-0.14934611 -0.12279097 0.018733665 -0.13408707 -0.12265685 -0.16778426 -0.14838204 -0.15131512
-0.12197782 -0.16627583 -0.12686525 -0.14264727 -0.023370344 -0.15344214 -0.18000104 -0.11042181
-0.08353108 -0.14271306 -0.09465642 -0.079589635 -0.12510669 -0.13729155 -0.15878186 0.01777003
-0.11753766 -0.13974382 0.13359092 0.0880616 0.01427268 0.03193977 0.14902489 0.026271295
0.027465971 -0.02484845 0.12926072 0.09813067 0.019635107 -0.02502885 0.0813325 0.13654818
0.029819163 0.03378838 0.025650417 0.040785056 0.026284141 0.030335275 0.0323416 0.03345598
0.021989636 0.03591117 0.1718323 0.12064435 0.04914161 0.028717633 0.026767533 0.042178735
0.036919132 0.032240476 0.027338905 0.045465954 0.03767435 0.024983425 0.011965822 0.14554787
0.04378757 0.09198233 0.037108295 0.13897362 0.08814759 0.08203606 0.12923315 0.01929187
0.049619526 0.03669816 0.023853516 0.027581349 0.11994483 0.06783665 0.014363495 0.03950083
0.11673704 0.04213502 0.03516804 0.031673677 0.11033219 0.09120168 0.031486563 -0.008923026
0.057904206 0.12051828 0.032311972 0.03892105 0.026779488 -0.023739025 0.034219872 0.033729516
0.04159726 0.031512193 0.032354675 -0.0325918 0.14133935 0.08386514 -0.0327891 0.03599898
0.033125818 0.046747625 0.037055265 0.03791321 0.03050758 0.057264004 0.043968376 0.031584103
0.037654262 0.13239886 0.05332361 0.08527559 0.04051264 0.117221005 0.07313769 0.05464987
0.103298195 0.015421797 0.053168025 -0.028237345 0.024679953 0.03501876

sequential_7_1/gru_6_1/while/gru_cell_1/Squeeze_1 f4 [150]
00000000: 6415 1dbe 2a20 72bd 0269 08be d026 0cbe
00000010: 3e42 27be 7fd8 2fbd eda8 dfbd 8e1f 9fbd
00000020: c46d 21be 1b4d e7bd 6435 29be 163f 1a3c
00000030: d844 80bd 43e2 0fbe 0a81 fabd 22e3 d0bd
00000040: e45f 0abe 8de2 9f3c e907 cbbd d4dc 1fbe
00000050: c181 29be 9322 cebd 0054 19be 7eb1 df3c
00000060: 30ee 18be d579 fbbd 5877 993c 1f4e 09be
00000070: 8433 fbbd a3cf 2bbe 76f1 17be 5af2 1abe
00000080: 82cf f9bd 3644 2abe f7e8 01be 2012 12be
00000090: 2a73 bfbc f01f 1dbe 3152 38be d424 e2bd
000000a0: 5812 abbd 5f23 12be 3adb c1bd e4ff a2bd
000000b0: f81b 00be 2896 0cbe b697 22be 7492 913c
000000c0: 96b7 f0bd 0119 0fbe 0fcc 083e a459 b43d
000000d0: f5d7 693c 47d3 023d fb99 183e e636 d73c
000000e0: 5100 e13c fa8e cbbc ec5c 043e bcf8 c83d
000000f0: ced9 a03c 4e09 cdbc a791 a63d 49d3 0b3e
00000100: 5147 f43c af65 0a3d d320 d23c 3b0e 273d
00000110: d751 d73c af81 f83c a078 043d 2309 093d
00000120: 9c23 b43c 9717 133d cef4 2f3e 6314 f73d
00000130: b648 493d 3e41 eb3c 9647 db3c 9cc3 2c3d
00000140: 8438 173d 970e 043d d7f5 df3c 823a 3a3d
00000150: 6b50 1a3d 0aaa cc3c 4c0c 443c 800a 153e
00000160: 985a 333d 3b61 bc3d defe 173d 1a4f 0e3e
00000170: b986 b43d 8602 a83d b255 043e fc09 9e3c
00000180: d83d 4b3d cf50 163d 7368 c33c 48f2 e13c
00000190: bb54 023e c66a a23d d479 0d3d 340e 523d
000001a0: a520 f63d a9e4 393d 3d1c 3a3d ec4a f53c
000001b0: 04d3 f53d dadc d83d 3244 643d 8644 ebbb
000001c0: e339 963d e016 063e de61 4b3d ed6f 493d
000001d0: c5c2 333d 33ed c4bc 7c50 4b3d b33f 573d
000001e0: 9bb6 833d a014 253d 6475 5e3d 4575 06bd
000001f0: 7d6a 0d3e cad9 d53d a272 06bd 6dac 643d
00000200: f39f 3c3d ae80 873d e9c1 423d d6d2 743d
00000210: bf56 4c3d b3fa 993d e61f 663d 71c4 4d3d
00000220: 9c25 373d 3211 0b3e 63c6 a23d 9873 c43d
00000230: 95f5 4a3d 8c3c f03d e7e7 b73d c7ee 923d
00000240: 719b e73d 073f 183d d76e 833d 58ff e8bc
00000250: 1a78 0e3d 499f 673d
-0.15340191 -0.059112705 -0.13321307 -0.13686681 -0.16333863 -0.042931076 -0.10920892 -0.077696905
-0.15764529 -0.112940036 -0.16524273 0.009414455 -0.06263131 -0.14051156 -0.122316435 -0.10199572
-0.13513142 0.019517208 -0.09913618 -0.15611583 -0.16553403 -0.10065188 -0.1497345 0.027306315
-0.14934611 -0.12279097 0.018733665 -0.13408707 -0.12265685 -0.16778426 -0.14838204 -0.15131512
-0.12197782 -0.16627583 -0.12686525 -0.14264727 -0.023370344 -0.15344214 -0.18000104 -0.11042181
-0.08353108 -0.14271306 -0.09465642 -0.079589635 -0.12510669 -0.13729155 -0.15878186 0.01777003
-0.11753766 -0.13974382 0.13359092 0.0880616 0.01427268 0.03193977 0.14902489 0.026271295
0.027465971 -0.02484845 0.12926072 0.09813067 0.019635107 -0.02502885 0.0813325 0.13654818
0.029819163 0.03378838 0.025650417 0.040785056 0.026284141 0.030335275 0.0323416 0.03345598
0.021989636 0.03591117 0.1718323 0.12064435 0.04914161 0.028717633 0.026767533 0.042178735
0.036919132 0.032240476 0.027338905 0.045465954 0.03767435 0.024983425 0.011965822 0.14554787
0.04378757 0.09198233 0.037108295 0.13897362 0.08814759 0.08203606 0.12923315 0.01929187
0.049619526 0.03669816 0.023853516 0.027581349 0.12727635 0.07930522 0.034540012 0.051283076
0.12017945 0.045384083 0.045437086 0.029942952 0.12003139 0.10588999 0.0557291 -0.0071797995
0.0733526 0.13094664 0.04965388 0.049179006 0.04388692 -0.024038887 0.049637303 0.052550983
0.064313136 0.040302873 0.05431117 -0.03282668 0.13810153 0.104419306 -0.032824166 0.0558285
0.046050977 0.066163406 0.04754821 0.05977138 0.049887415 0.0751852 0.056182764 0.05023617
0.0447136 0.13580778 0.079479955 0.0959236 0.04955061 0.117302984 0.08979779 0.071744494
0.11308945 0.037169483 0.064176254 -0.02844207 0.034782507 0.05654839
