tflite_modelos/GRU/GRU.tflite (tflite, 45060 bytes, 6 tensors)

arith.constant3 f4 [2, 50]
0	0x3f4f5d70	0.8100195
1	0x3ed509ac	0.41608942
2	0xbecc3c0c	-0.39889562
3	0x3db7abe3	0.08968332
4	0xbe087f8e	-0.13329908
5	0x3f527aab	0.82218426
6	0x3f469355	0.7756856
7	0x3ec7edef	0.39048716
8	0x3ef7caa2	0.48396784
9	0xbe9be4d2	-0.30448014
10	0xbdb56957	-0.088579826
11	0x3f7bb420	0.98321724
12	0x3e69b758	0.22823846
13	0x3ee21f2d	0.4416441
14	0xbf2f3619	-0.6844192
15	0xbe85a8f2	-0.26105458
16	0xbed1bc9c	-0.4096421
17	0x3f19bb34	0.60051274
18	0xbe2025b3	-0.15639381
19	0x3f9aaeb5	1.2084566
20	0xbf0c4c6b	-0.54804105
21	0xbd83e4c1	-0.06440116
22	0x3f2b35ce	0.66878974
23	0x3e9a140e	0.30093426
24	0xbe95ec4c	-0.29281843
25	0x3e147131	0.14496304
26	0x3e9b32f5	0.30312315
27	0x3f5972af	0.8494062
28	0xbf1de8d8	-0.61683416
29	0x3f2eb76c	0.6824863
30	0x3f1215c1	0.57064444
31	0x3f23b6fd	0.6395109
32	0x3f4d99da	0.80312884
33	0xba935340	-0.001124002
34	0x3ebfec9f	0.37485215
35	0xbdebabb1	-0.11507357
36	0x3b520014	0.0032043504
37	0x3f57859c	0.84188247
38	0x3f8f3220	1.1187172
39	0x3e8bd229	0.27308777
40	0x3f16924e	0.58816993
41	0xbe145294	-0.14484626
42	0x3f7f8572	0.99812996
43	0xbf3f50e7	-0.7473282
44	0x3ee70658	0.45122027
45	0x3f18e521	0.5972462
46	0x3e994aa2	0.29939753
47	0x3f470889	0.777474
48	0x3f73ff7b	0.9531171
49	0x3eb5db8e	0.3551907
50	0xbef9fd1b	-0.48825917
51	0xbee662cf	-0.4499726
52	0x3ef0e84e	0.47052234
53	0xbf3b70f5	-0.73219234
54	0x3eaef35e	0.3417005
55	0xbf6701c2	-0.9023706
56	0xbf754d60	-0.9582119
57	0xbf28482e	-0.6573514
58	0xbf22b2b4	-0.6355393
59	0x3e75c86d	0.24002238
60	0xbd70765b	-0.058706623
61	0xbf80bae7	-1.0057038
62	0x3a5e8855	0.0008488943
63	0xbe35ffa4	-0.177733
64	0x3f38c82c	0.7218044
65	0x3e7cd4d3	0.24690561
66	0x3efb54bb	0.49088082
67	0xbf5a4e35	-0.85275584
68	0x3e7c2579	0.2462367
69	0xbfc57fd8	-1.542964
70	0x3ecf8074	0.4052769
71	0x3e864e53	0.26231632
72	0xbe9c7869	-0.30560616
73	0xbf2e167c	-0.6800306
74	0xbe7199c4	-0.23593813
75	0xbdea0ede	-0.11428617
76	0xbeec0cba	-0.4610346
77	0xbf6e32a4	-0.9304602
78	0x3e8d82cb	0.2763885
79	0xbf2ebb4b	-0.68254536
80	0xbf0a22de	-0.53959453
81	0xbf3c7fa9	-0.73632294
82	0xbf041044	-0.5158732
83	0x3de6f014	0.1127626
84	0xbf4c51ca	-0.798123
85	0x3f1237d1	0.5711642
86	0x3e5ff418	0.21870458
87	0xbf20f733	-0.62877196
88	0xbf096db3	-0.5368301
89	0xbecd4b95	-0.40096727
90	0xbf299aa2	-0.66251576
91	0x3dd1f3cc	0.10251579
92	0xbeff9947	-0.4992163
93	0x3eae98b5	0.3410088
94	0xbf1fd7f5	-0.624389
95	0xbea4ef8d	-0.32214013
96	0xbf662d5b	-0.89912957
97	0xbee76ca8	-0.45200086
98	0xbf1e5e19	-0.6186233
99	0xbed3b884	-0.41351712

arith.constant4 f4 [2]
0	0xbde0b0d6	-0.10971229
1	0x3de0b0d7	0.109712295

arith.constant16 f4 [150, 3]
0	0xbf1b38b5	-0.60633403
1	0x3eabebe7	0.33578417
2	0x3f656c90	0.8961878
3	0xbeb543c9	-0.35403278
4	0xbdec9ca8	-0.11553317
5	0xbcfcc726	-0.03085668
6	0xbea612d5	-0.32436243
7	0xbea12352	-0.3147226
8	0xbe2dd027	-0.16973935
9	0xbd7f5adc	-0.06234251
10	0xbec523f5	-0.38503996
11	0x3f2d6fc4	0.67748666
12	0xbe956ec3	-0.29186067
13	0xbe5b7754	-0.21432239
14	0xbe6e2109	-0.2325479
15	0xbee2595d	-0.44208804
16	0x3f3f2358	0.74663305
17	0xbee02dd2	-0.43784958
18	0xbf058a3e	-0.52164066
19	0x3f15aa49	0.5846296
20	0xbe9f2428	-0.31082273
21	0xbe29bd46	-0.16576108
22	0xbf0034cb	-0.50080556
23	0x3f23fa99	0.64054257
24	0xbd83beb6	-0.064328596
25	0x3f32de95	0.69870883
26	0xbe9ee3b9	-0.31033114
27	0xbe879ba3	-0.2648593
28	0xbf372d24	-0.71553254
29	0x3db2e199	0.087344356
30	0x3b6843dc	0.0035440838
31	0xbe3cc372	-0.18433931
32	0x3e0446a0	0.12917566
33	0xbe887ca9	-0.26657608
34	0x3ed81b62	0.4220839
35	0xbef137ae	-0.47112793
36	0xbef0fdb3	-0.47068557
37	0xbd212bf2	-0.03934855
38	0xbd938200	-0.0720253
39	0xbf29ba6a	-0.6630007
40	0x3e9cf51b	0.3065575
41	0xbdcc8921	-0.09987093
42	0x3f3d0b40	0.7384529
43	0x3cbeb00e	0.023277309
44	0xbf27ff05	-0.65623504
45	0xbdd0fc20	-0.10204339
46	0xbefc0483	-0.49222192
47	0x3c281544	0.010258976
48	0xbd277194	-0.0408798
49	0xbfd4683b	-1.6594309
50	0xbd7d79e3	-0.06188382
51	0xbf033271	-0.5124884
52	0x3ef637c1	0.48089412
53	0x3e9d3420	0.3070383
54	0xbe6580a2	-0.22412351
55	0xbf239a42	-0.63907254
56	0xbda0066b	-0.07813724
57	0xbe26fec9	-0.1630813
58	0x3f49b0fe	0.78785694
59	0x3faf69fc	1.3704219
60	0xbe9e5762	-0.30926043
61	0xbea06564	-0.31327355
62	0x3d9cf9a1	0.076648004
63	0xbdb4e2f3	-0.0883235
64	0x3e6807e0	0.22659254
65	0xbc8478bb	-0.01617085
66	0xbf53dfa6	-0.82763135
67	0x3f015ed6	0.50535333
68	0x3ec95438	0.39322066
69	0xbee4ad59	-0.44663504
70	0xbe005a90	-0.12534547
71	0x3d8fee06	0.07027821
72	0x3e269de5	0.1627117
73	0x3e31392b	0.17306964
74	0xbdd96525	-0.10614995
75	0xbe04c3fd	-0.12965389
76	0xbeb009d3	-0.34382495
77	0x3d3ff939	0.046868537
78	0xbec567b5	-0.38555685
79	0xbe8a391c	-0.26996696
80	0x3e7881a7	0.24268208
81	0x3f2148ed	0.630019
82	0xbf410f96	-0.7541441
83	0x3f870b82	1.0550387
84	0x3cbf3001	0.02333832
85	0xbf416d0c	-0.7555702
86	0x3e3f3b1c	0.18674892
87	0xbf04e4c1	-0.5191155
88	0xbe48e1a2	-0.19617322
89	0x3e35bc53	0.17747621
90	0x3c26e5b5	0.010186602
91	0xbf19231d	-0.59819204
92	0x3ec7567b	0.38933167
93	0xbe3c9769	-0.18417133
94	0x3d97acdc	0.07406017
95	0x3f01242b	0.5044581
96	0xbf96578d	-1.1745468
97	0xbe071b2d	-0.1319396
98	0x3f0ecedb	0.55784386
99	0x3d5154e3	0.051106345
100	0xbe2f7bce	-0.17137071
101	0xbda7bb5e	-0.08190034
102	0xbf42c2e2	-0.7607862
103	0x3e096e65	0.13421018
104	0x3e6dad4e	0.23210642
105	0xbe62ae19	-0.22136725
106	0xbe203721	-0.1564603
107	0xbd940147	-0.07226806
108	0x3cea0207	0.02856542
109	0x3d9c0793	0.07618632
110	0xbcd2d08a	-0.025734205
111	0xbf12b775	-0.57311183
112	0x3edab932	0.42719418
113	0x3ef9ac6e	0.48764366
114	0xbefe814d	-0.49708024
115	0x3f518f0f	0.81858915
116	0xbebfe0de	-0.37476248
117	0x3ee4e2a2	0.44704157
118	0x3f8c18b1	1.0945035
119	0xbdd9576c	-0.106123775
120	0xbdc6d246	-0.09708075
121	0xbf39fa9c	-0.72648025
122	0x3f1e76c7	0.6189999
123	0xbcc4c8e1	-0.024021568
124	0xbe3abb5f	-0.18235539
125	0xbe10ce59	-0.14141215
126	0xbd871a29	-0.065967865
127	0xbf4f4fdb	-0.80981225
128	0x3f2a201f	0.6645526
129	0x3ecd2ddd	0.40074053
130	0xbf0a50ef	-0.54029745
131	0xbf18468d	-0.5948265
132	0xbd99b3e9	-0.07505018
133	0x3f05be6f	0.52243704
134	0xbefa8e3b	-0.48936638
135	0x3e14923e	0.14508912
136	0xbdf9df5e	-0.12200807
137	0xbf6c0897	-0.9220061
138	0xbf689082	-0.908455
139	0x3ebebae1	0.37251952
140	0x3e9983ed	0.29983464
141	0x3ca4bf2e	0.020110693
142	0xbf2635f2	-0.64926064
143	0x3f8c701e	1.0971715
144	0x3ecde792	0.40215737
145	0xbf3d6aea	-0.7399126
146	0x3f75270d	0.9576271
147	0xbede3c8b	-0.43405566
148	0xbe7fe892	-0.24991062
149	0x3e1ca5a0	0.15297556
150	0x3f931ba0	1.1492805
151	0x3dc12754	0.09431329
152	0xbdee5d1f	-0.11638855
153	0x3ef2d822	0.4743052
154	0x3e53940c	0.20661944
155	0xbde097da	-0.109664634
156	0x3e2fe95a	0.1717886
157	0x3e9455ac	0.28971612
158	0xbdc8a87d	-0.097977616
159	0x3f3f3d14	0.7470257
160	0x3ecad91e	0.39618772
161	0xbea6a3f6	-0.32546967
162	0xbea3f11c	-0.3201989
163	0x3d224393	0.039615225
164	0xbe31b1b4	-0.17352945
165	0x3fc86673	1.5656265
166	0xbe6a6e2f	-0.22893594
167	0x3f0812ce	0.53153694
168	0x3f9801fa	1.1875603
169	0xbe28f944	-0.16501337
170	0x3e4cfde0	0.2001872
171	0x3f01e32d	0.5073727
172	0x3e98de84	0.29857266
173	0xbe414288	-0.18873036
174	0x3ecc0c09	0.39852932
175	0xbeb278e6	-0.34857863
176	0x3caab0d3	0.02083627
177	0xbf13edda	-0.5778481
178	0xbe29fa5e	-0.16599414
179	0xbdbe7faf	-0.093016975
180	0xbd33c14b	-0.04388551
181	0xbe00c4ec	-0.1257512
182	0xbe00b229	-0.12567963
183	0x3f1ce9d4	0.61294293
184	0xbddf0e16	-0.108913586
185	0x3ef255ec	0.47331178
186	0x3efe6728	0.49688077
187	0x3cee498b	0.029087802
188	0xbc75554e	-0.0149739515
189	0x3f0e7b39	0.5565677
190	0xbe13067d	-0.14357944
191	0x3e663e5b	0.22484724
192	0x3dbb11b9	0.0913424
193	0xbf8da421	-1.1065713
194	0x3dd261c7	0.10272556
195	0xbe9e976c	-0.309749
196	0xbe809a6b	-0.25117812
197	0x3d04c1f8	0.032411546
198	0x3f05a6ce	0.5220765
199	0x3ec8ad3e	0.39194673
200	0x3d71c6d4	0.059027508
201	0x3f96ab02	1.1770937
202	0xbdd96590	-0.10615075
203	0x3e1f102b	0.15533511
204	0x3e132d4a	0.14372745
205	0x3e9f0bad	0.31063595
206	0xbe83e31c	-0.25759208
207	0x3fab2b4c	1.3372588
208	0xbdd49d1d	-0.103815295
209	0xbe3f6de7	-0.18694268
210	0xbe8b2d20	-0.27182865
211	0xbdf8e0fe	-0.12152289
212	0xbe838e5f	-0.25694558
213	0xbd51ee2e	-0.051252536
214	0x3e074d86	0.13213167
215	0xbc374e5b	-0.011188115
216	0x3f179fc4	0.5922816
217	0xbe308bc6	-0.1724082
218	0xbdb3f8a4	-0.08787659
219	0x3f681793	0.9066097
220	0xbcc5a2b7	-0.02412544
221	0xb9f53dd7	-0.00046776116
222	0x3e0a4ea2	0.13506559
223	0xbd1d668c	-0.038427874
224	0xbdc33da3	-0.09533241
225	0x3d663522	0.056203015
226	0x3ccdb34a	0.025109906
227	0xbeaf374d	-0.3422188
228	0x3f35805f	0.70899004
229	0x3d51d8c5	0.05123212
230	0x3c9bdde1	0.019026699
231	0xbd8f7fd9	-0.07006807
232	0x3f0bbbd5	0.54583484
233	0xbf5cbfb6	-0.8623003
234	0x3e9b6c11	0.30355886
235	0xbdb57c32	-0.08861579
236	0xbdb599c2	-0.088672176
237	0x3f45e7c1	0.77306753
238	0x3e9e8fa4	0.30968964
239	0xbe20758d	-0.15669842
240	0x3efcbeed	0.49364415
241	0xbcdd131e	-0.026986655
242	0xbe9d0544	-0.3066808
243	0x3f6aef1f	0.9177112
244	0xbdbb7cdb	-0.09154674
245	0xbdb3c37e	-0.087775216
246	0x3f049f13	0.5180523
247	0x3e4bcae8	0.19901621
248	0xbe5c33b9	-0.21504106
249	0x3c6ac6fe	0.01432967
250	0xbe8041e4	-0.2505027
251	0xbe24de98	-0.16100538
252	0x3f26a8b8	0.65101194
253	0xbdb01d22	-0.08599307
254	0xbe33e62a	-0.1756827
255	0xbe3b1699	-0.18270339

arith.constant17 f4 [150, 50]
0	0x3d53ce80	0.051710606
1	0x3d8216f9	0.06352038
2	0x3cd337bc	0.025783412
3	0xbcfa29ee	-0.030537572
4	0xbdff63e4	-0.124702245
5	0xbddae7e8	-0.10688764
6	0xbda12783	-0.078688644
7	0x3d65e272	0.05612416
8	0x3d394f35	0.045241553
9	0x3dca50e4	0.0987871
10	0xbc09d5c4	-0.008412782
11	0xbbc20b60	-0.005921766
12	0x3da43518	0.08017939
13	0xbccbd004	-0.024879463
14	0xbd2bebb4	-0.04197283
15	0x3c70d9f7	0.014700404
16	0x3e1e4e3d	0.15459533
17	0xbc4e7c10	-0.012602821
18	0xbdb3cd91	-0.08779443
19	0xbcfce3c4	-0.030870326
20	0x3dca88e0	0.09889388
21	0xbd1de24f	-0.038545903
22	0x3d77deaa	0.060515083
23	0x3da60481	0.08106328
24	0xbcb0a368	-0.021562293
25	0xbd2ed21c	-0.042680845
26	0xbe149ca6	-0.14512882
27	0x3dbe4683	0.09290793
28	0x3d47446a	0.04864923
29	0x3d42a0ff	0.04751682
30	0xbd0ca4e0	-0.034336925
31	0x3cfb5f4c	0.03068509
32	0x3d3ba4d1	0.045811478
33	0xbda24e9e	-0.07925151
34	0x3d46f7a4	0.048576012
35	0x3d4d3def	0.050107893
36	0xbe28e9c4	-0.16495425
37	0x3a3e0b00	0.0007249564
38	0x3d8537aa	0.06504758
39	0xbe28c427	-0.16481076
40	0x3d8702bc	0.065923184
41	0x3d92add9	0.07162065
42	0x3d74717b	0.059678536
43	0x3ce26bdf	0.027639328
44	0x3de83d2b	0.11339792
45	0xbd219c37	-0.03945562
46	0xbcbdb108	-0.023155704
47	0xbde5597b	-0.11198708
48	0xbe4a86a4	-0.19777924
49	0xbde1d8a5	-0.1102765
50	0xbd7303ca	-0.059329785
51	0x3d93ae90	0.072110295
52	0xbdc219c1	-0.094775684
53	0x3d8e957b	0.06962105
54	0xbcf322bb	-0.029679647
55	0x3cce1130	0.02515468
56	0x3c9714e6	0.018442582
57	0x3e00f41b	0.12593119
58	0xbcc3c678	-0.023898348
59	0xbd373234	-0.04472561
60	0xbd9572de	-0.072973
61	0x3ccf646c	0.02531644
62	0xbd8524b8	-0.06501144
63	0xbd2e396e	-0.042535238
64	0xbc8f8776	-0.017520647
65	0x3cdb2925	0.026753018
66	0xbd557cf6	-0.052121125
67	0x3daed80f	0.08537304
68	0xbdb37040	-0.08761644
69	0xbd5467cf	-0.051856812
70	0x3ce25281	0.027627232
71	0x3d566951	0.05234653
72	0xbe097593	-0.13423757
73	0xbe545edf	-0.20739315
74	0x3dadfea5	0.08495835
75	0xbd025108	-0.03181556
76	0x3d896778	0.06709188
77	0xbdaab3b6	-0.083350584
78	0x3cafb40a	0.021448154
79	0x3ca5111f	0.020149766
80	0x3de19ff9	0.110168405
81	0x3d91a6e1	0.07111908
82	0xbdae02c7	-0.084966235
83	0x3d3a3290	0.045458376
84	0xbc284930	-0.0102713555
85	0x3da76ea0	0.08175397
86	0x3c198128	0.009369172
87	0xbcbad884	-0.02280832
88	0xbd92e627	-0.07172804
89	0xbe13ab24	-0.14420754
90	0xbd497a45	-0.04918887
91	0xbc1de986	-0.009638196
92	0xbdd33725	-0.10313252
93	0x3bf8e393	0.0075954883
94	0xbd74a1ee	-0.05972474
95	0x3d5f6313	0.054537844
96	0x3d2fb383	0.042895805
97	0x3ccbd8a8	0.024883583
98	0x3e1d13e6	0.15339622
99	0x3dc2d239	0.09512753
100	0xbd7de360	-0.06198442
101	0x3da58791	0.08082498
102	0x3c2f3400	0.01069355
103	0x3c831a31	0.0160037
104	0x3da926ca	0.082593516
105	0xbddda1de	-0.10821889
106	0x3c45745c	0.012051668
107	0x3de9c59b	0.114146434
108	0xbe143cfb	-0.14476387
109	0x3c78642f	0.015160604
110	0x3e0eaac7	0.13932334
111	0x3e28ba0c	0.16477221
112	0x3d269491	0.040669028
113	0xbc977064	-0.01848621
114	0x3d23490c	0.039864585
115	0x3e06519a	0.13117066
116	0x3d477fd0	0.048705876
117	0x3cd54303	0.02603293
118	0x3c8c05ab	0.017092546
119	0xbe45c51c	-0.19313473
120	0xbdc218db	-0.09477397
121	0x3ce15402	0.027505878
122	0x3cd9f58a	0.02660634
123	0xbe11fdd4	-0.14256984
124	0x3d4e023d	0.050295103
125	0xb8cdfe80	-9.822566e-05
126	0x3d398293	0.04529054
127	0x3d57d3ce	0.052692227
128	0x3c404cc8	0.011737056
129	0xbd410236	-0.04712125
130	0x3cc769ac	0.02434238
131	0xbde20724	-0.11036518
132	0x3df6539d	0.12027667
133	0x3b9930e6	0.0046750186
134	0x3d6ed9c1	0.058313135
135	0x3d88f8ae	0.06688057
136	0xbddfdaf9	-0.109304376
137	0x3df80545	0.1211038
138	0x3b5326d8	0.0032219198
139	0x3cedcb34	0.029027559
140	0x3d20dfb7	0.03927585
141	0x3dac9131	0.084261306
142	0x3ddcaa6d	0.10774694
143	0x3d57179b	0.052512746
144	0x3d37cd97	0.0448738
145	0xbd9bae64	-0.07601622
146	0xbbe30851	-0.0069284816
147	0x3c3ab0c8	0.011394687
148	0x3ca9fb2c	0.02074965
149	0xbc6c46ae	-0.014421148
150	0x3dafabf9	0.08577723
151	0xbd52d626	-0.05147376
152	0xbd47f41a	-0.048816778
153	0xbe29ac28	-0.16569579
154	0xbd534da8	-0.05158773
155	0xbcdfcc46	-0.027319085
156	0x3cb8609e	0.022507008
157	0x3dc30964	0.095232755
158	0x3ba47a7c	0.005019484
159	0x3ce05625	0.027384827
160	0xbe047fb1	-0.12939335
161	0xbd45075a	-0.048102714
162	0x3bfda399	0.0077404496
163	0x3e07f591	0.1327727
164	0x3d9141a3	0.07092597
165	0x3dfa66dd	0.12226651
166	0xbd7c64f0	-0.0616197
167	0x3da13358	0.07871121
168	0xbe68d1d5	-0.22736295
169	0xba944140	-0.001131095
170	0xbcc942ee	-0.024568047
171	0xbdc699c3	-0.096972965
172	0x3de2b807	0.11070257
173	0xbdf3f378	-0.11911672
174	0xbd1db940	-0.038506746
175	0xbd49178e	-0.04909473
176	0x3d36f13c	0.044663653
177	0xbd9986af	-0.07496392
178	0x3cac230d	0.021012807
179	0xbbde538c	-0.006784862
180	0xbdaef291	-0.085423596
181	0x3da97fe5	0.08276347
182	0xbdbcefcd	-0.09225426
183	0xbd25a7bf	-0.04044318
184	0x3dacf092	0.08444323
185	0x3bc988ad	0.006150326
186	0xbc84bef6	-0.016204339
187	0xbd190478	-0.037357777
188	0xbd9212ab	-0.07132467
189	0x3d863c2a	0.06554444
190	0xbda05f37	-0.07830661
191	0x3de07576	0.10959904
192	0x3d18ebb9	0.037334178
193	0xbb3a7866	-0.002845311
194	0xbcb4c291	-0.022065433
195	0x3d98e711	0.074659474
196	0xbdbba2b4	-0.091618925
197	0xbdc16294	-0.094426304
198	0xbd5e6a42	-0.054300554
199	0xbcddf1cc	-0.027092837
200	0x3c9c01a1	0.019043745
201	0x3cfa325d	0.030541593
202	0xbd3a3798	-0.045463175
203	0xbe055b20	-0.13023043
204	0xbdf29140	-0.118441105
205	0xbd31a63f	-0.043371435
206	0xbe370d01	-0.17876054
207	0x3e0668d2	0.13125923
208	0x3d8b55f9	0.06803507
209	0xbdc87695	-0.09788243
210	0xbd4ce100	-0.050019264
211	0xbda16806	-0.07881169
212	0xbd2ebde1	-0.04266155
213	0xbe231887	-0.15927325
214	0xbc955294	-0.018227853
215	0xbd2561a7	-0.04037633
216	0xbdfb0681	-0.122571
217	0x3cb765df	0.022387443
218	0xbcb71402	-0.022348408
219	0x3cfb7148	0.030693665
220	0x3e47fa0e	0.19528982
221	0xbd008497	-0.031376448
222	0xbdbcd282	-0.09219839
223	0xbe5fd95e	-0.21860263
224	0xbd8c868c	-0.068616
225	0x3d73bed0	0.059508145
226	0x3c12306c	0.0089226775
227	0xbd5d9180	-0.054093838
228	0xbd62e99d	-0.055398572
229	0xbdaba8cd	-0.083818056
230	0xbd4a3869	-0.049370203
231	0xb8adfc00	-8.2962215e-05
232	0x3e9a3a7b	0.30122742
233	0xbd143677	-0.036184754
234	0x3c205398	0.009785555
235	0x3d660aae	0.05616253
236	0x3c0e7209	0.00869418
237	0x3dada9bc	0.0847964
238	0x3db2daf6	0.0873317
239	0xbc8e0afe	-0.017339226
240	0x3d30f2e9	0.043200407
241	0x3d69dff6	0.05709835
242	0xbd36c983	-0.04462577
243	0xbe18cb38	-0.14921272
244	0xbd1652fb	-0.03670023
245	0xbe1345cf	-0.14382099
246	0xbb179088	-0.0023126919
247	0x3cc32242	0.023820046
248	0xbde25e63	-0.11053159
249	0x3ce92280	0.028458834
250	0xbd8cdb6d	-0.0687779
251	0x3d930363	0.0717838
252	0x3d486b6e	0.048930578
253	0x3b97ba1f	0.0046303417
254	0xbb07c1f4	-0.002071497
255	0xbd5da200	-0.054109573

sequential_5_1/gru_1/while/gru_cell_1/Squeeze f4 [150]
0	0xbf338cc6	-0.7013668
1	0xbdb3cbc6	-0.08779101
2	0xbe90a4c9	-0.2825072
3	0xbec123c2	-0.37722594
4	0xbe87826c	-0.26466691
5	0xbf533c24	-0.8251364
6	0xbf13e413	-0.5776989
7	0xbe48fc61	-0.19627525
8	0xbeb9f09e	-0.3631639
9	0xbe65a5b1	-0.22426488
10	0x3cf7cf5f	0.03025025
11	0xbf2f810b	-0.6855628
12	0xbcc5e1d2	-0.024155531
13	0xbea662f6	-0.32497376
14	0xbe8eec50	-0.27914667
15	0xbe3854ce	-0.180011
16	0xbe147880	-0.14499092
17	0xbf076047	-0.5288128
18	0xbe192926	-0.14957103
19	0xbf925a21	-1.1433755
20	0xbe8d75bc	-0.27628887
21	0x3d08a24e	0.03335791
22	0xbefe4d7e	-0.49668497
23	0xbf051eaa	-0.51999915
24	0x3d043b53	0.03228314
25	0xbdf3dbf9	-0.11907191
26	0xbecfe2db	-0.40602764
27	0xbf4a25ea	-0.789641
28	0xbe73f6fa	-0.23824683
29	0xbeb7ae22	-0.3587504
30	0xbe476820	-0.19473314
31	0xbec6790e	-0.38764232
32	0xbf200f3d	-0.6252325
33	0x3d2dea8c	0.04246001
34	0xbf187213	-0.59549063
35	0xbe9c8105	-0.30567184
36	0x3d5bae20	0.053632855
37	0xbf13e72d	-0.5777462
38	0xbf4144a5	-0.7549537
39	0xbe360bbc	-0.17777914
40	0xbeeec250	-0.46632624
41	0x3d23337f	0.039844032
42	0xbefd54a7	-0.49478647
43	0xbe63da40	-0.22251225
44	0xbe8b2c65	-0.27182308
45	0xbe8e1e21	-0.27757362
46	0xbf265c0a	-0.6498419
47	0xbeeff9dd	-0.46870318
48	0xbf13375a	-0.57506335
49	0xbeae7eea	-0.34081203
50	0x3b228fd3	0.0024804964
51	0x3d1b160c	0.037862822
52	0x3ee990b0	0.456182
53	0x3de8e431	0.11371649
54	0x3f07fd2c	0.53120685
55	0x3d2239fa	0.039606072
56	0x3d5448d2	0.05182726
57	0x3d31a29b	0.043367963
58	0x3dcfd4ff	0.10148048
59	0x3f165d91	0.5873652
60	0x3d830804	0.06398013
61	0x3d86d1d9	0.06582994
62	0x3d832a67	0.06404572
63	0x3d4e55e3	0.050374877
64	0x3b94fe6b	0.0045469305
65	0x3f17af14	0.59251523
66	0x3c8a7435	0.016901115
67	0x3d7ea7fb	0.062171917
68	0x3f004bf9	0.50115925
69	0xbe19d41c	-0.1502232
70	0x3f1137d0	0.5672579
71	0x3d649aad	0.055811573
72	0x3d06cf67	0.032912638
73	0x3e271372	0.16316012
74	0x3d657f0c	0.056029364
75	0x3de67fdb	0.11254855
76	0x3e25e6c3	0.1620131
77	0xbe7ed455	-0.24885686
78	0x3ed3d530	0.41373587
79	0x3e10bba5	0.1413408
80	0x3cccf128	0.025017336
81	0x3e05040e	0.12989828
82	0x3cf9100a	0.030403156
83	0x3dcab3ac	0.09897551
84	0x3ced0ca1	0.028936686
85	0x3ef89e9c	0.4855851
86	0x3e1ab78a	0.15109077
87	0xbcd5a9a3	-0.026081866
88	0x3cb18d24	0.021673746
89	0x3cfa2370	0.030534476
90	0x3d0f5b58	0.03499922
91	0x3d86ced3	0.06582417
92	0xbce8bf0b	-0.028411409
93	0xbd61c6b6	-0.055121146
94	0x3daca968	0.08430749
95	0x3decb117	0.11557215
96	0x3d9b6643	0.07587864
97	0x3ba1a6cd	0.0049332143
98	0xbd6d0f56	-0.057875954
99	0x3e1c958b	0.15291421
100	0xbd3d897a	-0.046273686
101	0xbca552b6	-0.020181041
102	0x3ebf0f9e	0.37316602
103	0x3e1822d5	0.14857037
104	0x3ec0ec5b	0.37680325
105	0x3d4e0ebe	0.050307028
106	0x3d74c69d	0.059759725
107	0xbcd70248	-0.026246205
108	0xbd77683b	-0.060402136
109	0x3ed7d599	0.4215515
110	0xbd353f27	-0.04424968
111	0x3d783dda	0.06060586
112	0xbd27972c	-0.040915653
113	0x3cc84485	0.024446735
114	0x3c303112	0.010753887
115	0x3ecb008c	0.39648855
116	0x3cebdb50	0.0287911
117	0x3d44fb84	0.048091426
118	0x3ec93015	0.39294496
119	0xbd0db68f	-0.03459793
120	0x3ed08978	0.4072988
121	0xbd2dce8e	-0.042433314
122	0xbd11877e	-0.035529606
123	0x3e0d2a83	0.13785748
124	0xbd2b41f8	-0.04181096
125	0x3bca0c05	0.0061659836
126	0x3e1e4d40	0.15459156
127	0xbe61b761	-0.2204261
128	0x3ebc0a63	0.36726674
129	0x3dfc0c5b	0.12307044
130	0xbd3dffbc	-0.046386465
131	0x3dd92bcf	0.10604059
132	0xbd50d432	-0.050983615
133	0xbd8111e4	-0.063022405
134	0xbd598939	-0.05310938
135	0x3eb6af2c	0.3568052
136	0xbdabaf97	-0.083831005
137	0xbd68941f	-0.056781884
138	0x3d3c17d0	0.045921147
139	0xbaf1109b	-0.001839179
140	0xbca05821	-0.019573273
141	0xbd4acac0	-0.049509764
142	0xbd9e2a79	-0.07722945
143	0xbac749dc	-0.0015204507
144	0xbd8de5b1	-0.06928576
145	0xbccad914	-0.024761714
146	0x3d7016e6	0.058615588
147	0xbce94e99	-0.028479861
148	0xbd587709	-0.052847896
149	0x3e100135	0.1406296

sequential_5_1/gru_1/while/gru_cell_1/Squeeze_1 f4 [150]
0	0xbf338cc6	-0.7013668
1	0xbdb3cbc6	-0.08779101
2	0xbe90a4c9	-0.2825072
3	0xbec123c2	-0.37722594
4	0xbe87826c	-0.26466691
5	0xbf533c24	-0.8251364
6	0xbf13e413	-0.5776989
7	0xbe48fc61	-0.19627525
8	0xbeb9f09e	-0.3631639
9	0xbe65a5b1	-0.22426488
10	0x3cf7cf5f	0.03025025
11	0xbf2f810b	-0.6855628
12	0xbcc5e1d2	-0.024155531
13	0xbea662f6	-0.32497376
14	0xbe8eec50	-0.27914667
15	0xbe3854ce	-0.180011
16	0xbe147880	-0.14499092
17	0xbf076047	-0.5288128
18	0xbe192926	-0.14957103
19	0xbf925a21	-1.1433755
20	0xbe8d75bc	-0.27628887
21	0x3d08a24e	0.03335791
22	0xbefe4d7e	-0.49668497
23	0xbf051eaa	-0.51999915
24	0x3d043b53	0.03228314
25	0xbdf3dbf9	-0.11907191
26	0xbecfe2db	-0.40602764
27	0xbf4a25ea	-0.789641
28	0xbe73f6fa	-0.23824683
29	0xbeb7ae22	-0.3587504
30	0xbe476820	-0.19473314
31	0xbec6790e	-0.38764232
32	0xbf200f3d	-0.6252325
33	0x3d2dea8c	0.04246001
34	0xbf187213	-0.59549063
35	0xbe9c8105	-0.30567184
36	0x3d5bae20	0.053632855
37	0xbf13e72d	-0.5777462
38	0xbf4144a5	-0.7549537
39	0xbe360bbc	-0.17777914
40	0xbeeec250	-0.46632624
41	0x3d23337f	0.039844032
42	0xbefd54a7	-0.49478647
43	0xbe63da40	-0.22251225
44	0xbe8b2c65	-0.27182308
45	0xbe8e1e21	-0.27757362
46	0xbf265c0a	-0.6498419
47	0xbeeff9dd	-0.46870318
48	0xbf13375a	-0.57506335
49	0xbeae7eea	-0.34081203
50	0x3b228fd3	0.0024804964
51	0x3d1b160c	0.037862822
52	0x3ee990b0	0.456182
53	0x3de8e431	0.11371649
54	0x3f07fd2c	0.53120685
55	0x3d2239fa	0.039606072
56	0x3d5448d2	0.05182726
57	0x3d31a29b	0.043367963
58	0x3dcfd4ff	0.10148048
59	0x3f165d91	0.5873652
60	0x3d830804	0.06398013
61	0x3d86d1d9	0.06582994
62	0x3d832a67	0.06404572
63	0x3d4e55e3	0.050374877
64	0x3b94fe6b	0.0045469305
65	0x3f17af14	0.59251523
66	0x3c8a7435	0.016901115
67	0x3d7ea7fb	0.062171917
68	0x3f004bf9	0.50115925
69	0xbe19d41c	-0.1502232
70	0x3f1137d0	0.5672579
71	0x3d649aad	0.055811573
72	0x3d06cf67	0.032912638
73	0x3e271372	0.16316012
74	0x3d657f0c	0.056029364
75	0x3de67fdb	0.11254855
76	0x3e25e6c3	0.1620131
77	0xbe7ed455	-0.24885686
78	0x3ed3d530	0.41373587
79	0x3e10bba5	0.1413408
80	0x3cccf128	0.025017336
81	0x3e05040e	0.12989828
82	0x3cf9100a	0.030403156
83	0x3dcab3ac	0.09897551
84	0x3ced0ca1	0.028936686
85	0x3ef89e9c	0.4855851
86	0x3e1ab78a	0.15109077
87	0xbcd5a9a3	-0.026081866
88	0x3cb18d24	0.021673746
89	0x3cfa2370	0.030534476
90	0x3d0f5b58	0.03499922
91	0x3d86ced3	0.06582417
92	0xbce8bf0b	-0.028411409
93	0xbd61c6b6	-0.055121146
94	0x3daca968	0.08430749
95	0x3decb117	0.11557215
96	0x3d9b6643	0.07587864
97	0x3ba1a6cd	0.0049332143
98	0xbd6d0f56	-0.057875954
99	0x3e1c958b	0.15291421
100	0x3d7d3315	0.061816294
101	0x3c8a9609	0.016917245
102	0x3ebe0da8	0.37119794
103	0x3e815bb1	0.25265267
104	0x3ec322a7	0.38112375
105	0x3e69f628	0.22847807
106	0x3e1abd76	0.15111336
107	0x3d29dfc1	0.041473154
108	0xbda88670	-0.08228767
109	0x3ee6b430	0.45059347
110	0xbd387f85	-0.045043487
111	0x3e187c3d	0.14891143
112	0xbc1a9b22	-0.009436401
113	0x3dbc733d	0.092016675
114	0xbe11a168	-0.14221728
115	0x3ec76f17	0.38951942
116	0x3dcfc183	0.10144331
117	0x3e052684	0.13002974
118	0x3edf75b0	0.43644476
119	0x3d9cabfa	0.076499894
120	0x3ed9aef9	0.42516306
121	0xbd324539	-0.043523047
122	0x3ca77295	0.02044038
123	0x3e4d15c6	0.20027837
124	0xbd2c63e4	-0.04208745
125	0x3b22c341	0.0024835619
126	0x3e5ca726	0.21548137
127	0xbc91eb4e	-0.017812397
128	0x3ec7c8a9	0.3902028
129	0x3e3ed7fb	0.18637078
130	0x3cec0345	0.028810153
131	0x3e1d3d1f	0.15355347
132	0x3b8840eb	0.0041581294
133	0xbd871646	-0.06596045
134	0x3c167e20	0.009185344
135	0x3eb4808e	0.3525433
136	0xbdb5a6ab	-0.0886968
137	0x3cecfa44	0.02892793
138	0x3e6cf5eb	0.23140685
139	0xbe00a135	-0.12561496
140	0x3cab9631	0.02094564
141	0xbd4cae4b	-0.049970906
142	0x3d2b4743	0.041816007
143	0xbda6b1b6	-0.081393644
144	0xbd086e78	-0.033308476
145	0xbd781799	-0.06056938
146	0x3e12b616	0.14327273
147	0x3d3b5f0c	0.04574494
148	0x3d943b58	0.072378814
149	0x3e615351	0.22004439
