tflite_modelos/LSTM/LSTM-Large.tflite (tflite, 178304 bytes, 5 tensors)

arith.constant3 f4 [2, 100]
000000 2d 55 89 bd b6 97 ec bc 0c 13 01 3f ac 5d cc 3e
       -0.06705699 -0.028880935 0.5041969 0.39915216
000010 6f 07 d0 3e 8f b7 66 3e 67 43 94 be c8 a3 59 3e
       0.4063067 0.2253096 -0.28957674 0.21253884
000020 85 12 b7 be 84 8f cc bd 59 95 d9 3e 93 ca 59 be
       -0.35756317 -0.09988311 0.42496756 -0.21268682
000030 9b d3 07 3f 7c bc 96 3e 52 77 f5 3e 55 7a 40 3e
       0.5305726 0.29440677 0.47942597 0.18796666
000040 84 d7 41 3f bc 6c 36 be 9a 7c b0 3e e2 1f 3c be
       0.75719476 -0.17814916 0.34470063 -0.18371537
000050 bf 09 b0 3e 1c 94 94 be e0 04 41 3e 07 52 f9 bd
       0.34382436 -0.29019248 0.18849516 -0.121738486
000060 7c 11 76 be 83 db c2 be 25 8f 19 3f 7d 8c bc 3e
       -0.24030107 -0.380581 0.59984046 0.36825934
000070 02 cd 0f 3f 35 91 97 3e d5 8c 42 be 39 db 7a bc
       0.5617219 0.29602972 -0.18999036 -0.015311056
000080 2d 32 4e be 71 9d b7 3e 5f 22 29 3d aa aa dc 3d
       -0.20136328 0.35862306 0.041292544 0.10774739
000090 55 75 a0 be 3a 65 b7 3c 2e f5 e2 3d 69 3d 6f 3e
       -0.31339517 0.022387136 0.110819206 0.2336327
0000a0 3b 6f bb 3e ab a5 ed 3e f1 56 a4 3d 51 6a fc 3e
       0.366083 0.46415457 0.08024395 0.49299863
0000b0 78 46 11 3f 75 00 db bd e7 99 a9 3d b0 e6 07 3f
       0.5674815 -0.106934465 0.08281308 0.53086376
0000c0 9f 85 db 3e 9c 6a 11 3e 9f 54 ab 3d 79 81 d9 3e
       0.42875382 0.14200824 0.083657496 0.42481592
0000d0 8f 0d e0 3e bd 57 dd be 9b 73 16 3f 41 dc bd 3e
       0.43760344 -0.43231001 0.5877015 0.37082103
0000e0 ef d7 87 be 7b b3 9b be b8 d8 b9 3e b6 dd 1d 3e
       -0.26531932 -0.3041037 0.36298156 0.15416607
0000f0 92 d3 30 be b6 6b bc 3e 56 57 ba 3d 54 1a 93 3e
       -0.17268208 0.36800927 0.09098689 0.28731024
000100 4a 46 90 be 5a 6b fb 3e ce ab 9d 3e c1 77 cd 3e
       -0.28178626 0.4910534 0.3079514 0.40130427
000110 65 a0 6f 3e 84 ce 2f be 54 a8 fc 3e 86 79 d1 be
       0.2340103 -0.17168623 0.49347174 -0.40913028
000120 83 8f af 3e 5e 17 08 3f 50 10 59 3e 54 06 4b be
       0.34289178 0.53160655 0.21197629 -0.19826633
000130 9e 56 d9 3e 98 16 75 be 12 67 6b be 9b 8e d6 3e
       0.42448896 -0.239344 -0.22988537 0.41905674
000140 1d 20 f9 3e e0 c8 98 3e 59 83 05 3f 1c cb 06 3f
       0.48657313 0.29840755 0.52153546 0.5265367
000150 71 4f 1b be 61 5e 60 be 5e 1e 02 be d7 90 f2 3e
       -0.15167023 -0.21911003 -0.12706897 0.4737613
000160 e6 e1 b9 3e ba e4 f7 3e b4 43 9a 3e 38 ca cc 3e
       0.3630516 0.48416692 0.30129778 0.3999803
000170 e3 c9 38 3e 80 50 04 be 51 fc 7c bd 13 3b 26 be
       0.18045764 -0.12921333 -0.061764065 -0.16233473
000180 68 fd 79 be e9 ae e7 bd 1e 90 7d be 8e 0c 35 be
       -0.24413073 -0.11312658 -0.24762008 -0.1768057
000190 c4 55 97 3e 06 80 32 3e 2f f8 32 bf 4c 56 a3 be
       0.2955762 0.1743165 -0.6990995 -0.31901777
0001a0 73 78 23 bf f1 f4 e5 be c8 b9 82 3e 99 b6 d1 bc
       -0.63855666 -0.44913438 0.25532365 -0.025599765
0001b0 07 84 2b 3e 58 d9 a5 3b a0 59 ba be b7 5e 18 3e
       0.16749583 0.00506131 -0.36396503 0.14879881
0001c0 da 2d e0 be 5f ad 01 bf a7 93 d0 be e8 ef b0 be
       -0.43784982 -0.5065517 -0.4073765 -0.34558034
0001d0 30 eb 54 bf f0 79 a8 3e 7e df 37 be c3 30 d6 3c
       -0.8317137 0.3290553 -0.17956349 0.026146298
0001e0 1d e5 4e be db ed c6 3d 57 62 85 bd 0c 4e 62 3e
       -0.20204587 0.09713336 -0.065128975 0.22100085
0001f0 2d e2 0e 3e cc b5 cd 3e a8 a8 14 bf ac 40 25 bf
       0.13953467 0.40177763 -0.5806985 -0.64551806
000200 04 49 cb be e7 c2 0a bf 15 32 aa 3e f1 73 a8 3e
       -0.39704144 -0.5420365 0.33241335 0.32900956
000210 85 a1 19 3d 18 f8 09 be 9b 93 a7 3e b5 6b b6 be
       0.037507553 -0.13473547 0.32729802 -0.3562905
000220 3a e1 a0 3e 43 96 4f 3e 5c 10 ca be 51 18 23 bf
       0.31421834 0.20272164 -0.39465606 -0.6370898
000230 ec 49 9a be fe 18 0f bf 81 3f 38 3e 2f fd 21 bf
       -0.30134523 -0.5589751 0.17992975 -0.6327695
000240 52 d9 c5 be 08 14 9f 3e 14 c8 af be 6c ab 15 bf
       -0.38642365 0.3106997 -0.34332335 -0.58464694
000250 ac 86 7d be 84 b9 16 bd a6 b5 0d bf 86 b8 dc bd
       -0.24758404 -0.036798015 -0.553553 -0.107773826
000260 e3 85 cd be 84 42 8e 3e 9e 4b 60 be fe 6e 06 bf
       -0.4014121 0.27785122 -0.21903846 -0.5251311
000270 00 74 98 3e 89 61 9e 3e 68 62 45 bd 7e 50 95 be
       0.29776 0.30933788 -0.04818955 -0.29162973
000280 77 44 0e 3c 73 1d 88 be 6b a0 c6 be f2 75 e9 be
       0.0086833155 -0.26584968 -0.38794264 -0.45597798
000290 d3 a5 81 3e 35 7f c6 be ff f0 d7 be d0 69 bf be
       0.25321826 -0.38768926 -0.42176053 -0.37385416
0002a0 57 ad 15 bf 91 c1 2f 3e 67 ae 02 bf 44 60 8b 3e
       -0.5846762 0.17163683 -0.51047367 0.27221882
0002b0 eb 99 c0 be 02 76 b9 be ed f7 18 bf d4 f1 72 3d
       -0.3761743 -0.36222845 -0.59753305 0.059312657
0002c0 0a ec e9 be 8a b6 a3 3e 79 1b fe 3d e7 db f3 be
       -0.45687896 0.31975204 0.12407584 -0.4762871
0002d0 5b 38 01 bf 07 18 cb be 0d a1 52 bf c0 01 18 be
       -0.50476617 -0.3966677 -0.82276994 -0.14844418
0002e0 b4 e5 08 be 77 71 b6 3e fa c8 94 3e 86 c7 06 be
       -0.13368875 0.35633442 0.29059583 -0.1316205
0002f0 6d 21 c4 be b8 71 fa bd 8e 1c ac be 33 68 c2 be
       -0.38306752 -0.122287214 -0.33615535 -0.37970123
000300 1c 3a fe be 8c 7a c1 3e 60 49 aa 3e 2f 36 aa 3e
       -0.4965371 0.37788808 0.33259106 0.33244464
000310 2d 27 81 3e 99 34 37 3e 09 ba b7 3e dc b0 0b be
       0.252252 0.17891158 0.3588412 -0.13641685

arith.constant4 f4 [2]
000000 54 93 47 3d 5a 93 47 bd
       0.048724487 -0.04872451

arith.constant16 f4 [400, 3]
000000 90 c8 f5 3d 99 c2 f0 3d 34 f6 ef 3c e3 15 0f be
       0.12001145 0.117558666 0.029292203 -0.13973193
000010 d5 69 51 3c d6 9c 2c 3e ba b3 1d 3f 5c 19 25 bf
       0.01278158 0.16856703 0.61602366 -0.6449182
000020 71 50 07 3f 21 33 7c 3f 0e ef 05 bf 13 10 bf bd
       0.5285712 0.98515517 -0.52317894 -0.09329238
000030 9b f0 57 3f 74 be 22 bf 44 f8 7c 3e 16 59 17 3f
       0.8435151 -0.6357186 0.24704081 0.5912031
000040 3b 3d 7b 3e d6 a8 98 3b 24 eb 53 3e e8 6f 6d be
       0.24535076 0.0046587987 0.20695168 -0.2318722
000050 f7 b5 93 bd 55 71 b4 be e9 a0 a4 bd 2e 27 33 3e
       -0.072124414 -0.35242715 -0.08038504 0.17495415
000060 53 67 fa bc a1 ed 1b 3f 54 82 8f bc ce 7e 95 bd
       -0.030566847 0.6090947 -0.0175182 -0.07299577
000070 d4 ba 84 3c cf e2 99 bd ad 86 13 3f 9e e7 cf be
       0.016202368 -0.075139634 0.57627374 -0.40606397
000080 6f 20 e9 bd bd f7 10 3d cd 90 c3 bc a8 00 a4 bc
       -0.11383139 0.03539251 -0.023872757 -0.020019844
000090 ce 62 c3 3e a3 79 b5 3d 99 87 23 bf bc a8 5b 3e
       0.3816132 0.08861091 -0.6387878 0.21451086
0000a0 b4 19 d0 3e 7f 88 49 bf 75 11 be 3e 80 a9 98 3d
       0.4064461 -0.787239 0.37122694 0.074542046
0000b0 79 b8 77 bd 4f ff 0c 3f ee 89 89 bc a4 bb 34 bd
       -0.06047866 0.5507707 -0.016789403 -0.04412426
0000c0 ad 59 85 3f 9a 86 42 bf 05 6f 3c be 52 f2 f3 3c
       1.0417992 -0.75986636 -0.18401726 0.029778633
0000d0 e9 a3 8c 3e 98 62 fe 3d 5d 6c e9 3e f5 a9 67 3e
       0.27468804 0.12421149 0.45590487 0.22623427
0000e0 e4 74 94 3b 95 c4 e4 bd 06 60 c2 3c a3 5d c1 bd
       0.004530536 -0.111703075 0.023727428 -0.09441688
0000f0 06 ff f2 3e b9 06 2b 3a a8 24 f5 bd 11 6a 3b 3d
       0.47460192 0.0006524134 -0.11969882 0.04575545
000100 4c 3e 8b 3e b0 2a 02 3e a5 ff 84 bd 99 a3 91 bd
       0.27195966 0.12711596 -0.06494073 -0.07111282
000110 16 92 91 3d 94 25 2f 3c 74 23 fd 3e 39 f2 7d 3e
       0.07107942 0.010690112 0.4944111 0.24799432
000120 26 63 f8 3c ca 4f 15 3f 53 85 1f bc 5e a1 b9 bd
       0.030320715 0.58324873 -0.009736377 -0.090639815
000130 e8 1a 8b 3e bc 82 a4 3d 81 44 a2 3e e0 4e b2 be
       0.27168965 0.08032748 0.3169289 -0.34825802
000140 46 29 20 3e 05 bd b9 be c7 da 25 3f 8c 97 54 bf
       0.15640745 -0.36277023 0.6478695 -0.8304374
000150 d2 79 a0 3e 89 ac f1 3e 36 d1 e7 be 9d c2 3c 3f
       0.31342942 0.47201946 -0.45276803 0.73734456
000160 e3 98 d2 be 69 bc de bd 65 58 54 3d e7 8f c9 3e
       -0.41132268 -0.1087578 0.051842112 0.393676
000170 e8 49 2e 3e 5b 7d d1 bc 1f a2 7b 3e 16 4e 59 3e
       0.1702038 -0.02557247 0.24573563 0.21221194
000180 6e 17 31 bc 16 30 18 3f c4 cc 86 bd 18 d5 fc 3e
       -0.010808809 0.59448373 -0.06582025 0.49381328
000190 ce 2c 8c 3e 6d 15 14 be 47 c5 5c be 58 ea 1d 3f
       0.27377933 -0.14461298 -0.2155963 0.61685705
0001a0 e9 ee 16 3d af 3a 61 3f 43 d0 50 be dd 8c 39 be
       0.036848936 0.8798017 -0.20391946 -0.18120141
0001b0 fc 2f 85 3a 52 c8 00 3f 07 3c 14 3d 3f ec 8b bd
       0.0010161395 0.50305665 0.03619006 -0.0683217
0001c0 52 7b 8f bd 08 ec 88 bd 9d bd 17 be af 38 9a be
       -0.07005943 -0.066856444 -0.14818425 -0.3012137
0001d0 7c 8e e2 3d 5f e0 51 3f f7 71 12 bf 8b 90 c4 be
       0.11062333 0.8198299 -0.57205147 -0.38391528
0001e0 cb 7d 3a 3f b4 5d ad be 62 11 28 be 08 28 17 3e
       0.72848195 -0.33860552 -0.16412881 0.14761364
0001f0 ae 78 05 3f c6 a3 27 bf 98 f5 7b 3d 83 05 92 3d
       0.5213727 -0.65484273 0.061513513 0.071299575
000200 5f 81 8a bd 22 78 d2 be f4 bb 6c 3f bc f3 51 bf
       -0.06762957 -0.4110728 0.92474294 -0.82012534
000210 b3 b0 3a 3f 1f db ac be e6 3f 88 3b 61 31 8e 3d
       0.7292587 -0.33760926 0.004158008 0.06943012
000220 93 82 97 3e 25 cb 72 3e 7b 82 ec 3e 2d 25 f4 bc
       0.29591808 0.23710306 0.461933 -0.029802883
000230 d2 90 15 bd c8 f0 00 3f 7e 0e e6 be 3b d7 78 3e
       -0.036515065 0.50367403 -0.44932932 0.24300854
000240 52 77 62 3f 2f d6 09 bf bc 08 1d be 22 94 92 bc
       0.8846332 -0.53842443 -0.15335363 -0.0178929
000250 d6 fd ec bd 5a 42 1e 3e 11 10 14 3f 12 63 b5 3e
       -0.11571853 0.15454999 0.57837015 0.35427147
000260 c3 d8 3e be fa ec 30 be 3b ea 6b be 44 81 6e 3d
       -0.18637376 -0.172779 -0.2303857 0.058228746
000270 da 14 2c 3e 7f d2 5c 3e 0f 1d fc be 26 dc 09 3d
       0.16804829 0.21564673 -0.4924092 0.033657216
000280 79 ef ac 3e fa 01 42 3e 44 6b fb 3e af f4 3d 3e
       0.33776453 0.18946066 0.49105275 0.1855037
000290 ec 73 44 3d 8b e0 5c 3d c5 b7 97 3e b5 1c 2c bf
       0.047962114 0.05392508 0.29632393 -0.67231303
0002a0 09 5e 90 3d a7 72 8b 3e 38 c8 ae ba 44 5d d0 bd
       0.07049186 0.2723591 -0.0013334816 -0.10174039
0002b0 cc c1 b7 3e 19 a5 d7 3c 5a 8f 9c be e4 0a cb be
       0.35890043 0.026323842 -0.3057812 -0.39656746
0002c0 3d ef 3e 3e c8 c2 4b bd c2 d7 af 3e f1 22 17 bf
       0.1864595 -0.049746305 0.34344298 -0.5903769
0002d0 83 5e 0b be f2 c8 b4 bd 35 90 a6 bd 7e d8 88 3e
       -0.13610272 -0.0882739 -0.08132974 0.2672767
0002e0 f0 1b 9f be 3f 92 f7 bc 08 0f 13 3f 0b af 43 be
       -0.31076002 -0.030221103 0.5744481 -0.19109742
0002f0 2e 98 8d bd 9e 09 0a 3e 48 40 9a 3e f0 ae 59 bf
       -0.069137916 0.13480231 0.30127168 -0.8503256
000300 64 ee 03 be 2c fd bd 3e b1 e9 8a 3d de c9 37 3e
       -0.12883908 0.37107217 0.06782854 0.179481
000310 ac b9 d8 3e 8e 20 2b bf f4 6d 31 3f f4 13 1e be
       0.42329156 -0.6684655 0.693084 -0.15437299
000320 8f ad 44 be 1b 6a 14 3f f8 04 c7 bd 68 0b 6f bd
       -0.19206832 0.57974404 -0.097177446 -0.058360487
000330 e6 8e 96 3e 5c 87 02 3f 2a 8a 71 bf 97 12 ce bc
       0.29405898 0.5098779 -0.94351447 -0.025155349
000340 b8 6b ae 3d f3 7d 71 bd eb bc 2b 3f b7 cc ad be
       0.085166395 -0.058958005 0.6708514 -0.33945248
000350 bd 4e 37 3e 1c a0 8f bd 05 01 67 3e 1a 42 8c 3e
       0.1790113 -0.0701296 0.22558983 0.2739418
000360 67 4e 84 3e 94 31 43 3e d2 56 a5 bd 9b dc 85 3f
       0.25841066 0.19061881 -0.080732 1.0457948
000370 18 17 bb be 3b d5 ee be 5b a8 22 3f 9f 91 a2 3d
       -0.36541057 -0.46647057 0.6353814 0.07937931
000380 0c e9 df 3d fb a4 8b bd 04 a6 8f 3d 9a 7e a7 3c
       0.10933122 -0.06818577 0.07014087 0.02044611
000390 2a f2 84 3e 07 03 a1 be 2b 16 98 be ac 22 0b 3d
       0.25966007 -0.31447622 -0.29704413 0.033968613
0003a0 a5 53 0d 3f 36 bb 19 3e 05 f9 b4 bd 41 34 77 3e
       0.55205756 0.15012822 -0.08836559 0.24141027
0003b0 50 d6 67 3d dc 15 c5 3d 3d 97 ea 3e f8 a1 1c bf
       0.05660087 0.0962331 0.4581851 -0.61184645
0003c0 b9 12 42 3e 72 b0 ab 3e ce 81 04 bf 9d 54 5e 3f
       0.18952455 0.33533055 -0.51760566 0.8684786
0003d0 25 6e c2 be 96 f8 30 be c0 61 67 3f 40 07 65 bf
       -0.3797466 -0.17282328 0.9038353 -0.8946419
0003e0 8e 1f 1d 3d 4a a5 1c 3f c8 69 a1 be 66 1f c3 be
       0.03836017 0.6118971 -0.31526017 -0.38109893
0003f0 53 b0 63 3d 4f b8 89 3c 13 f7 09 bd 1b cd b1 bc
       0.055588078 0.016811518 -0.033682894 -0.021704247

arith.constant17 f4 [400, 100]
000000 00 1a 54 3c 29 cd ca 3d 00 4d ac 3a a6 d5 1d 3d
       0.012945652 0.099024124 0.0013145506 0.03853383
000010 b0 e0 ec 3c d8 e9 fd 3a 01 a0 b4 3c c3 6c 85 bc
       0.028915733 0.0019372059 0.022048952 -0.016287213
000020 4e 38 97 3b 2b de 5d 3d ac b0 ab 3d 1c a0 67 bd
       0.0046148663 0.054166954 0.08383307 -0.056549177
000030 b5 c4 3c bd 3a d1 55 bc 36 22 58 bc 60 10 51 bd
       -0.046086032 -0.013050372 -0.01319175 -0.051041007
000040 ec 34 57 3c 56 fc 1c bd 35 76 a9 3c 7e b9 4f bd
       0.013135176 -0.038326584 0.020686248 -0.05071401
000050 b6 15 05 bd b7 65 21 3d 3d 24 26 bd ee 64 d7 3c
       -0.03249141 0.039403643 -0.040561903 0.026293244
000060 9f fd c6 3b 57 4c 07 bd 80 78 30 3d 7f 79 33 3b
       0.0060727145 -0.033031788 0.043083668 0.002738565
000070 19 c9 e1 bd 56 d0 37 bd bd 85 a2 3d ae dd 8d bd
       -0.110246845 -0.04487642 0.07935665 -0.06927048
000080 94 cb 37 3d 4f 4b bb bc 24 6a 14 bd d6 84 4f bd
       0.04487188 -0.022863058 -0.036234036 -0.05066379
000090 c7 58 96 3c 8f 07 ec bc 5e 44 97 3d e3 13 a3 3c
       0.01835288 -0.028812198 0.07386087 0.019906944
0000a0 56 e0 ab bc ba 5a a4 bd c6 7d fe bc 20 a5 3b 3c
       -0.020980995 -0.08025117 -0.031065833 0.011452943
0000b0 61 25 7d bc da 6d 7c bd ee e9 c9 bc 0b f7 4e bc
       -0.015450806 -0.0616282 -0.02464768 -0.012632142
0000c0 ee ad 03 bc 3a bd b0 bd 2e 22 31 bd 66 34 09 bd
       -0.008037074 -0.08629842 -0.043245487 -0.033497237
0000d0 14 a0 4d bc 08 b8 2f 3d b0 9c bc 3c f6 13 87 bd
       -0.012550373 0.042900115 0.023023933 -0.06595604
0000e0 b9 07 b0 bd 08 86 9d bd 86 c8 6a bc 4f 22 1b 3d
       -0.08595223 -0.0769158 -0.014330035 0.037874516
0000f0 8a 5c 1d bd fd 15 58 3c 08 d3 65 3c 2d e8 6b 3c
       -0.03841833 0.013188836 0.014027365 0.014398617
000100 65 a8 b2 3c aa be 08 3d 28 ad 70 3d de b7 1b bd
       0.021808812 0.033384956 0.058758885 -0.038017146
000110 4f 6c 0b 3d b6 30 fa bc 1f e2 2a 3d 1d 5c 05 be
       0.034038838 -0.030540805 0.041719552 -0.1302342
000120 c4 7e 3c bd 40 b8 39 bd ff 9b ef bc d4 b4 bf 3c
       -0.04601933 -0.04534173 -0.02924919 0.023401655
000130 87 ff 37 3d 06 10 40 ba 62 5a 28 bc 97 64 0e bc
       0.044921424 -0.00073266064 -0.010275455 -0.008690975
000140 59 81 31 3d 3e dc be 3c b0 ee 3c 3a f9 e4 3f 3d
       0.043336246 0.023298379 0.0007207198 0.046849225
000150 68 2c 34 3c 16 4e eb 3c ed a2 41 3c 2b 2b e1 3b
       0.010996915 0.028723758 0.01181863 0.006871601
000160 38 f2 c5 bd 24 7b 24 3d a4 94 c8 bd 28 ea 85 3c
       -0.0966534 0.0401565 -0.09793976 0.016347006
000170 a2 5f 88 bd c4 fd c4 bc 22 cd 00 3c af 5e be 3b
       -0.066588655 -0.024046786 0.0078614075 0.005809627
000180 37 8d de bd 48 73 17 bc 77 82 0c 3c 22 52 c6 bc
       -0.10866778 -0.009243794 0.008576027 -0.024209086
000190 3d 10 be 3c c0 c1 bc bc 95 51 fe bb c4 b2 08 bd
       0.023201102 -0.023041606 -0.00776119 -0.03337361
0001a0 52 64 50 3b 5d 5a d9 3c 94 02 88 bc 2d e2 51 bd
       0.0031798077 0.026532346 -0.016602792 -0.05124109
0001b0 94 f0 77 bd b7 f0 2e 3d 6f be a6 3d c4 16 74 3b
       -0.060532168 0.042710032 0.08141791 0.0037245015
0001c0 60 41 f8 bd 80 c9 ab bc 04 ce 96 bc 51 93 a3 3a
       -0.12121844 -0.020970106 -0.018408783 0.0012479817
0001d0 a6 5f 02 bd c1 06 0e 3d c8 1d 27 3d 74 5e 00 bd
       -0.0318295 0.03467441 0.040799886 -0.031340078
0001e0 f3 be 3c 3d 5c 2f 55 3c 85 a3 17 bd f6 2b 66 bd
       0.04608054 0.01301178 -0.03702118 -0.05619427
0001f0 f8 69 43 bd 45 f5 9a 3c db de 39 3d 85 62 2f 3a
       -0.04770848 0.018915782 0.045378547 0.0006690401
000200 29 01 8f 3c d0 e9 db 38 a8 ff ca 3d c3 34 be bd
       0.017456608 0.00010486285 0.09912044 -0.09287407
000210 ed cc 00 bb e7 37 71 3d d1 7c a2 bc 6c 0e 03 bd
       -0.0019653395 0.058891203 -0.019834908 -0.031996176
000220 ba f8 52 ba 49 cf 54 3d 7e 66 a8 3b b7 3f e6 3c
       -0.00080479274 0.051955495 0.005139171 0.028106553
000230 d6 c9 97 bd 89 6d a6 bd 9d b0 26 bc f8 5e 3e bd
       -0.07411544 -0.08126361 -0.010173944 -0.046477288
000240 e3 0a 8b bd 1f ee 89 3c 17 b4 df 3c 80 78 f5 bc
       -0.06789186 0.016837178 0.027307553 -0.029964685
000250 3b 4c 89 bd 80 73 87 bd e3 01 d6 bc 17 2b 90 bd
       -0.06703993 -0.06613827 -0.026123947 -0.07039469
000260 c0 86 50 3d fd 65 0a 3d 75 58 bf 3d f7 8a 78 bc
       0.050909758 0.03378867 0.09343044 -0.015169851
000270 d1 2f 62 3d 45 92 dd bc 2b 72 bb ba 84 87 02 3d
       0.055221383 -0.027047286 -0.0014300992 0.03186752
000280 be c0 ee 3d 0e 44 aa 3d 04 66 13 3c d9 39 a0 3c
       0.116578564 0.08313762 0.00899649 0.019558834
000290 7d 85 6d 3d f2 e2 3f 3d e4 56 5e bd 83 e0 4b 3d
       0.057988632 0.04684729 -0.054282084 0.049774658
0002a0 82 68 4b bd f3 26 da bc 76 70 03 3c 10 10 af bb
       -0.049660213 -0.0266299 0.008022418 -0.005342491
0002b0 7f 34 65 bd 88 5e 89 3c 8c 96 83 3d d9 50 cc bc
       -0.055958267 0.016768709 0.06425199 -0.024940895
0002c0 ea 50 67 3c 11 93 01 bd 73 61 4d 3d 5a f2 b8 3d
       0.0141184125 -0.031634394 0.050141763 0.090306
0002d0 ea ac a2 bb ac 0c 2a b9 bd 24 33 bd c9 f5 e9 bd
       -0.0049644606 -0.00016217184 -0.04373621 -0.11423833
0002e0 cf a4 a4 3c 97 0a a3 3b f5 7c 6a 3c 7c c1 71 3c
       0.020098118 0.0049756276 0.014312019 0.014755603
0002f0 a3 6a dc 3c 1d fa cb 3d 84 84 56 bd 76 8a bc 3c
       0.026906317 0.09959815 -0.05237247 0.023015242
000300 86 f4 0d 3c d1 e5 6b 3d a8 f6 c1 3c b8 f2 51 ba
       0.008664256 0.057592217 0.023677185 -0.0008008885
000310 4c 3d 00 3c 1d 95 01 be 73 32 97 bc 6f 97 4a bc
       0.007827114 -0.12654538 -0.018456673 -0.012365206
000320 89 ed 6a bd 56 3c 19 3d e0 d7 d1 3d 07 d2 4d 3d
       -0.057355437 0.037411056 0.10246253 0.050249126
000330 04 40 49 3c 39 96 25 3c c8 27 52 3d 5a 2e c2 3c
       0.012283329 0.010106617 0.05130747 0.023703743
000340 88 1a b7 bc 7c 59 61 3c 9a 63 13 3d dc 46 b9 3d
       -0.022351518 0.013754245 0.03598366 0.090467185
000350 cf b9 a9 3b c4 6b 98 3c 8f 44 d3 bc 60 a8 a9 3b
       0.005179621 0.018606074 -0.025789527 0.0051775426
000360 77 66 a6 bc 63 d3 f0 bc ec 71 4c bd f6 c9 6b 3d
       -0.02031253 -0.029397672 -0.049913332 0.05756565
000370 16 ae 29 3c d8 76 29 3d 93 7c 10 bd d7 4f c9 bc
       0.010356447 0.041373104 -0.035275053 -0.024574203
000380 8e 8f 70 3c db b4 1a 3c 54 e1 22 3d fc 16 9e bd
       0.014682664 0.009442533 0.03976567 -0.07719228
000390 03 2e 8a bb dc b0 a9 bd e0 1e 0b bd a5 cf 76 3d
       -0.004216911 -0.082856864 -0.03396499 0.06025662
0003a0 70 5e 3f bd 51 49 98 bc 12 22 4c 3d 89 5d 8c bd
       -0.046720922 -0.018589647 0.04983718 -0.06853778
0003b0 06 20 8a 3c 56 17 93 3d 2e 1e 2a 3d 7a 37 c4 bc
       0.016860973 0.07182185 0.041532688 -0.023952235
0003c0 21 a8 11 3d 23 0e 40 bd 3b 22 77 3d 08 5e cb bb
       0.03556073 -0.04688848 0.06033538 -0.0062062778
0003d0 9f ca e9 bd a6 56 9b ba 4d 9a 93 3d bc 18 4e 3d
       -0.114156 -0.0011851385 0.07207165 0.050316557
0003e0 90 ce 45 bc 4c 75 44 3d d5 77 da 3d cf c6 8a bd
       -0.012073174 0.047963426 0.106673874 -0.06776201
0003f0 72 d8 d0 3c 46 91 5e 3d 6c cc dc 3b b0 b4 2a bb
       0.025493834 0.054337762 0.006738236 -0.002604764

sequential_14_1/lstm_8_1/while/lstm_cell_1/add_1/ReadVariableOp f4 [400]
000000 87 2e 95 3d 14 c9 3d bd 8a a2 24 3f 53 a7 c8 3e
       0.07284265 -0.04633434 0.64310515 0.39190158
000010 81 07 23 3f 0f f4 da 3e 1b 9c 18 3e 35 dd 75 3d
       0.63683325 0.42764327 0.149033 0.060025413
000020 6c 45 c2 3d c0 9e 18 bd ce fb bd 3e 6d 29 ff bc
       0.094858974 -0.03726077 0.37106174 -0.031147683
000030 90 5d a1 3e 4b fb 9c 3e c1 3a c5 3e 77 f0 c9 3d
       0.31516695 0.3066047 0.38521388 0.09860318
000040 e6 c2 51 3f 4d 6f 53 3e aa 8e 80 3e 78 41 51 bd
       0.81938016 0.20647927 0.25108844 -0.051087826
000050 ae 6e e2 3d 2e db 0a 3e bd 0d 18 3d 51 cc e8 3d
       0.11056267 0.13560173 0.037122477 0.11367095
000060 36 16 1d 3d 27 ad 97 3e fd 2d d0 3e f9 3b 09 3f
       0.03835126 0.29624292 0.40660086 0.53607136
000070 ee f7 ac 3e e4 0b b6 3e ba 71 4a 3e 34 4e 1b 3e
       0.33782905 0.35555947 0.19769946 0.15166551
000080 b0 28 14 bd 85 95 5a 3e 21 32 f6 3d e2 51 5f 3e
       -0.036171615 0.213461 0.1202128 0.2180858
000090 1f ad 67 3d 9f cd 0e bd 6a ad 5d 3e 45 01 fe 3e
       0.056561586 -0.034864064 0.21648183 0.49610344
0000a0 fb 1f cb 3e 0d 6b a8 3e fb fb 1a bd c4 cc 06 3f
       0.39672837 0.32894173 -0.037837964 0.526562
0000b0 30 3a d4 3e ca 83 6b 3e 64 df d6 3d aa 98 fa 3e
       0.41450644 0.22999492 0.10491827 0.48944598
0000c0 1f 5f de 3e 89 96 c7 3c ef 7d c8 3e 69 02 82 3e
       0.43431947 0.024363773 0.3915858 0.25392464
0000d0 b9 c8 96 3e c9 a1 59 3e 33 97 01 3f 97 a6 a4 3e
       0.29450014 0.21253122 0.50621337 0.32158348
0000e0 d3 50 55 3e 06 8a 11 3e 87 9e 0c 3e ee ee 94 3e
       0.20831613 0.14212808 0.13732348 0.2908854
0000f0 23 62 de bc c4 c1 09 3e a1 44 4c 3e 93 71 c1 3e
       -0.027146405 0.13452822 0.19948055 0.37781963
000100 b1 83 7c 3e e2 9f be 3e 6a 94 25 3e 19 c8 2c 3e
       0.24659611 0.37231356 0.16169897 0.16873206
000110 4b ea c0 3e 40 32 05 bd c9 99 ea 3e 7b ab 58 3e
       0.3767875 -0.032518625 0.45820454 0.21159165
000120 28 e6 2f 3e 66 72 e5 3e ac 97 ef 3e d8 3b e0 3b
       0.17177641 0.44813842 0.46795404 0.0068430714
000130 07 c7 8e 3e 88 f9 b0 3d bb 60 67 3e 21 4d 9c 3e
       0.2788622 0.08641344 0.22595493 0.30527595
000140 96 09 96 3e f0 77 b6 3e 7f 1a 47 3f a2 b5 c8 3e
       0.29304188 0.3563838 0.77774805 0.39201075
000150 33 d6 db bc e0 74 9b 3d 1f b8 79 3e 8d 0a 78 3e
       -0.026835537 0.075906515 0.24386643 0.24222775
000160 f2 c6 d3 3e bf ad bb 3e e7 f5 b2 3e cd 6c ad 3e
       0.4136272 0.36655995 0.34953234 0.3387207
000170 be a4 dc 3e 2d 8c 87 3e 5e ed 9e 3d 2f e6 6d 3e
       0.43094438 0.26474133 0.07760118 0.2323234
000180 16 82 e7 3d a8 b1 0c bd 66 2e 49 3e 15 da 4e bd
       0.11304109 -0.034349114 0.19646606 -0.050500948
000190 00 00 80 3f 00 00 80 3f 00 00 80 3f 00 00 80 3f
       1.0 1.0 1.0 1.0
0001a0 00 00 80 3f 00 00 80 3f 00 00 80 3f 00 00 80 3f
       1.0 1.0 1.0 1.0
0001b0 00 00 80 3f 00 00 80 3f 00 00 80 3f 00 00 80 3f
       1.0 1.0 1.0 1.0
0001c0 00 00 80 3f 00 00 80 3f 00 00 80 3f 00 00 80 3f
       1.0 1.0 1.0 1.0
0001d0 00 00 80 3f 00 00 80 3f 00 00 80 3f 00 00 80 3f
       1.0 1.0 1.0 1.0
0001e0 00 00 80 3f 00 00 80 3f 00 00 80 3f 00 00 80 3f
       1.0 1.0 1.0 1.0
0001f0 00 00 80 3f 00 00 80 3f 00 00 80 3f 00 00 80 3f
       1.0 1.0 1.0 1.0
000200 00 00 80 3f 00 00 80 3f 00 00 80 3f 00 00 80 3f
       1.0 1.0 1.0 1.0
000210 00 00 80 3f 00 00 80 3f 00 00 80 3f 00 00 80 3f
       1.0 1.0 1.0 1.0
000220 00 00 80 3f 00 00 80 3f 00 00 80 3f 00 00 80 3f
       1.0 1.0 1.0 1.0
000230 00 00 80 3f 00 00 80 3f 00 00 80 3f 00 00 80 3f
       1.0 1.0 1.0 1.0
000240 00 00 80 3f 00 00 80 3f 00 00 80 3f 00 00 80 3f
       1.0 1.0 1.0 1.0
000250 00 00 80 3f 00 00 80 3f 00 00 80 3f 00 00 80 3f
       1.0 1.0 1.0 1.0
000260 00 00 80 3f 00 00 80 3f 00 00 80 3f 00 00 80 3f
       1.0 1.0 1.0 1.0
000270 00 00 80 3f 00 00 80 3f 00 00 80 3f 00 00 80 3f
       1.0 1.0 1.0 1.0
000280 00 00 80 3f 00 00 80 3f 00 00 80 3f 00 00 80 3f
       1.0 1.0 1.0 1.0
000290 00 00 80 3f 00 00 80 3f 00 00 80 3f 00 00 80 3f
       1.0 1.0 1.0 1.0
0002a0 00 00 80 3f 00 00 80 3f 00 00 80 3f 00 00 80 3f
       1.0 1.0 1.0 1.0
0002b0 00 00 80 3f 00 00 80 3f 00 00 80 3f 00 00 80 3f
       1.0 1.0 1.0 1.0
0002c0 00 00 80 3f 00 00 80 3f 00 00 80 3f 00 00 80 3f
       1.0 1.0 1.0 1.0
0002d0 00 00 80 3f 00 00 80 3f 00 00 80 3f 00 00 80 3f
       1.0 1.0 1.0 1.0
0002e0 00 00 80 3f 00 00 80 3f 00 00 80 3f 00 00 80 3f
       1.0 1.0 1.0 1.0
0002f0 00 00 80 3f 00 00 80 3f 00 00 80 3f 00 00 80 3f
       1.0 1.0 1.0 1.0
000300 00 00 80 3f 00 00 80 3f 00 00 80 3f 00 00 80 3f
       1.0 1.0 1.0 1.0
000310 00 00 80 3f 00 00 80 3f 00 00 80 3f 00 00 80 3f
       1.0 1.0 1.0 1.0
000320 66 87 3b 3e 6c d4 8a bd cf 48 71 3e e8 c4 8e 3d
       0.18313369 -0.067787975 0.2356293 0.06971151
000330 2a 24 f4 3d 82 74 86 3e 3d af 72 3e 69 06 8f bd
       0.1192096 0.26260763 0.2369966 -0.069836445
000340 f8 21 11 3d 95 e3 67 bd 3c a9 77 3d 70 04 19 bd
       0.035432786 -0.056613524 0.06046413 -0.037357748
000350 73 93 00 3e b8 d7 ff 3d 5a f2 31 3e 69 47 7d 3d
       0.12556247 0.12492317 0.17377606 0.06183568
000360 c5 23 f2 3d 0b 70 79 3e a9 6f 45 3e 98 7a 30 bd
       0.11823229 0.24359147 0.19280876 -0.043085665
000370 95 39 77 3d f4 bf 61 3e c9 cc 5f bd e1 64 23 3d
       0.06035765 0.2204588 -0.054638658 0.039891127
000380 2d d7 8d 3c a0 bf 83 3e 8c 53 8e 3d bb 09 8b bd
       0.017314518 0.25732136 0.06949529 -0.06788965
000390 fc d0 3b 3d 4c 0e 6d 3d 44 4c 6f 3e 6d 6b 7e 3e
       0.0458536 0.057874963 0.23368937 0.24845667
0003a0 b7 31 78 3c 26 10 51 3e f3 e9 32 3d be 82 2f 3d
       0.015148572 0.20416316 0.043680143 0.042849295
0003b0 df 06 00 3d 83 f6 4c bd c6 e7 7f bd 26 20 99 3d
       0.031256553 -0.05003978 -0.062476896 0.07476835
0003c0 1e 4e 4f 3d 56 4f 6c 3d 43 68 64 bd 8e 78 0e bd
       0.050611608 0.05769285 -0.055763494 -0.03478294
0003d0 94 0c 8f 3d 5e 74 86 3e cc 69 8f 3d 62 ad c4 3d
       0.06984821 0.26260656 0.07002601 0.09603383
0003e0 76 7e 44 3d 1e 73 a6 bd fb 02 7e 3e da 82 e0 bd
       0.047972165 -0.081274256 0.24805824 -0.10962458
0003f0 03 3d 42 3e af e2 72 3e e9 92 51 3e 92 d7 21 3e
       0.18968587 0.23719285 0.20466198 0.1580489
