tflite_modelos/LSTM/LSTM.tflite (tflite, 54580 bytes, 5 tensors)

arith.constant3 f4 [2, 50]
0	0x3f3fff62	0.7499906
1	0x3f375763	0.71617717
2	0x3f7bde5f	0.98386186
3	0x3f0eb260	0.5574093
4	0xbf19d0aa	-0.6008402
5	0x3ea05370	0.31313658
6	0x3e7164b3	0.2357357
7	0xbf116422	-0.56793416
8	0x3f13280f	0.57483
9	0xbf1e9d02	-0.61958325
10	0xbe0208bb	-0.12698643
11	0x3f1b2883	0.6060869
12	0xbf0b6fa5	-0.5446723
13	0x3eb289c1	0.34870723
14	0xbec79d42	-0.38987166
15	0xbf004146	-0.500996
16	0xbcb941bd	-0.022614354
17	0x3f178320	0.59184456
18	0xbdff783f	-0.12474107
19	0xbeb8b240	-0.36073494
20	0x3f5b7878	0.85730696
21	0x3f1f8ccb	0.6232421
22	0xbec762e1	-0.38942626
23	0x3ec52f8b	0.38512835
24	0x3f69ec7f	0.9137649
25	0xbec81ab2	-0.39082867
26	0xbf1a1281	-0.60184485
27	0x3f24daff	0.6439666
28	0xbdf5a669	-0.11994631
29	0x3ef79bdc	0.483611
30	0x3f912aa0	1.1341133
31	0x3fbd29d7	1.4778394
32	0x3ec8f77d	0.3925132
33	0xbf3bffe9	-0.7343736
34	0xbee8f7cf	-0.45501563
35	0x3f3a0fd6	0.72680414
36	0x3f9c5965	1.2214781
37	0x3f0a42ca	0.5400816
38	0xbebfdca9	-0.37473038
39	0x3f583c6c	0.84467196
40	0x3f633139	0.8874698
41	0xbe97e82a	-0.29669315
42	0x3f5ee1e2	0.8706342
43	0x3f5c8171	0.8613501
44	0x3f134a31	0.5753508
45	0x3f7219a2	0.9457036
46	0x3ebb4b24	0.36580765
47	0x3f2b9e4f	0.67038435
48	0x3eff9559	0.4991863
49	0x3d16b2fe	0.036791794
50	0xbf6c1771	-0.9222327
51	0xbeb8ac14	-0.36068785
52	0xbf4da556	-0.8033041
53	0xbf1f9e45	-0.62350875
54	0x3eafa52f	0.34305713
55	0xbf47f9c6	-0.781155
56	0xbf43b780	-0.76451874
57	0x3ec5b800	0.38616943
58	0xbefa046b	-0.48831496
59	0x3f5c17d8	0.8597388
60	0x3edb3dc3	0.42820558
61	0xbf2ad274	-0.66727376
62	0xba8c9cda	-0.0010727898
63	0xbf64e30b	-0.8940894
64	0x3ee808be	0.4531917
65	0x3de591e1	0.11209465
66	0x3eeeded5	0.46654382
67	0xbf517e20	-0.81833076
68	0x3eedab4a	0.46419746
69	0x3ee872cb	0.4540008
70	0xbf5958fb	-0.849014
71	0xbebacb70	-0.36483335
72	0x3eefa012	0.4680181
73	0xbf0999dc	-0.53750396
74	0xbf6ecfdb	-0.9328591
75	0x3dc317c7	0.095260195
76	0x3abfac8b	0.0014623565
77	0xbf201db3	-0.6254532
78	0x3ddbcaca	0.10732038
79	0xbef18926	-0.47174948
80	0xbf7826b1	-0.9693404
81	0xbf8983c3	-1.0743335
82	0xbf254692	-0.64560807
83	0x3edcd1ea	0.43128902
84	0x3e634279	0.22193326
85	0xbf5a890f	-0.85365385
86	0xbf531600	-0.82455444
87	0xbf440fbb	-0.765865
88	0x3f0b522d	0.54422265
89	0xbefe501e	-0.496705
90	0xbf691188	-0.91042376
91	0x3ef02333	0.46901855
92	0xbe84d746	-0.2594549
93	0xbf487a86	-0.78311956
94	0xbf273d6e	-0.6532811
95	0xbfa42314	-1.2823205
96	0xbf021481	-0.50812536
97	0xbf33f653	-0.70297736
98	0xbe8cda78	-0.27510428
99	0xbe3cee52	-0.18450287

arith.constant4 f4 [2]
0	0xbd58545d	-0.05281483
1	0x3d585455	0.0528148

arith.constant16 f4 [200, 3]
0	0x3f6bae53	0.9206287
1	0xbedaa442	-0.42703444
2	0xbf1fbe62	-0.62399876
3	0x3ebafd1b	0.3652123
4	0x3ea4895f	0.32136056
5	0xbec9f541	-0.39444926
6	0x3f57e12d	0.84327966
7	0xbf2b1bb1	-0.6683913
8	0xbe850714	-0.25981963
9	0x3f106fdc	0.56420684
10	0x3dbee8a4	0.093217164
11	0xbc4938b1	-0.012281583
12	0x3d46249c	0.048374757
13	0xbe1c35d9	-0.15254916
14	0x3e5b0957	0.21390282
15	0x3ee334da	0.4437626
16	0x3e73997f	0.23789023
17	0x3e4639d4	0.19357997
18	0x3f1e9e4f	0.6196031
19	0x3ebdf916	0.371041
20	0xbf1c13b1	-0.60967547
21	0xbc835af3	-0.016034579
22	0x3f8fe8af	1.1242884
23	0x3df1041e	0.117683634
24	0x3f36a5ab	0.7134654
25	0xbe13d56c	-0.14436883
26	0xbe1c9e43	-0.15294747
27	0x3ef91135	0.4864594
28	0xbf2b4ee5	-0.6691726
29	0xbe94498b	-0.2896236
30	0xbd884514	-0.066538006
31	0x3f84378a	1.0329449
32	0x3d9984f0	0.07496059
33	0x3f5a3e78	0.8525157
34	0xbc8115d3	-0.015757477
35	0xbeb4ef9e	-0.35339063
36	0xbd45ee6f	-0.04832309
37	0x3f009b3c	0.5023687
38	0xbda5b321	-0.08090807
39	0x3f5b502f	0.85669225
40	0x3db2c495	0.08728901
41	0xbf8325ac	-1.0245872
42	0x3dc3c0a7	0.0955823
43	0x3f55ef9f	0.8356876
44	0x3e2b9b11	0.16758372
45	0x3d89743e	0.067116246
46	0x3fa65c6c	1.2996955
47	0xbd07fefb	-0.033202153
48	0x3e323882	0.17404369
49	0x3e8e23a3	0.27761564
50	0x3ead4627	0.33842584
51	0x3f8ec4db	1.1153826
52	0xbd9fe045	-0.07806448
53	0xbed8679f	-0.42266557
54	0x3e5f368f	0.21798156
55	0x3db51a6f	0.088429324
56	0xbd550903	-0.052010547
57	0xbcef4504	-0.029207714
58	0x3ee09efb	0.43871292
59	0x3e58028e	0.21094725
60	0x3f15ac1a	0.5846573
61	0xbf170369	-0.5898958
62	0xbeeb3ba3	-0.45943937
63	0x3f288858	0.65833044
64	0xbecbfb50	-0.39840174
65	0xbe6576fc	-0.2240867
66	0x3e3acdd6	0.18242583
67	0x3f081ba2	0.53167164
68	0x3daa7afe	0.0832424
69	0x3f440abb	0.76578873
70	0x3e4ccb3c	0.19999403
71	0x3e014101	0.12622453
72	0x3e109e88	0.14122975
73	0x3f71434a	0.942433
74	0xbf9632fe	-1.1734312
75	0x3dd2e8d0	0.10298312
76	0x3fb934f5	1.4469286
77	0xbd7d5a3d	-0.061853636
78	0x3bc65934	0.0060531143
79	0x3f9b9f98	1.2158079
80	0xbdb4f13f	-0.088350765
81	0x3f29b881	0.66297156
82	0x3e910ee8	0.28331685
83	0xbeef01f6	-0.46681184
84	0x3d6b95db	0.05751596
85	0xbdd3a666	-0.10334472
86	0xbd9bcbfa	-0.07607265
87	0x3f3ae646	0.7300762
88	0x3c62acb4	0.013835121
89	0xbcfa9c1f	-0.030592022
90	0x3f91579b	1.135486
91	0xbf3dabdc	-0.7409036
92	0xbf39b21b	-0.7253739
93	0x3e9a8fb4	0.30187762
94	0xbf538285	-0.8262103
95	0x3f5cfb08	0.86320543
96	0x3f949cf6	1.1610401
97	0xbe9137fb	-0.28363022
98	0xbe8cb7ad	-0.27483884
99	0xbf1b3d04	-0.6063998
100	0xbe81654a	-0.2527259
101	0x3f5ed158	0.87038183
102	0x3e4b8111	0.19873454
103	0x3eccf2d3	0.4002901
104	0x3d5b7516	0.05357846
105	0xbe1fb78f	-0.15597366
106	0xbf7816ec	-0.96909976
107	0x3ec71ac6	0.38887614
108	0x3f50891f	0.8145923
109	0xbf33022c	-0.6992519
110	0x3d657702	0.056021698
111	0x3f7cc869	0.987433
112	0xbed5dc91	-0.4176984
113	0xbf0c85e4	-0.548918
114	0xbe042898	-0.1290611
115	0x3f476ea6	0.7790321
116	0x3de06b4d	0.10957966
117	0x3cd6e3c4	0.026231654
118	0x3f3f6982	0.7477037
119	0xbf7d6841	-0.98987204
120	0x3d73b91a	0.0595027
121	0xbf4c6b77	-0.7985148
122	0x3ee6a2a5	0.45045963
123	0x3d02b4ba	0.031910636
124	0x3ed25db2	0.4108711
125	0x3f014ec9	0.5051084
126	0x3f911b71	1.13365
127	0xbed3c1f5	-0.41358915
128	0xbeab55a8	-0.33463788
129	0x3f36d573	0.7141945
130	0xbf254fe8	-0.6457505
131	0xbe2d682f	-0.16934274
132	0x3f57fba3	0.8436834
133	0x3ef0abc2	0.4700604
134	0xbf8f4e48	-1.1195765
135	0x3f270934	0.6524842
136	0xbf50b4d0	-0.815259
137	0x3eeeab67	0.46615145
138	0x3f86ec9a	1.0540955
139	0xbd790d68	-0.0608038
140	0xbebe91a2	-0.37220484
141	0x3e4e5197	0.20148312
142	0x3f4cbc1c	0.7997453
143	0xbfa068ba	-1.253196
144	0xbeca6509	-0.3953021
145	0xbf95ab1d	-1.1692845
146	0x3e12f50e	0.14351293
147	0xbddd4c2d	-0.10805545
148	0xbeb23a07	-0.34809896
149	0x3e6a0b81	0.22855951
150	0x3dc15710	0.09440434
151	0x3dadb0a8	0.0848096
152	0xbd1df6a0	-0.038565278
153	0xbd516c12	-0.051128455
154	0x3d225e48	0.039640695
155	0x3e2c67b4	0.16836435
156	0x3e21ece6	0.15813026
157	0xbe2424db	-0.16029684
158	0xbdc3509f	-0.09536862
159	0x3e236212	0.1595538
160	0xbc0ccba0	-0.00859347
161	0x3d3c4fb4	0.04597445
162	0x3d91f0aa	0.07125981
163	0xbc402560	-0.011727661
164	0x3d8dceb0	0.06924188
165	0xbd54141a	-0.051776983
166	0x3dff2f6c	0.12460217
167	0xbd7af71c	-0.061270818
168	0xbcedd118	-0.029030368
169	0xbe0b2a7e	-0.13590428
170	0xbd471ada	-0.048609592
171	0xba67b200	-0.0008838475
172	0x3d90fd9c	0.07079622
173	0xbd01a4d0	-0.031651318
174	0x3aea7200	0.0017886758
175	0xbde21c09	-0.110405035
176	0x3e28227c	0.16419405
177	0x3df9ccd4	0.12197271
178	0x3cbce928	0.023060396
179	0x3e042ac4	0.12906939
180	0x3d8d1cf6	0.068902895
181	0xbd254dd8	-0.04035744
182	0xbac22700	-0.0014812648
183	0x3d564d1c	0.05231963
184	0x3d94a6b0	0.072583556
185	0x3d0d2dfc	0.034467682
186	0xbb3c1fc0	-0.0028705448
187	0xbd82f6aa	-0.06394704
188	0xbe15d226	-0.14630947
189	0xbe0de251	-0.13855864
190	0x3e0dfbc6	0.13865575
191	0x3d77c210	0.060487807
192	0xbce56af8	-0.028005108
193	0xbdd28a0f	-0.10280239
194	0x3cf1c3a0	0.029512227
195	0xbe00f2b8	-0.1259259
196	0x3bccff60	0.006256029
197	0xbd5813e2	-0.052753337
198	0x3e2d4046	0.1691905
199	0xbc0d1900	-0.0086119175
200	0xbcdcb178	-0.026940092
201	0xbdb87da1	-0.09008337
202	0x3d9c7dec	0.07641205
203	0x3d8a727c	0.067601174
204	0xbe01380f	-0.12619041
205	0x3d763bf0	0.060115755
206	0x3d25957c	0.040425763
207	0xbcd3beb0	-0.025847763
208	0xbcda1d30	-0.026625246
209	0x3e2b3260	0.16718435
210	0xbdf0f0ec	-0.11764702
211	0xbdbfc550	-0.09363806
212	0xbe0766e3	-0.13222842
213	0x3df918fc	0.121629685
214	0x3d48e5d8	0.04904732
215	0x3c9c1b98	0.019056126
216	0xbd8c5e0b	-0.06853875
217	0x3df5ab68	0.11995584
218	0x3c329730	0.010900304
219	0x3dafd0d8	0.08584756
220	0xbe171f70	-0.14758086
221	0xbdeb55b0	-0.11490953
222	0x3df8e788	0.12153536
223	0xbccbd4f8	-0.024881825
224	0xbe125bd5	-0.14292844
225	0xbdfd32c5	-0.12363199
226	0xbd4bca36	-0.04975339
227	0xbdcb00e0	-0.09912276
228	0xbe2521d9	-0.16126193
229	0xbda7fa6d	-0.08202062
230	0xbcbf55c8	-0.023356333
231	0x3dc805f0	0.097667575
232	0xbd00553c	-0.031331286
233	0x3e25255c	0.16127533
234	0xbe060127	-0.13086377
235	0x3e29a8ea	0.16568342
236	0xbc6101f0	-0.013733372
237	0x3c6567e0	0.0140018165
238	0x3e2cda24	0.16880089
239	0xbde0cde3	-0.1097677
240	0x3d400360	0.04687822
241	0xbce59888	-0.028026834
242	0xbdd55b8b	-0.10417851
243	0x3e268854	0.16262943
244	0x3e079c0e	0.13243124
245	0xbcf8db20	-0.030377924
246	0x3ba222c0	0.00494799
247	0x3d296214	0.0413533
248	0xbd34be08	-0.04412654
249	0x3cbcd808	0.02305223
250	0x3d65dcc4	0.05611874
251	0xbdb0ecc0	-0.086389065
252	0xbde5aa7c	-0.11214158
253	0x3e21ae3c	0.15789121
254	0x3d0fa314	0.035067633
255	0x3d987ea6	0.07446031

arith.constant17 f4 [200, 50]
0	0xbc941280	-0.018075228
1	0x3dba5c0e	0.09099589
2	0x3d3aa80d	0.045570422
3	0x3c0e4100	0.008682489
4	0x3a652880	0.00087416917
5	0x3d651d78	0.055936307
6	0x3d4b4bea	0.049632944
7	0xbb500108	-0.0031738896
8	0xbd12999a	-0.035791017
9	0x3d667f2a	0.056273617
10	0xbd05c01e	-0.03265392
11	0xbdfdf284	-0.12399772
12	0x3e310c12	0.1728976
13	0x3cb7a1c3	0.022416001
14	0xbcebd7e6	-0.028789472
15	0x3cd42f04	0.025901325
16	0xbdb67721	-0.08909441
17	0xbd8b267e	-0.06794451
18	0xbca3a6c4	-0.019976981
19	0x3d5cdcb0	0.0539214
20	0xbd01c39b	-0.031680685
21	0x3d7d57d6	0.061851345
22	0xbd733e13	-0.05938537
23	0xbd817c5b	-0.06322547
24	0x3d42ee63	0.047590625
25	0xbdbbf2a6	-0.09177141
26	0x3d2773ee	0.040882044
27	0xbdbaafc6	-0.091155574
28	0xbc4632d7	-0.012097082
29	0x3b895759	0.004191321
30	0x3d6c103d	0.057632674
31	0x3c8f3836	0.017482858
32	0xbd37fd39	-0.044919226
33	0x3db19764	0.086714536
34	0x3d830db8	0.06399101
35	0xbca81268	-0.02051659
36	0xbd0700b7	-0.032959666
37	0xbe13ac7c	-0.14421266
38	0x3daaccda	0.083398536
39	0xbc39c796	-0.011339089
40	0x3d442ed6	0.04789623
41	0x3d8884a1	0.06665922
42	0x3d1da603	0.0384884
43	0xbcbaeeac	-0.022818886
44	0xbddfd55c	-0.10929367
45	0x3d85bfe9	0.065307446
46	0xbb191670	-0.002335932
47	0x3c5300a0	0.012878567
48	0x3de326a6	0.11091356
49	0x3c7c669c	0.015405323
50	0xbd876926	-0.06611852
51	0xbd9ea960	-0.077471495
52	0xbd6baecb	-0.057539742
53	0xbd9455a3	-0.072428964
54	0x3d61411e	0.05499374
55	0xbdbf4aec	-0.09340462
56	0x3ddd8287	0.10815912
57	0x3e1b695b	0.15176909
58	0x3b2979d6	0.0025859973
59	0x3d5ac797	0.053413
60	0x3d9955da	0.07487078
61	0x3bf1bf18	0.0073775165
62	0x3c877edd	0.016539985
63	0x3da8e2b5	0.08246366
64	0xbddfe992	-0.10933222
65	0x3d92fa48	0.071766436
66	0x3db7d257	0.08975666
67	0x3cf7c748	0.030246392
68	0x3dd6ffeb	0.10498031
69	0xbdefb3ff	-0.117042534
70	0x3c8b73d9	0.017023014
71	0xbd1afc90	-0.03783852
72	0xbe0cf5be	-0.13765618
73	0x3d3c4197	0.04596099
74	0xbc55038a	-0.013001332
75	0x3d1cd09e	0.03828489
76	0x3c0a1f55	0.008430322
77	0xb9cc7ba0	-0.0003900202
78	0xbd52eda3	-0.05149616
79	0x3db925fa	0.090404466
80	0xbdc5cdae	-0.09658371
81	0xbc82e1cd	-0.01597681
82	0xbdacf394	-0.08444896
83	0xbd9ac2bc	-0.07556674
84	0x3c762a4e	0.015024735
85	0xbd4fad98	-0.05070266
86	0xbc3ddfda	-0.011589015
87	0xbe35c662	-0.17751458
88	0x3bade305	0.005306604
89	0x3c8271b1	0.015923353
90	0x3d3700e6	0.04467859
91	0xbd5e56d6	-0.054282032
92	0xbd98a016	-0.07452409
93	0x3d905e23	0.07049205
94	0xbd066526	-0.032811306
95	0x3d1a478c	0.03766589
96	0x3d47dbe7	0.0487937
97	0x3bc0216e	0.00586336
98	0x3c12e2f2	0.008965241
99	0xbdc6eb14	-0.09712806
100	0xbd7af88b	-0.061272185
101	0xbd8e8e56	-0.06960742
102	0xbde7bd80	-0.11315441
103	0x3d84c759	0.06483335
104	0xbd43424d	-0.04767065
105	0x3d97e26c	0.074162334
106	0x3dc1cb98	0.094626606
107	0x3ddc56ee	0.10758768
108	0xbdbc5ad4	-0.091970116
109	0xbd806fea	-0.06271346
110	0x3dc613bc	0.09671733
111	0x3d116e8e	0.035505824
112	0xbdbf453c	-0.09339377
113	0xbc720893	-0.014772552
114	0xbd900ff8	-0.07034296
115	0x3ddac983	0.106829666
116	0xbe3b4fea	-0.18292204
117	0x3c8b4635	0.01700125
118	0x3d8de65a	0.06928702
119	0xbda091bb	-0.07840296
120	0xbd234948	-0.03986481
121	0xbdf27df2	-0.118404284
122	0x3daf9e89	0.0857516
123	0xbd8efc2b	-0.06981691
124	0x3d5d7baf	0.054073032
125	0xbde0e518	-0.10981196
126	0xbd19f3d8	-0.037586063
127	0x3cb6ca64	0.022313304
128	0x3dcf6421	0.1012652
129	0xbcc39067	-0.023872567
130	0x3e1273b0	0.14301944
131	0xbe03838e	-0.12843153
132	0xbda65f50	-0.08123648
133	0x3ce5ff0e	0.028075721
134	0xbdeac968	-0.114641964
135	0xbd9aaac6	-0.07552104
136	0x3df8f954	0.121569306
137	0xbd2b1410	-0.04176718
138	0xbc2b9423	-0.01047233
139	0x3c9bbe78	0.019011721
140	0xbcdb6f69	-0.026786523
141	0xbdc6935a	-0.09696074
142	0xbc060a06	-0.008181101
143	0x3c8c209c	0.017105393
144	0x3c2ca948	0.010538407
145	0xbda7682f	-0.08174168
146	0x3cfff820	0.031246245
147	0xbc9656e6	-0.018351983
148	0xbc3522ce	-0.011055661
149	0x3930ca80	0.00016860105
150	0x3df9bc71	0.121941455
151	0x3cb4c7be	0.0220679
152	0xbe322658	-0.1739744
153	0xbc6d9380	-0.014500499
154	0xbd4d5ec0	-0.05013919
155	0x3df96ca3	0.12178924
156	0x3bd1e30e	0.006405241
157	0x3ddf7a2c	0.10911974
158	0xbce6ee8c	-0.02818992
159	0x3d6691ae	0.056291275
160	0x3dc75eda	0.097348884
161	0xbcc3e97e	-0.023915049
162	0x3cdf4b8c	0.027257703
163	0x3ce890a4	0.028389283
164	0x3d015f22	0.031584866
165	0x3d44dfea	0.048065104
166	0xbd570054	-0.052490547
167	0xbd17db49	-0.03707436
168	0x3bc38a50	0.005967416
169	0xbb63cca4	-0.0034759426
170	0xbda31be2	-0.079643026
171	0xbd878af4	-0.066183
172	0x3d25a1ae	0.040437393
173	0x3dc171a5	0.09445504
174	0x3d96bb85	0.07359985
175	0xbc825982	-0.015911821
176	0x3db43646	0.08799414
177	0x3d7cd244	0.061723962
178	0x3d6935da	0.056936122
179	0x3da3ece0	0.08004165
180	0x3d04d386	0.032428287
181	0x3bb464b8	0.0055051707
182	0x3a3311f0	0.0006830981
183	0x3dc749ae	0.0973085
184	0xbc0913b0	-0.00836651
185	0xbdb7469b	-0.08949014
186	0x3dc71eaa	0.097226456
187	0x3d950a8a	0.07277401
188	0x3d9156ae	0.07096611
189	0x3e10d550	0.14143872
190	0xbdfc20c0	-0.12310934
191	0xbe21f432	-0.1581581
192	0xbdc5f95b	-0.096667014
193	0x3c703926	0.014662063
194	0xbd4d94b4	-0.050190642
195	0xbd481a70	-0.048853338
196	0x3d5a84af	0.053349193
197	0xbc0381e6	-0.008026576
198	0xbdaf9d40	-0.08574915
199	0x3c445c62	0.011984916
200	0x3d46d35e	0.04854142
201	0x3ccaefad	0.02477249
202	0x3c4407b9	0.011964732
203	0xbd89f758	-0.0673663
204	0x3ce27cc0	0.027647376
205	0x3d603408	0.05473712
206	0xbd3ea7c8	-0.046546727
207	0x3d7bc238	0.06146452
208	0xbd27ef57	-0.040999737
209	0x3cbbb87a	0.022915114
210	0xbd3bbd7c	-0.045835003
211	0xbd38264d	-0.0449584
212	0x3d4a7a87	0.049433257
213	0x3cacbbc8	0.021085635
214	0x3d885fde	0.0665891
215	0x3d015e7a	0.03158424
216	0x39392460	0.00017656526
217	0x3dea618c	0.11444387
218	0xbc067671	-0.00820695
219	0xbd90b9dc	-0.070667
220	0x3cdf745d	0.027277166
221	0xbcc3f65a	-0.02392118
222	0x3d6cfe1f	0.057859536
223	0x3b22c838	0.0024838578
224	0xbd39a2c9	-0.04532126
225	0xbc3da6a6	-0.011575377
226	0x3d9864b4	0.074410826
227	0xbc1fd753	-0.009755927
228	0xbd18841d	-0.037235368
229	0x3e0f5301	0.13996507
230	0xbcb3c306	-0.02194358
231	0x3dde3ebb	0.10851809
232	0xbd68fdf1	-0.056882802
233	0x3cd48ac8	0.025945082
234	0x3cc93949	0.024563449
235	0xbd97ee96	-0.074185535
236	0xbd5a25fc	-0.05325888
237	0xbdccff79	-0.10009665
238	0x3c848cc3	0.016180402
239	0x3e4f94f2	0.20271662
240	0x3db99aa7	0.09062701
241	0x3dc4717e	0.095919594
242	0xbd9023fa	-0.07038112
243	0x3d515af7	0.05111214
244	0xbd43d176	-0.04780718
245	0x3d32aacc	0.043619916
246	0xba856dc4	-0.0010179807
247	0x3c6ee5b7	0.0145811355
248	0xbdfdfaa7	-0.12401324
249	0xbc0f22d6	-0.008736333
250	0xbd15bd66	-0.036557578
251	0x3c857d26	0.016295027
252	0xbc45004e	-0.012023998
253	0x3dde6adf	0.10860228
254	0x3d20e798	0.039283365
255	0x3dc76970	0.097369075

sequential_10_1/lstm_1/while/lstm_cell_1/add_1/ReadVariableOp f4 [200]
0	0x3f1d4c4f	0.6144456
1	0x3ecbd070	0.39807463
2	0x3f1ff45f	0.62482256
3	0x3f1ee715	0.62071353
4	0x3ef8721e	0.48524565
5	0x3f0f342a	0.5593897
6	0x3ef79304	0.48354352
7	0x3dd3819c	0.103274554
8	0x3eae6403	0.34060678
9	0x3ed143b9	0.4087198
10	0x3d9e32eb	0.077245556
11	0x3ece1a58	0.40254474
12	0x3eb349a5	0.35017124
13	0x3f089584	0.5335314
14	0x3dcd1620	0.10013986
15	0x3e150d92	0.14555958
16	0x3e8a21f2	0.26979023
17	0x3f109f49	0.5649305
18	0x3e8377e5	0.2567741
19	0x3e4bcbaa	0.1990191
20	0x3f0026f8	0.5005946
21	0x3e86af63	0.26305684
22	0x3e8310e8	0.25598836
23	0x3effd4e8	0.49967122
24	0x3f0d5eea	0.5522295
25	0x3c8e5a1b	0.01737695
26	0x3df6a2ef	0.12042796
27	0x3ed55e4c	0.41673505
28	0xbd214cc9	-0.03937987
29	0x3f02da8d	0.5111473
30	0x3f63e9b3	0.8902847
31	0x3f9fec69	1.2494022
32	0x3ee78d90	0.4522519
33	0x3e1dbb24	0.1540342
34	0x3e93e187	0.28883
35	0x3f1e323e	0.61795413
36	0x3f7a24a8	0.97712183
37	0x3eddb8a7	0.4330494
38	0x3e1504d2	0.1455262
39	0x3ed6bae0	0.4193945
40	0x3f03783b	0.5135533
41	0x3deb5163	0.11490133
42	0x3f07b822	0.5301534
43	0x3f157376	0.58379304
44	0x3f1549a7	0.5831551
45	0x3f80ffad	1.0078026
46	0x3e85b735	0.26116338
47	0x3edf1502	0.43570715
48	0x3e38e9e0	0.18057966
49	0x3d35de04	0.044401184
50	0x3f800000	1.0
51	0x3f800000	1.0
52	0x3f800000	1.0
53	0x3f800000	1.0
54	0x3f800000	1.0
55	0x3f800000	1.0
56	0x3f800000	1.0
57	0x3f800000	1.0
58	0x3f800000	1.0
59	0x3f800000	1.0
60	0x3f800000	1.0
61	0x3f800000	1.0
62	0x3f800000	1.0
63	0x3f800000	1.0
64	0x3f800000	1.0
65	0x3f800000	1.0
66	0x3f800000	1.0
67	0x3f800000	1.0
68	0x3f800000	1.0
69	0x3f800000	1.0
70	0x3f800000	1.0
71	0x3f800000	1.0
72	0x3f800000	1.0
73	0x3f800000	1.0
74	0x3f800000	1.0
75	0x3f800000	1.0
76	0x3f800000	1.0
77	0x3f800000	1.0
78	0x3f800000	1.0
79	0x3f800000	1.0
80	0x3f800000	1.0
81	0x3f800000	1.0
82	0x3f800000	1.0
83	0x3f800000	1.0
84	0x3f800000	1.0
85	0x3f800000	1.0
86	0x3f800000	1.0
87	0x3f800000	1.0
88	0x3f800000	1.0
89	0x3f800000	1.0
90	0x3f800000	1.0
91	0x3f800000	1.0
92	0x3f800000	1.0
93	0x3f800000	1.0
94	0x3f800000	1.0
95	0x3f800000	1.0
96	0x3f800000	1.0
97	0x3f800000	1.0
98	0x3f800000	1.0
99	0x3f800000	1.0
100	0x3d4b4d36	0.04963418
101	0x3e543b29	0.20725693
102	0x3da026c3	0.07819893
103	0x3e3f597f	0.18686484
104	0x3ea8318d	0.32850304
105	0x3e4cf294	0.20014411
106	0x3e643b75	0.22288306
107	0x3dfaab22	0.12239672
108	0xbcce9d36	-0.025221448
109	0x3f221585	0.63314086
110	0x3e17c7b1	0.1482227
111	0xbcb67018	-0.022270247
112	0x3ede7b4f	0.43453452
113	0x3e318177	0.17334543
114	0x3ddbbb6e	0.10729109
115	0x3e2ca83a	0.16861048
116	0x3ec37374	0.3817402
117	0xbd10a196	-0.03531035
118	0x3ef7deaf	0.48412082
119	0x3eb4a35f	0.35280892
120	0x3d0f3130	0.03495902
121	0x3c814dd0	0.015784174
122	0x3ef4d10b	0.47815737
123	0x3e8365ac	0.25663507
124	0x3da7beaf	0.08190667
125	0x3e257894	0.16159278
126	0x3edcd1be	0.4312877
127	0x3e367708	0.17818844
128	0xbd4dfa6a	-0.05028764
129	0x3e77abf9	0.24186696
130	0x3d91e220	0.07123208
131	0x3dcfd180	0.10147381
132	0xbd073cb7	-0.033016887
133	0x3bb0d51b	0.005396498
134	0x3ee546a7	0.44780466
135	0xbc4c451f	-0.012467652
136	0x3e069d73	0.13146
137	0xbc36c27d	-0.011154768
138	0x3df58a79	0.11989302
139	0x3e03afaa	0.1285998
140	0x3cc45471	0.023966046
141	0x3e155b1f	0.14585541
142	0x3d2172b8	0.039416045
143	0x3da06caf	0.0783323
144	0x3e1d34ac	0.15352124
145	0x3e1eb095	0.15497048
146	0xbc33088d	-0.010927332
147	0x3e1efc8e	0.1552603
148	0xbe3fca7c	-0.18729585
149	0x3d7b3869	0.061333094
150	0x3f252ca3	0.64521235
151	0x3ec9109e	0.3927049
152	0x3f22319e	0.6335696
153	0x3f1c78cc	0.6112182
154	0x3edd8081	0.43262103
155	0x3f0feadc	0.5621774
156	0x3eebdf88	0.46068978
157	0x3df0ed6d	0.117640354
158	0x3ea00e7a	0.31261045
159	0x3f015b90	0.5053034
160	0x3e0aa6ef	0.13540243
161	0x3eccd070	0.40002775
162	0x3e8c44eb	0.2739633
163	0x3f0cb08e	0.549569
164	0x3e37108e	0.17877409
165	0x3e3b4d9e	0.18291327
166	0x3ea87f7c	0.32909763
167	0x3f12f7fa	0.5740963
168	0x3e89a92b	0.26886877
169	0x3e09cb15	0.13456376
170	0x3efac7f3	0.48980674
171	0x3e8bc12a	0.2729581
172	0x3e748691	0.23879458
173	0x3ef819fd	0.48457327
174	0x3f1a9735	0.60386974
175	0x3d8e0b0b	0.069357
176	0x3e13faea	0.14451185
177	0x3edd1527	0.431802
178	0xbd239d09	-0.039944682
179	0x3f0497c9	0.51794106
180	0x3f616db2	0.88058007
181	0x3fa4e39a	1.2881958
182	0x3ef3cc77	0.47616932
183	0x3e9043e7	0.28176805
184	0x3eacbc7b	0.3373755
185	0x3f16cb57	0.5890402
186	0x3f6c54ac	0.923167
187	0x3ee780cd	0.45215455
188	0x3db21728	0.08695823
189	0x3ece3064	0.40271294
190	0x3efa1ca5	0.4884998
191	0x3da6084d	0.08107052
192	0x3ef9b9c9	0.48774555
193	0x3f14660a	0.579682
194	0x3f0fe4e3	0.5620863
195	0x3f78db8e	0.97210014
196	0x3e8aa96e	0.2708239
197	0x3edb9b94	0.42892134
198	0x3e89e691	0.2693372
199	0x3b93d142	0.0045110295
