tflite_modelos/LSTM/LSTM-Dropout.tflite (tflite, 143360 bytes, 8 tensors)

arith.constant3 f4 [2, 50]
00000000: 9767 d43e 0c37 943e 6062 b63e 44cb 7d3e
00000010: 29e6 c83d 5085 e5be a8bd f53e 9d2b b0be
00000020: fcc0 79be 2ab9 10bf bd53 2fbe 89d2 aa3d
00000030: 1ea3 003f 0244 bfbe 5f94 d73e a258 0bbf
00000040: a862 e1be 11be 103d 53b0 e6bc d31f 12bf
00000050: 912d ee3e b746 d93d b918 85be 00fc 1a3e
00000060: 2e9d cebe 885a 8dbe 79b0 9f3e 9f83 f7be
00000070: 7d72 b13e 283c fdbe 6d7a 64be 6827 eb3e
00000080: d7e5 073f 9433 fdbd e3d3 0d3f 1052 ac3e
00000090: 209e e5be 9e02 5bbe 06ea c8be 89b6 44be
000000a0: 6c03 913d 24d3 a83e bf54 40be f797 c43e
000000b0: b1ed 84be 1289 7b3e 8d92 dfbd e62a d23e
000000c0: 106a 053e 23e1 073d 226a 0bbf a314 58be
000000d0: 1b3b 03bf 99fd b1be 13b5 c6be 4d8a c83e
000000e0: 939d bbbc 79a6 843e 83f6 8b3e ead5 a73e
000000f0: b087 fc3e 65c8 1fbe 33df 30be 205c 0a3f
00000100: f2cf 0fbf 49c4 ac3e 518c c53d 21cf c63e
00000110: a1da 083f dc70 b03e 3503 6fbd 8b18 e2be
00000120: b4db 83be 7aa3 c7be cb80 f43c 8c24 c73d
00000130: 3cce 84be dd65 9dbd 85a3 50be 24a9 f73c
00000140: 4a69 943e 0882 953c cbc3 4ebc bcf6 e43e
00000150: 42d5 45be 3319 89be 6cd6 8e3e ea11 2bbd
00000160: 0357 9f3e c647 173f cc3c c8be f738 b2be
00000170: 5919 e53e adba 2fbe 61d1 e93e 7808 fabe
00000180: c040 bd3e 302e 70be e39a 03bf 7c5a eebe
0.41485283 0.28948247 0.3562193 0.24784571 0.098095246 -0.44828272 0.4799626 -0.34408274
-0.24390024 -0.5653254 -0.17121787 0.08340938 0.502489 -0.37356573 0.42105386 -0.5443212
-0.4402058 0.03533751 -0.02816025 -0.5707981 0.4651914 0.10609191 -0.25995424 0.15135193
-0.40354294 -0.27608132 0.31189325 -0.48342606 0.3465766 -0.49459958 -0.22312327 0.45928502
0.5308508 -0.12363353 0.5540144 0.3365636 -0.44847202 -0.21387717 -0.39241046 -0.19210257
0.07080731 0.32973588 -0.18782328 0.3839719 -0.25962594 0.24564007 -0.10916624 0.41048354
0.13028741 0.03317369 -0.5445882 -0.21101622 -0.5126206 -0.34763792 -0.38810024 0.39168015
-0.022902286 0.2590826 0.2733651 0.3278039 0.4932227 -0.15603788 -0.17272644 0.5404682
-0.56176674 0.33743504 0.09645904 0.38829902 0.534586 0.34461105 -0.058352668 -0.4415935
-0.25753558 -0.3899191 0.02984657 0.09723768 -0.25938594 -0.076854445 -0.20374878 0.03023202
0.2898658 0.01825048 -0.012619923 0.44719493 -0.19319633 -0.26777038 0.27897966 -0.04176513
0.31121072 0.5909389 -0.39108884 -0.34809086 0.447459 -0.17161055 0.45667556 -0.48834586
0.36963463 -0.23455119 -0.51408213 -0.4655341

arith.constant4 f4 [2]
00000000: 08b2 8d3d 08b2 8dbd
0.069187224 -0.069187224

arith.constant15 f4 [200, 3]
00000000: a201 f63e f3bf 17bf 708b 13bd 4527 2c3f
00000010: 2728 4cbe 645a 3abe f2bc 15be 0924 1f3f
00000020: 30f5 7cbc cd39 c2be a898 143f 4815 373e
00000030: 28a0 063e 67cd 6d3e f177 01bd 30b7 a33e
00000040: 1d01 07be 081a 533c 0348 4d3e bc9c 32bc
00000050: d271 1dbe 8c7a 003e bb92 9abc 250f 423d
00000060: 588a 023f f116 d7be 9280 f1bd b222 453e
00000070: eefd 9dbe 4060 b6be 03ab 0abe 57f9 e73e
00000080: ed17 d5bd 2ad1 393f 062a 77be cd2f 0ebd
00000090: 3180 b53e 6c0a 6e3d 1413 d8bd 69fb b23e
000000a0: ff34 c1bd 4861 b4bd f8d9 e43d 7a2d 06be
000000b0: 1731 7f3e c7f6 9d3e f2f8 613e 176f 26be
000000c0: 7fde ce3e 678c 70be 1220 95bd c4cb 473d
000000d0: d04a 863d a577 d23d 2080 103e 6ba0 16be
000000e0: 7175 4a3e 7ac1 363d c308 1b3e 9680 853e
000000f0: 3856 323d 68b4 a03e 07b3 333d 8e23 2cbe
00000100: dd96 8e3e 84a8 293b 3e56 acbd 636c 023f
00000110: 7849 02bf d185 b63d b8d0 c43e 5f0f a93c
00000120: 1739 023f d846 02bf a266 2abd 11fd 0b3f
00000130: 6b44 36bd 0a38 febe 4286 45be 4fd6 da3e
00000140: 95d9 793e 24e0 043e f10d 383e 4a21 f7bd
00000150: b85c be3e 561c 50be 8d5b 58bd cfe6 62bd
00000160: 8748 373d 6646 8fbe 5128 b13e 2321 ddbe
00000170: 83ea 11bd 8d19 31be 4ee9 e63e d162 f9be
00000180: 48af 6a3e 44ec c73e 6293 29bf 8249 873d
00000190: b164 933d da1c 1ebe 2029 5a3f 34af 253d
000001a0: 278a 48bf 2e94 d83d 90ce afbd 8afb 593e
000001b0: adf7 ac3e e839 59be ccae 40be db73 2fbe
000001c0: 45b1 80bd ebb2 d03d 4192 cbbe 2c63 d33e
000001d0: a2a0 ab3e d758 1b3e 353e 8fbe 7b86 603e
000001e0: f9c8 2f3e 90db 0e3f e524 fbbe 372e 1b3f
000001f0: 6a2b 92be 14c4 ed3d ecd2 183f 3afc ccbe
00000200: 3a0c 63bd 8ae1 793f d984 38be d3d7 083e
00000210: 4ff4 063e 9b08 fc3e 12af 37bf 9d4c 703e
00000220: 87b9 d2be 91bf 5f3b 2b0e 8c3e 2dc8 09bf
00000230: 8bae 9d3d 47b8 cb3e bb0f d5be 1cae dcbe
00000240: 941e fd3d f640 9e3e 0a2e 03bf 70e2 a03d
00000250: 5a56 be3d b323 803e 7082 f43c f869 6e3d
00000260: 2870 8fbc 66c7 2abe cc65 823d af78 f0bd
00000270: b337 f6bd 0435 c73d 2296 213e f850 423d
00000280: b2b0 52bd a4b2 3d3d 04e9 02be 8cd5 823d
00000290: 64b4 73bd 005a 3cbc 6aeb 87bd bc96 323d
000002a0: 1020 083e 5e49 78bd 1b03 e2bd 69dd 1abe
000002b0: a213 e6bd 6074 af3c b0b7 e8bc bcaf 093e
000002c0: 94b0 393d 0a4a 063e 7bbb 27be c074 0fbd
000002d0: cc74 80bd 802e 55bb 3816 113e c053 313c
000002e0: 04a3 533d 9234 92bd 044e 633d 68ae f7bc
000002f0: ec1d 0bbd aca5 b1bd fa75 15be b816 06be
00000300: b03e b3bc 6c6b 833d b045 d03c 30d0 04be
00000310: 6c4f f0bd c4f1 ba3d c85b c93c 987d 0e3e
00000320: 8984 f1bd 78a5 853c 8cdb 213e 823c c7bd
00000330: e039 bc3c 24eb e13d e02d 2abc c853 f3bc
00000340: 780c c63c c7b0 02be e2ad 083e 9819 d93c
00000350: 1899 ffbc 6619 d5bd edb2 babd 300e 83bc
00000360: 207e 4cbc d014 22be 0a58 2d3e 2880 c33d
00000370: cc23 3f3d 3826 e83d 6e79 03be 80ef f83d
00000380: 687c d6bc fd06 ccbd a080 80bc 0020 b03d
00000390: 726f 5bbd e9ed 2bbe 6e4c 2a3e 66c0 003e
000003a0: 78ca a93d 18f1 f33c 9da6 e1bd 78f6 543d
000003b0: 5555 13be b7b7 b8bd eae0 013e 708f 5fbc
000003c0: a24c fcbd 8872 4b3d 74aa fb3d 74b3 f13d
000003d0: ded7 233e b6c7 213e 486c b0bc a478 e03d
000003e0: 303a 61bc 205c c0bc 6722 f4bd 792b 1cbe
000003f0: cc66 58bd 9e99 1b3e dc82 f53d f641 1e3e
0.4804812 -0.59277266 -0.03602165 0.6724742 -0.19937192 -0.18198544 -0.14622858 0.6216436
-0.015439317 -0.37934723 0.58045435 0.17879212 0.13147032 0.23222886 -0.031608526 0.31975698
-0.13184018 0.012884624 0.20047002 -0.010901626 -0.1537545 0.12546748 -0.018868795 0.047377724
0.50992346 -0.4200969 -0.11792101 0.19251516 -0.30857795 -0.35620308 -0.13541798 0.4530742
-0.10404954 0.72584784 -0.24137124 -0.034713555 0.35449365 0.058115408 -0.10550514 0.34957436
-0.09433936 -0.088076174 0.11174387 -0.13103285 0.2492107 0.3085234 0.22067621 -0.16253315
0.40404126 -0.23491059 -0.072815076 0.04877831 0.06557238 0.10276727 0.14111376 -0.14709632
0.19771363 0.044618107 0.15140061 0.26074666 0.043539256 0.3138764 0.043871906 -0.16810438
0.27849475 0.0025887797 -0.08414887 0.50946635 -0.50893354 0.08912242 0.3844049 0.020637212
0.5086836 -0.5088935 -0.041601785 0.54683024 -0.044498842 -0.4965213 -0.19289497 0.4274163
0.24399407 0.12976128 0.17974068 -0.12066896 0.37180114 -0.2032331 -0.052821685 -0.055395897
0.0447469 -0.27983397 0.3460107 -0.43189344 -0.03562404 -0.17294903 0.45099872 -0.48708203
0.22918427 0.39047444 -0.66240513 0.066058174 0.0719694 -0.15440693 0.85219 0.04045029
-0.78335804 0.10575138 -0.085843205 0.21287361 0.33782712 -0.21213496 -0.1881668 -0.17134039
-0.062838115 0.10190376 -0.3976002 0.412866 0.3352099 0.15170608 -0.27977148 0.219263
0.17166509 0.55803776 -0.49051586 0.60617393 -0.28548747 0.116096646 0.5969684 -0.40036184
-0.055431582 0.9760977 -0.18019427 0.1336358 0.13179134 0.49225315 -0.7175151 0.23466726
-0.4115717 0.0034141282 0.2735456 -0.5382107 0.07699307 0.3978903 -0.41613564 -0.43101585
0.12359348 0.30908936 -0.51242125 0.078556895 0.09293814 0.25027236 0.029847354 0.05820653
-0.017509535 -0.16677627 0.063670725 -0.117417686 -0.120223425 0.09726909 0.15779927 0.0474405
-0.05143804 0.046312943 -0.12784201 0.06388387 -0.059498206 -0.011496067 -0.066366985 0.043600783
0.13293481 -0.060616843 -0.110357486 -0.15123524 -0.112342134 0.021417797 -0.028407902 0.13445944
0.045334414 0.13114181 -0.16380112 -0.03502345 -0.06272277 -0.0032528937 0.14168632 0.01082319
0.051669136 -0.07138933 0.055494323 -0.03023453 -0.033964083 -0.086741775 -0.14595786 -0.13094604
-0.021880478 0.064169735 0.025423855 -0.12970042 -0.117338985 0.091281444 0.024579898 0.13915098
-0.11792857 0.016314253 0.15806407 -0.09728338 0.022976816 0.11031178 -0.010386914 -0.029703036
0.024175867 -0.12762748 0.13347581 0.026501462 -0.03120093 -0.10405235 -0.09116159 -0.015997976
-0.012481242 -0.15828252 0.16928115 0.09545928 0.046664998 0.11335415 -0.1283929 0.12155056
-0.026182368 -0.099622704 -0.015686333 0.085998535 -0.05357308 -0.16789974 0.16630718 0.12573394
0.08290571 0.029778048 -0.11018107 0.051992863 -0.1438802 -0.09019416 0.12683454 -0.013645038
-0.12319304 0.049669772 0.12288371 0.11801806 0.16000316 0.1579884 -0.021536008 0.109605104
-0.013746783 -0.023481429 -0.11920624 -0.15250959 -0.05283241 0.15195319 0.1198785 0.1545485

arith.constant16 f4 [200, 50]
00000000: 2069 483d c002 14bd 7201 883d ad6c 9d3d
00000010: d584 af3c 70e2 a03c a5f0 2cbd 3931 803d
00000020: d4c4 703d fecc b2bc 640e c0bc 8a7a b43d
00000030: 20c0 5cbd 9390 113e 1150 993d cb67 89bd
00000040: dfe2 26bd 60df 983b d13c 40bd 04d1 943d
00000050: 30d8 a9bd dc3f 963d 2100 a83d 8418 c6bc
00000060: be6e ff3d 3846 3abd b2d0 28bc 0b3e 2e3d
00000070: a7dd 0e3e 2495 fcbc 8c69 84bd b07f 7c3c
00000080: f292 853b 19a6 a1bc aea7 913d 220d 81bd
00000090: babe 03bd 6d88 19bd 4ea2 84bd 067c e0bc
000000a0: bfcd 523c 12df 15bd e8c9 f23c 052c a1bd
000000b0: ba1c 303c 84c4 07bd 83d3 cbbd 981c 163d
000000c0: 825a 943b 21ae 093d beff 03be 008e 78bc
000000d0: 20de 3fbd f46c d13c a3f7 d33d a055 46bd
000000e0: afcd 2dbd 866f bd3d 9e3a 443e 9105 2d3d
000000f0: 9474 a9bd e421 52bd a085 a5bd 6e76 21bd
00000100: 684c 81bb bfe1 883d aa2a 36bc fff6 f03d
00000110: 2548 51bd ce1a c13d 0f4d 453c 5079 b7bb
00000120: e30e b13d 84da b53d 2488 cdbd a069 58ba
00000130: a8f7 783b 5e58 0fbd ea2a debd c895 a3bd
00000140: b016 7c3d 59cc 81bd fd9f f43d 5a2c 153d
00000150: 74a9 1f3d 9b70 84bd a5f9 943c d52c 8c3d
00000160: 59c5 14be 664d 5bbd 3b1f ccbd 8a16 69bd
00000170: 7d4a 9a3c ccea cb3c 4219 143d 8c0a 3abd
00000180: 8aab 25bd 13ad b83c d954 47bd e722 2e3c
00000190: 7631 843c 0707 1d3c 0094 6a3c efed 8f3c
000001a0: abee be3c bdeb f93c f9bc 8abd 5ac4 2cbd
000001b0: eff8 33bd 9ad6 20bd 419a 07bc 9b09 8cbb
000001c0: 873f 763d 58be 33bd 4475 a83d 6144 c43c
000001d0: c25e 3dbd ed2f 9ebd cf9f bebd a437 4abd
000001e0: 4798 813d b125 d8bb d096 193d fc63 f43b
000001f0: bc72 a13d fa3d 23be 659f 6a3d 7e87 92bc
00000200: a49b b53c cb8c fbbc 8d23 c1bd 174e 883d
00000210: e5b5 0d3d 36b4 04be ae8c 51bd 4e49 ccbc
00000220: d0b9 1d3c 718f de3d 8018 e83d 896f a8bd
00000230: 2e35 44be b111 0ebd c427 283d e25b 0abe
00000240: c461 143e a317 b6bd dc8c 2c3c 10a0 63bd
00000250: 5ace 70bc cb3a 123d 1d44 4d3d 39e4 febc
00000260: accc d73d d0ce cf3d 0cf9 2ebb 9939 123b
00000270: 70f5 14bd f603 c93d c248 963d b9ea cebc
00000280: 547f d5bb 4af9 5a3d 93b0 40bd db81 e13c
00000290: 54b0 9c3d 9464 2a3c c698 03bd 1ec1 90bd
000002a0: 2a53 b03b 4877 5cbc 06a6 703c a7c3 babd
000002b0: 487c 64bd 77cf 5dbd b069 90bc 8720 bbbc
000002c0: 6ecb ad3d 3c53 86bb 4d8b a73c c4b9 a43c
000002d0: 6c49 283d ceee 96bc 40c6 69bd 0f5e 16bd
000002e0: 1c7d 2cbd c096 87bc a84b 373d 0d39 b23d
000002f0: 9ac0 45bd 52c8 f1bd a086 4bbd 50ae 69bd
00000300: 7b04 893d 6ead b3bd 940d 7abd 9f3c c53d
00000310: 2126 4e3d 47dc 9c3c f12c 62bd 8e55 273d
00000320: 2fe2 0c3a b5fc 6abd 476b b13d b892 ce3c
00000330: 907f ba3d fa50 01bc f4fd 50be 64f3 123c
00000340: a4ce 32bd 7807 a73d 3468 c5bd 14e4 5cbc
00000350: 781d a2bd 491e 97bd fa6c 5abd 6016 193e
00000360: 852d 5b3d e703 ce3d fa63 413d 0d98 f9bd
00000370: 6f87 cdbd 4d86 14bd f017 9c3d 109d 02bd
00000380: b7dc e23d b70d 2bbd ca05 91bc 9905 a2bc
00000390: 4b20 153e 807b e33a b0ee 6c3c 0a16 da3c
000003a0: 5449 c43d f444 dabc fe4b 83bc e27b a3bc
000003b0: 74e8 d4bd bc24 abbc 6f03 aabc 1555 09be
000003c0: e240 8cbc 7a81 913c 41f5 973d a28d 6c3d
000003d0: fafd 903c 8baa 763d 8966 963d 77fa 413d
000003e0: f41c 32be 32f4 1a3d 0d81 6d3d 1f88 91bd
000003f0: 1cf2 dc3d d585 6cbc a373 523d 504b bbbd
0.04892838 -0.036135435 0.06640901 0.07686744 0.021425644 0.019639224 -0.042221684 0.062593885
0.05878146 -0.021826264 -0.023444362 0.08812435 -0.053894162 0.14215307 0.074859746 -0.0670925
-0.040743705 0.0046653003 -0.046933 0.07266429 -0.082931876 0.07336399 0.082031496 -0.024181612
0.12472294 -0.045477122 -0.010303663 0.042539638 0.13951741 -0.030832835 -0.06465444 0.015411302
0.004076355 -0.019732522 0.071120605 -0.06301333 -0.032164313 -0.03748362 -0.0647627 -0.027402889
0.0128664365 -0.03658969 0.029637292 -0.07869724 0.010749036 -0.033146396 -0.09952452 0.036648363
0.004527391 0.033613328 -0.12890527 -0.015170574 -0.046842694 0.025564648 0.10349967 -0.048421502
-0.042432483 0.09249787 0.19162986 0.042241637 -0.08274189 -0.051301852 -0.080821276 -0.039419584
-0.003945876 0.06683683 -0.01111857 0.11765861 -0.051094193 0.09428941 0.012042298 -0.0055991784
0.086454175 0.08879569 -0.100357324 -0.00082554854 0.0037989412 -0.034996383 -0.10848029 -0.07987553
0.061545074 -0.06337804 0.11944578 0.03641925 0.038979962 -0.0646679 0.018185446 0.068444885
-0.14528407 -0.05354061 -0.09966894 -0.05690626 0.018834347 0.024892233 0.0361569 -0.045420215
-0.040446796 0.022543466 -0.0486649 0.010628439 0.016136866 0.009584195 0.0143175125 0.01756951
0.023307165 0.030507917 -0.06774325 -0.042179443 -0.043938573 -0.03926716 -0.008276523 -0.004273606
0.06011918 -0.043882698 0.08225492 0.023958387 -0.046232946 -0.07723985 -0.09307825 -0.04936947
0.06327873 -0.00659629 0.03749734 0.007458208 0.07883212 -0.15941611 0.057280917 -0.017886873
0.022168942 -0.030706784 -0.09430609 0.066555195 0.034597296 -0.1295937 -0.051159553 -0.024937298
0.009626821 0.10867203 0.11332798 -0.08224399 -0.19160911 -0.03468484 0.04105355 -0.13511613
0.1449042 -0.08891227 0.01053163 -0.05557257 -0.014697636 0.0357006 0.050113786 -0.031114684
0.10537085 0.10146868 -0.0026698736 0.0022312163 -0.03636688 0.098152086 0.07338096 -0.025258409
-0.006515423 0.053460397 -0.047043394 0.02752774 0.076508194 0.010399956 -0.032128118 -0.07068084
0.0053810077 -0.013456173 0.014688021 -0.09119349 -0.055782586 -0.054152932 -0.01762852 -0.022842659
0.08486067 -0.004099278 0.020452166 0.020108111 0.041085646 -0.018424418 -0.05707383 -0.036710795
-0.0421115 -0.016551375 0.044749886 0.08702288 -0.048279382 -0.11805786 -0.049688935 -0.057051003
0.06690308 -0.087733135 -0.061048105 0.09630703 0.05032933 0.019148005 -0.05521864 0.040853076
0.000537428 -0.057369906 0.0866304 0.025216445 0.09106362 -0.0078928415 -0.20409375 0.008969162
-0.0436541 0.081557214 -0.09639016 -0.013482112 -0.07915777 -0.07378823 -0.053326584 0.14949942
0.053510208 0.10059338 0.047214486 -0.121872045 -0.100355975 -0.03626089 0.07621753 -0.031888068
0.11077254 -0.041761126 -0.017702956 -0.01977806 0.145631 0.0017355531 0.014461204 0.026621837
0.09584299 -0.026644208 -0.016027447 -0.019956533 -0.103958994 -0.02089154 -0.02075359 -0.13411362
-0.017120782 0.017761935 0.07419825 0.05775226 0.01769923 0.060221236 0.07343776 0.047358003
-0.17393857 0.03783054 0.0579844 -0.07106041 0.10788366 -0.014436205 0.05137981 -0.09145224

sequential_12_1/lstm_5_1/while/lstm_cell_1/add_1/ReadVariableOp f4 [200]
00000000: 3a10 cb3e cf42 953e afd0 123d 914a c13e
00000010: 9b3e 313e 05ff 913e 9556 8f3e a008 333e
00000020: bcc3 a43e 08a0 b93e 5e22 8c3d ebe2 993e
00000030: 5c83 8f3e ab4c 963e dd74 833e 4ac6 883e
00000040: 814e 963e c443 de3d c64b 7a3e 44ed 873e
00000050: d653 a93d f3ad ac3d 3e8a 913e f9cb b13d
00000060: efa4 a03e 6e62 a93e 4532 db3d 98b0 2c3e
00000070: 6283 7d3e 21b0 103e 4354 c33e 7783 633e
00000080: 3c44 823e 2c53 753e 6974 f93e 6b53 983e
00000090: b1aa b43e d968 1d3e 4f0f 9f3e 5c1e bd3e
000000a0: 76bf 703e 7641 9a3e 932a cd3e be9f c93e
000000b0: c6fc 5e3e b633 d73e ff2d ec3e cd64 b53e
000000c0: b0b5 723e 9d97 423e 0000 803f 0000 803f
000000d0: 0000 803f 0000 803f 0000 803f 0000 803f
000000e0: 0000 803f 0000 803f 0000 803f 0000 803f
000000f0: 0000 803f 0000 803f 0000 803f 0000 803f
00000100: 0000 803f 0000 803f 0000 803f 0000 803f
00000110: 0000 803f 0000 803f 0000 803f 0000 803f
00000120: 0000 803f 0000 803f 0000 803f 0000 803f
00000130: 0000 803f 0000 803f 0000 803f 0000 803f
00000140: 0000 803f 0000 803f 0000 803f 0000 803f
00000150: 0000 803f 0000 803f 0000 803f 0000 803f
00000160: 0000 803f 0000 803f 0000 803f 0000 803f
00000170: 0000 803f 0000 803f 0000 803f 0000 803f
00000180: 0000 803f 0000 803f 0000 803f 0000 803f
00000190: c018 453d eaf9 883d 810c 8b3d 82f9 153e
000001a0: fe6a 153e a7bf 9b3e 2738 433e eb44 1e3e
000001b0: ea67 8f3e d0df 753d e266 ae3c db66 be3d
000001c0: 6403 363e 5f06 383e cad8 fe3d 6fbf 683d
000001d0: bbdb 6a3e 0121 293e d7f4 633d fe91 7b3e
000001e0: d008 2a3e 796a 313e 6553 38bb 19ee 3a3e
000001f0: 3267 e13d 1b60 e1bb afe5 713d 4991 213e
00000200: deb4 a93e 317f 0c3e ab56 a73e 8754 0e3d
00000210: 087f 5b3d b3cc ca3d 26ba d1bc d682 133e
00000220: fd62 873e 0ba4 0b3e d186 043e 2342 893d
00000230: 2acc 2e3d 3ea4 d13d fa14 da3d b652 2d3e
00000240: c81f 5b3c 98b7 c03d 5c60 8e3d 1a81 103d
00000250: f3a0 743d 9263 ec3d 49a7 d33e 4694 9d3e
00000260: 2498 2a3d 9a42 c53e 3bc1 483e feeb 873e
00000270: 2ec9 8d3e d09c 7a3e 9775 a43e 610f ab3e
00000280: 60c2 9a3d 73a6 a03e 5900 8f3e 88c5 923e
00000290: 26db 7c3e 6be5 743e 0262 9d3e 8cc1 fa3d
000002a0: 78fb 753e dc1d 743e 0bc1 d33d 7f55 883d
000002b0: 5d99 883e 100f bb3d aa2b b13e 8418 aa3e
000002c0: b9c3 f93d b358 2b3e ee92 7c3e c4d5 0f3e
000002d0: 597b bd3e 7120 753e d716 843e 06c4 7b3e
000002e0: 73f7 f83e d606 9c3e 5d71 af3e b649 0a3e
000002f0: 0e69 9e3e 0142 c93e edad 6e3e b1b2 993e
00000300: bfce c93e ddc3 cc3e 33ed 6d3e adf1 d73e
00000310: 1ddb e03e 563e b03e 7c0e 723e 5edb 3f3e
0.39660817 0.29152533 0.035843547 0.37752202 0.17309038 0.28514877 0.27995744 0.17483759
0.32180583 0.36254907 0.068424925 0.30055937 0.28029907 0.29355368 0.25675097 0.26713783
0.2935677 0.10852769 0.24442968 0.26548207 0.082679436 0.08431616 0.28425783 0.08681483
0.31375834 0.33082908 0.107029475 0.1686424 0.2475715 0.14129688 0.38150224 0.22218119
0.25442684 0.23957509 0.48721626 0.29751143 0.35286477 0.15372027 0.31066367 0.36937225
0.23510537 0.30128068 0.40071544 0.39379686 0.21776113 0.4203164 0.46128842 0.35428467
0.23702121 0.19003148 1.0 1.0 1.0 1.0 1.0 1.0
1.0 1.0 1.0 1.0 1.0 1.0 1.0 1.0
1.0 1.0 1.0 1.0 1.0 1.0 1.0 1.0
1.0 1.0 1.0 1.0 1.0 1.0 1.0 1.0
1.0 1.0 1.0 1.0 1.0 1.0 1.0 1.0
1.0 1.0 1.0 1.0 1.0 1.0 1.0 1.0
1.0 1.0 1.0 1.0 0.048119307 0.06688292 0.06789494 0.14645961
0.14591596 0.30419657 0.19064389 0.15455978 0.28008968 0.060027897 0.021289293 0.09296962
0.17774731 0.1797118 0.12443693 0.05682319 0.22935383 0.16516496 0.05565342 0.2456741
0.16604924 0.17325772 -0.002812588 0.1825489 0.11006011 -0.0068779117 0.059056934 0.15778078
0.33145803 0.13720395 0.3268331 0.03474858 0.053587943 0.099023245 -0.025601458 0.14405379
0.2644271 0.13636796 0.12942053 0.06702068 0.042675175 0.10236405 0.10648532 0.16926083
0.013374276 0.09410018 0.06951973 0.03527937 0.059723806 0.11542429 0.41338566 0.30777186
0.041649 0.38527375 0.19604962 0.26547235 0.2769255 0.24473882 0.32120964 0.3341017
0.07556605 0.3137699 0.27929953 0.2866633 0.24692973 0.23915641 0.30738837 0.122439474
0.24021709 0.23839515 0.103395544 0.06656932 0.26679507 0.09133732 0.34603626 0.3322183
0.12195534 0.16733055 0.24665424 0.14046389 0.3700817 0.23938157 0.25798675 0.24586496
0.4862629 0.30473965 0.34266177 0.13504681 0.30939525 0.3930817 0.23308535 0.30019143
0.39415547 0.39993182 0.23235016 0.4217657 0.4391717 0.3442256 0.23638338 0.18736026

arith.constant20 f4 [200, 50]
00000000: 124e f93e d365 323e d40c 383e 52e4 763e
00000010: e0a7 30be d8c3 bd3e 3e01 023e 1588 84be
00000020: e28d bf3e e5ac 9f3e d0ae c83e 2e43 933e
00000030: 6704 8a3e 7018 b23e a92c cc3e b72c 523e
00000040: 91c2 3d3e 8506 babd 054c 553e 89c7 3f3e
00000050: 119c 313d 82c8 fa3c 7626 d63e 025e b2bd
00000060: 34a8 d63e 4668 0a3e b71b 133e 9d6e f23d
00000070: 80f3 5e3e 0b84 343e 1e79 8a3e eaa6 bb3e
00000080: 8c9c 8e3e 565b 343e a69b 823e 7ea6 8d3e
00000090: d564 5d3e 4f3f 99be 3d81 893e 6dbe 933e
000000a0: 1386 283e a38a fe3e b72e 7b3e b4dc 203f
000000b0: b19c a13e 1b3a f23e 7336 023f 62e8 7c3e
000000c0: 90cd 303e fed4 a43d 9392 cc3e 8cee af3e
000000d0: fde1 553e a1fe 253e 2340 47bd 7631 ba3e
000000e0: 7ab4 813e 2f6b 38be 6a45 a33e 46a7 9f3e
000000f0: 4f42 a33e ff3f b33e fbf6 923e fe67 ca3e
00000100: 0dbc b23e 1908 dc3e 46c8 303e f278 84bd
00000110: 1136 8b3e 54ac 603e 7312 f7bd 5dae 313c
00000120: 70d4 903e 6a74 ae3d 0190 093f 0283 e03e
00000130: cd98 a13e 75e2 643e fead 293e 1d52 623e
00000140: dc53 ee3e f0f0 b93e 8333 c73e 4dcb 643e
00000150: 13ba 0d3f 0519 bf3e 1f4c 613e 30d9 82be
00000160: 8465 9d3d dc61 9d3e 50d3 363e fb61 e13e
00000170: ed2b f63e b0b1 df3e d23e 7a3e 14fd 7c3e
00000180: 9e83 d53e c133 b23e 7c8a 823e 5d14 0e3e
00000190: 6056 0e3f 9ca3 b33e 42f7 883e 3bb4 703e
000001a0: bfce 63be 6030 9e3e e7f3 9f3e 24e0 7ebe
000001b0: 3e5d 573e b61d 0b3e 3a37 8f3e ed93 e83e
000001c0: 7848 833e 36e4 d23e a3de a13e 8403 d73e
000001d0: 39c1 a63e d424 e7bc 0774 fb3d de7f c83d
000001e0: 4f51 163e 0128 82bd 9177 dc3e d978 91bc
000001f0: 3bfa a33e 847f 0c3e 2128 9b3e 01d1 773e
00000200: 4d79 753e bcca 753e 7f5f af3e 4eb6 9b3e
00000210: ff65 c13e a744 313e cff4 8e3e 82de a53d
00000220: 754e f03d cb91 1a3d d313 a63e 096c 733e
00000230: 940a 913e 1fde ee3e 0aa0 053f 1070 cf3e
00000240: 6c3e b23e 1b25 b83e 9650 d23e 450b 893e
00000250: 5dde a73e 0fa4 103e f1ba bb3e e4d1 873e
00000260: 1295 16bd 661c 0b3e ac22 9abe 13e9 2a3e
00000270: 178b 373e f5a5 99be a13f 463e e93b f03e
00000280: 8177 a23e ef12 d73e e79a cd3e 1306 ce3e
00000290: 7e62 843e 7b06 953e 507d 973e b514 62be
000002a0: e531 c83e 4311 283e c10a 683c e4fc 07be
000002b0: fc62 643e 6548 cabc a89b c83e ad19 a83e
000002c0: b8e0 b33a f920 833e 4732 833e 4929 9a3c
000002d0: 05c8 6c3e 9e96 323e ae71 903e b801 233e
000002e0: 0476 b63e c8d4 173e f0ac a53e 2aed c6be
000002f0: e8c1 653e 9a23 df3e a9e7 a73e 6b51 733e
00000300: 2570 bb3e 364a 113f da19 743e 6897 cf3e
00000310: f948 b83e cc90 933e 5573 b63e 14df 2a3e
00000320: d36a 993e ade3 633e f375 0f3e de20 ba3e
00000330: 2bf9 85be 7f46 9d3e 02d5 9e3e 865f f0bd
00000340: b125 873e 5336 283e 9fcb 6d3e 4d26 fd3e
00000350: 4018 db3e a579 e53e 8b3a c53e 6368 9a3e
00000360: 5285 843e 8487 af3c 5768 c83d fbad 203e
00000370: 048b 32be d65f 68bd 048d 833e e22b 90bd
00000380: 8cdf b73e 9826 773e 6f96 be3d b54a 503e
00000390: b139 b43e 01d7 8d3e 6029 473e 7eaa 5a3e
000003a0: 3bc4 883e 9d53 543e f57b e03e c09d 063e
000003b0: 47fa da3e 787d 01be be4a cb3d 12b1 923e
000003c0: 91ae e43e 3407 8a3e 75d0 063f cff4 d23e
000003d0: 555f a83e 482e 933e 7f58 ea3e da2e bb3e
000003e0: 35de 9b3e 523a a73e c8aa 0e3e dc37 7f3e
000003f0: c518 44bc 4c20 d33e 74d6 563e 4be7 d23e
0.48692375 0.17421655 0.17973644 0.24110535 -0.17251539 0.3706348 0.12695786 -0.25885072
0.37412935 0.31186596 0.3919587 0.28762192 0.26956484 0.3478427 0.39877823 0.2052487
0.18531252 -0.09083275 0.2082978 0.1872846 0.043361727 0.030613188 0.41826218 -0.08709337
0.41925204 0.1351634 0.14366041 0.11837504 0.21772575 0.17628495 0.2704553 0.36650783
0.2785381 0.17612967 0.25509375 0.27666086 0.21620496 -0.29931113 0.26856413 0.2885622
0.16457395 0.49715146 0.24529539 0.62836766 0.3156486 0.47309956 0.5086433 0.24698022
0.17265916 0.080484375 0.39955577 0.34361684 0.20886989 0.16210414 -0.04864515 0.3636586
0.25333005 -0.18009637 0.31888896 0.31182307 0.31886527 0.35009763 0.28704056 0.39532465
0.34909096 0.42974928 0.17263898 -0.06468381 0.27189687 0.21940738 -0.12064066 0.010844794
0.28287077 0.08518298 0.5373536 0.4384995 0.3156189 0.22352012 0.16570279 0.22101636
0.46548355 0.36316633 0.38906488 0.22343178 0.5536205 0.37323776 0.22001694 -0.25556326
0.07685378 0.30738723 0.17854047 0.44020066 0.48080388 0.43690252 0.24438027 0.24705917
0.41701978 0.3480511 0.2549628 0.13874955 0.5560055 0.35085762 0.26751143 0.23506252
-0.22246836 0.30896282 0.3124077 -0.2489019 0.21031663 0.13585553 0.27971822 0.45425358
0.25641227 0.41189736 0.3161517 0.4199487 0.32569292 -0.028215803 0.1227799 0.09790014
0.14679454 -0.063552864 0.43059972 -0.01775782 0.32026848 0.13720518 0.30304053 0.24200822
0.23972054 0.24003118 0.34252545 0.30412525 0.3777313 0.17311345 0.2792115 0.080990806
0.117337145 0.037736695 0.32437 0.23771681 0.28328383 0.4665384 0.52197325 0.40515184
0.3481325 0.3596581 0.41077107 0.2676641 0.32786837 0.14125083 0.36666062 0.2652732
-0.03676326 0.13585052 -0.30104578 0.16690473 0.17924152 -0.30009428 0.1936021 0.46920708
0.317318 0.42006633 0.40157244 0.4023901 0.25856394 0.29106507 0.29587793 -0.22078212
0.39100567 0.16412835 0.01416272 -0.13280064 0.22303385 -0.024692724 0.39181256 0.3283209
0.0013723588 0.25611094 0.25624296 0.018818514 0.23123176 0.17440268 0.2821173 0.15918624
0.35636914 0.14827263 0.32358503 -0.38852817 0.2243725 0.4358185 0.3279393 0.23761527
0.36608997 0.5675386 0.23837987 0.405452 0.35993174 0.2882141 0.35634866 0.1668666
0.29964313 0.2225482 0.14009838 0.363532 -0.26166663 0.30717847 0.31021887 -0.1173697
0.26395944 0.16426973 0.23222207 0.49443284 0.4279194 0.4481937 0.38521227 0.30157766
0.25882965 0.021426924 0.09785526 0.15691368 -0.17435843 -0.05673202 0.25693524 -0.0703962
0.3591274 0.24135816 0.09306037 0.20340998 0.35200265 0.27703097 0.19449377 0.213541
0.26712212 0.20735021 0.43844572 0.13146114 0.4276907 -0.12645519 0.09926365 0.2865072
0.44664434 0.2695862 0.5266183 0.412024 0.32885233 0.28746247 0.45770642 0.36559182
0.30442968 0.32661682 0.13932335 0.24923652 -0.011968796 0.41235578 0.20980245 0.41192088

arith.constant21 f4 [200, 50]
00000000: 8087 1c3c 1b07 a73d 1250 01bd fa0a 193d
00000010: c212 abbc a237 5ebd 207c b03d a27d cfbc
00000020: d429 edbd 68dd a53d 70f5 2fbd 4c41 b53c
00000030: 98b1 b23c 3c9a 30bd 9eb3 9bbd 5ae6 713d
00000040: 596c 23be c0da e83a 3caa a33d 26cb 4c3d
00000050: b036 9cbc ca8b 9e3c 7afd 9d3d 5007 48bc
00000060: 1252 083d 9f08 0cbd 2a0e 163d 06f8 f3bc
00000070: 9ac6 53bd e271 7fba c7ce 563d 3100 87bd
00000080: f437 003d 9681 98bc 9c00 d93c 76ef ca3b
00000090: 1c36 91bd 8fea 8d3c fbbc e63d f037 063d
000000a0: d841 913b 9baa a5bc 7036 cb3d 1113 c5bd
000000b0: 2f8b 02be 70a5 cbbb 02cf 28be a091 bbbd
000000c0: 9f00 493d 6e39 273d 73a2 313d 8089 253c
000000d0: ffd8 653d 779e 1abd 40e4 1fbd 051b 34bd
000000e0: 3160 b13c 9fa2 55bc 0823 6c3d 4cbf 7e3d
000000f0: aa5a b2bd ca9b 003d 014b 0e3c a884 febc
00000100: 4033 3ebd ea0d 253d 6463 56bc b2fe 85bd
00000110: c5e0 49bc 5c47 cfbd d44c 68bd 6350 823c
00000120: da8d 5a3d 9ac1 9ebc 7744 c73c a4cb adbd
00000130: cece df3c 9b7f df3c fe51 1e3c b8a6 62bd
00000140: 6f5b a5bd 2175 87bd 4859 bdbc 90fa 1c3d
00000150: 96cb de3d d137 9bbd afc9 93bd f122 e0bb
00000160: 7565 af3d fd38 fa3c 42c3 b03d cc02 94bd
00000170: ac05 013d a26d 813d 1ef8 bc3d 5770 09bd
00000180: c46b 74be 710c 96bc 2e58 693b 7e22 233d
00000190: e8e5 673d 101c adbd 4038 d6bc f66d eb3c
000001a0: e40b 1b3e 5b91 98bc 9faa ec3c 5b53 a33d
000001b0: 9aa9 f93c 7566 3cbd d44e e63c bf7d a1bd
000001c0: 23e7 57bd b7e0 18bd 6983 94bc 3f01 843d
000001d0: d57b abbd c562 873d f876 ad3c e9f8 873d
000001e0: 8a58 433e e94d 483d 9ac1 7b3c 5385 823d
000001f0: bcd2 b7bd 4b4a bcbc 71ea 553e 5a1d 0b3d
00000200: c15d 46bd fb22 dfbd 9124 b0bc 1d5d e83c
00000210: 44a5 c23c 2652 d1bd 41b5 c5bc 50cc fbbd
00000220: 5de6 fbbc 5e46 fe3c 81c8 23bd a8e0 9a3d
00000230: 93b5 3bbd 7aa2 a63d ca37 243d b2e8 2d3c
00000240: cd05 ae3d efdb 04be 727c 9d3c 44e9 83bd
00000250: 65f0 76bd c52d 673d cf46 0d3e a68d a4bb
00000260: 8a8b d6bb 802b b13c 3582 843d 107d 2fbc
00000270: 2b33 a33c de6b c2bd 25ec edbc 8b30 f93d
00000280: 5399 5dbd 77f8 9cbd 707d 093e 32a0 4cbd
00000290: 0a57 1a3d e462 efbc cc7e 803b 4ebd 53bd
000002a0: 02a1 963c 3918 7dbd 981b 823d f127 86bd
000002b0: 71eb 25bc f3e9 85bc f06c dabc daed f73c
000002c0: 9fd9 05be 5a65 043e 2ccf 043e 3d0a 873b
000002d0: 4110 72bd f07c 953d d6c5 57bd 6192 15be
000002e0: 2344 c7bc 06f1 b9bd 8aec 32bc 7f05 a53c
000002f0: 6327 243d 0c8c 6dbc d466 dabc 2a98 763d
00000300: 6963 42bd f40c df3c 783a eebb 68e9 8fbc
00000310: f291 663d 632d 4dbd 3bb9 df3d f499 adbc
00000320: e0b2 613c 4c75 143e 453a 013d 1439 9bbd
00000330: c006 49bc 7265 d03d 2a4b 8f3c 78f1 8bbd
00000340: 9653 203c 568e 90bd 9e66 393d 5cca b1bd
00000350: 3fbd c7bc 2024 cabd 48d4 c33c 1a8e 88bd
00000360: d8aa 09bd 4881 55bd e0fc 113d 09a2 febc
00000370: d796 963d bfb5 6d3d 2ba2 f83d f9da a8bb
00000380: d21c f8bc 9aa7 da3c bbe6 40be 9e24 be3d
00000390: 7ef5 393d 5a7d 19be 6078 02bd 3c00 ec3b
000003a0: c007 053c 968f cdbc a686 883b f8ac a73c
000003b0: aa88 c1bc 33a5 2bbe 01d3 6dbc 5367 9f3d
000003c0: 12ea dd3d 3aed da3d 3fb8 75bc 9b2b ddbb
000003d0: 0ee1 683d da54 7d3d 357b b2bc cac7 633c
000003e0: 86e5 1b3d c85f c93d 860c c23b f10a bb3d
000003f0: 4d77 9a3d a169 7bbd 3cbe f9bd c013 503d
0.00955379 0.08155652 -0.0315705 0.037363984 -0.020882968 -0.054252274 0.08617425 -0.025328461
-0.11580244 0.080988705 -0.042958677 0.022125863 0.021813199 -0.04311584 -0.07602619 0.05905757
-0.159593 0.0017765388 0.07991454 0.049998425 -0.019069046 0.019353766 0.077143624 -0.012208775
0.033281393 -0.03418791 0.0366346 -0.029781353 -0.051703073 -0.0009744448 0.052443292 -0.065918334
0.03130336 -0.018616479 0.026489548 0.0061930967 -0.07090399 0.01732376 0.11266514 0.03276819
0.004432898 -0.020222953 0.099224925 -0.09622777 -0.12748407 -0.00621479 -0.16485217 -0.09158635
0.049072858 0.040826254 0.043367814 0.010103583 0.056115147 -0.03774878 -0.039036036 -0.04397108
0.021652313 -0.01303926 0.057650596 0.062194154 -0.08708699 0.031398572 0.0086848745 -0.031069115
-0.046435595 0.040296473 -0.01308522 -0.0654272 -0.012321656 -0.101210326 -0.056713894 0.015907472
0.053357936 -0.019379426 0.024324639 -0.08486107 0.027320292 0.027282527 0.009663103 -0.055334777
-0.0807408 -0.066141374 -0.023113862 0.038324893 0.10878675 -0.075790055 -0.072162025 -0.006840103
0.08564273 0.030544752 0.086309925 -0.07227096 0.03149955 0.06319739 0.09227012 -0.0335544
-0.23869234 -0.01831648 0.0035605538 0.039827816 0.05661574 -0.08452618 -0.026149869 0.028738957
0.15141255 -0.018623998 0.028889952 0.07974883 0.03047638 -0.04599615 0.02811376 -0.07885312
-0.052710664 -0.03732368 -0.018129067 0.0644555 -0.083732285 0.06610636 0.021174893 0.06639273
0.19076744 0.048902426 0.015365982 0.06373086 -0.08975741 -0.022984644 0.20890214 0.03396354
-0.048429254 -0.10895344 -0.021501811 0.028364712 0.023760445 -0.10220747 -0.02413428 -0.12294829
-0.030749494 0.031039413 -0.039986137 0.07562381 -0.04582746 0.08136459 0.040092267 0.010614561
0.084972 -0.12974523 0.01922438 -0.06440976 -0.06028785 0.056440134 0.13796543 -0.0050217686
-0.006547396 0.021627188 0.064701475 -0.01071097 0.01992186 -0.0949323 -0.029043267 0.12167462
-0.0541013 -0.076645784 0.13426757 -0.04995746 0.037680663 -0.02922196 0.0039213654 -0.051694207
0.018387321 -0.06179068 0.06352919 -0.06550587 -0.010126934 -0.016346907 -0.026663274 0.030264784
-0.13071297 0.12929288 0.12969655 0.0041210935 -0.059097532 0.072992206 -0.052678905 -0.1460662
-0.024324482 -0.09079175 -0.010920653 0.020144222 0.040076625 -0.014498722 -0.02666036 0.06020371
-0.047458086 0.027227856 -0.0072701536 -0.017567351 0.056291528 -0.050092112 0.10924002 -0.021191575
0.013775557 0.1449787 0.03154971 -0.07579246 -0.012269676 0.10175599 0.017491896 -0.06833166
0.009785553 -0.070583984 0.04526388 -0.08681175 -0.024382232 -0.098701715 0.023904935 -0.06667729
-0.033610195 -0.052125245 0.03564155 -0.031083124 0.07352989 0.058034655 0.12140306 -0.0051530567
-0.03028718 0.026691247 -0.18838017 0.09284328 0.045400135 -0.14989224 -0.03185308 0.0072021764
0.0081195235 -0.025092881 0.004166442 0.02046822 -0.023624737 -0.16762237 -0.014515639 0.077833794
0.10835661 0.106897786 -0.014997541 -0.006749583 0.056855254 0.0618485 -0.021787265 0.013902614
0.038060687 0.09832722 0.005921903 0.09132946 0.07542286 -0.061380032 -0.121944875 0.050800085

sequential_12_1/lstm_6_1/while/lstm_cell_1/add_1/ReadVariableOp f4 [200]
00000000: 22f4 2c3e 2404 3b3e 94f3 243e 4bcd 303e
00000010: b2b1 3d3e 38c1 383e 5826 323e c780 863e
00000020: 10d4 133e a1e4 773e a04d 313e 4878 04bd
00000030: 4d00 1f3e e8a4 7f3e 68f7 293e 8af1 723e
00000040: b60b 693e 6c54 2a3e 18ea 733e 584c 993e
00000050: eadd 403e 452d 2a3e 9162 60bc fbce 2d3e
00000060: 53cc 3b3e e2ce 603e 5213 313e 17a8 283e
00000070: 5bfc 2f3e 1ef0 3e3e 36a4 6e3e e8be 183e
00000080: 9b1f 293e 2d4b 303e 5c41 2c3e 4e2d 293e
00000090: 4517 3a3e 4448 dabc d001 883e b824 903e
000000a0: ab8d 1a3e bee3 1b3e 8c23 793e e672 303e
000000b0: 80c8 613e df15 373e c3c7 5a3e 9b98 193e
000000c0: e42e 1c3e 763b 3f3e 0000 803f 0000 803f
000000d0: 0000 803f 0000 803f 0000 803f 0000 803f
000000e0: 0000 803f 0000 803f 0000 803f 0000 803f
000000f0: 0000 803f 0000 803f 0000 803f 0000 803f
00000100: 0000 803f 0000 803f 0000 803f 0000 803f
00000110: 0000 803f 0000 803f 0000 803f 0000 803f
00000120: 0000 803f 0000 803f 0000 803f 0000 803f
00000130: 0000 803f 0000 803f 0000 803f 0000 803f
00000140: 0000 803f 0000 803f 0000 803f 0000 803f
00000150: 0000 803f 0000 803f 0000 803f 0000 803f
00000160: 0000 803f 0000 803f 0000 803f 0000 803f
00000170: 0000 803f 0000 803f 0000 803f 0000 803f
00000180: 0000 803f 0000 803f 0000 803f 0000 803f
00000190: dc99 3f3d 2efb 9c3c 5a42 283d 6050 313d
000001a0: 1727 db3c f429 2c3e 1e16 e73c 0212 3e3e
000001b0: fd02 2b3d 7e57 133e 995a 033e 236e 2bbd
000001c0: e5e5 3a3d c452 3b3e 1f8c 233d 3e54 4f3e
000001d0: c934 2f3e 1215 083e 78ef 333e 69b9 2d3e
000001e0: 99da d43c 2cad 223d ccf8 bfbc 7a64 283d
000001f0: 5ea4 1d3e 616a c2bb 1e7d 1d3d 2a2b 003e
00000200: 89a1 2d3d 0a5a f13d 34e7 433e a0f0 233d
00000210: c26b 393d 39fa e93d f543 0d3d d918 123d
00000220: 719c 1c3e cf4c a6bc b51f 2d3e 92d6 473e
00000230: a805 983c b977 403d 95c8 503e 0ba7 0e3d
00000240: 76a0 4b3e 373b 0e3d c470 4e3e eee6 4b3d
00000250: 614f 1e3d 4532 073d f374 303e f9b7 3c3e
00000260: c9e1 233e a0ed 2b3e 9942 3e3e 173d 4b3e
00000270: 42b2 323e 568d 7e3e e38e 193e ffa2 7a3e
00000280: e248 2c3e f8a2 05bd 1278 223e d168 793e
00000290: ef5e 363e 75e4 753e c443 693e f212 1d3e
000002a0: e0c3 5f3e ce93 803e 8b9c 4a3e 956c 2e3e
000002b0: 80a2 5fbc b7fd 293e b91f 363e fcb2 613e
000002c0: 370f 293e 5bb6 203e 6fcb 2c3e 7670 3f3e
000002d0: 8a1c 6b3e 6d5b 1b3e 6807 293e 9376 3b3e
000002e0: 6976 333e 59da 2b3e f240 493e b3ff d9bc
000002f0: 1895 873e 24d3 8b3e 0778 143e 5ed1 153e
00000300: 136b 673e fc79 303e de04 763e 993e 3a3e
00000310: 9c75 663e 0a54 1b3e 448e 223e 3a30 3e3e
0.16890004 0.18263298 0.16108543 0.17265813 0.18524817 0.18042457 0.1739744 0.26270124
0.14436364 0.24208309 0.17314768 -0.03234127 0.15527458 0.2496525 0.16598284 0.23724952
0.22758374 0.16633767 0.23819768 0.29941058 0.18834653 0.16618831 -0.013695375 0.16973488
0.18339662 0.2195392 0.17292526 0.16470371 0.1718611 0.18646285 0.23304829 0.14916575
0.16515963 0.17216177 0.16821808 0.16521189 0.18172939 -0.026645787 0.26563883 0.28153014
0.15093105 0.15223595 0.24329966 0.1723133 0.22049141 0.17879437 0.21365266 0.1499962
0.15252262 0.18675026 1.0 1.0 1.0 1.0 1.0 1.0
1.0 1.0 1.0 1.0 1.0 1.0 1.0 1.0
1.0 1.0 1.0 1.0 1.0 1.0 1.0 1.0
1.0 1.0 1.0 1.0 1.0 1.0 1.0 1.0
1.0 1.0 1.0 1.0 1.0 1.0 1.0 1.0
1.0 1.0 1.0 1.0 1.0 1.0 1.0 1.0
1.0 1.0 1.0 1.0 0.04677759 0.01916274 0.041078903 0.043289542
0.026752038 0.16812879 0.028208788 0.18561557 0.041750897 0.14388844 0.12827529 -0.04185308
0.0456294 0.18293291 0.03992855 0.2024698 0.1710998 0.13289288 0.17571819 0.1696526
0.025983142 0.03971593 -0.023434065 0.041111447 0.15394732 -0.0059330915 0.0384494 0.12516466
0.04239038 0.11784752 0.19131166 0.0400244 0.04526878 0.11424679 0.034488637 0.035668228
0.15294053 -0.020300297 0.16906627 0.19515446 0.018557385 0.046989176 0.20389016 0.034827273
0.1988543 0.03472444 0.20160204 0.04978078 0.03864992 0.033006925 0.17232113 0.18429555
0.16004099 0.16789865 0.18580092 0.19847523 0.17450812 0.24858603 0.14995913 0.2447624
0.16824678 -0.032626122 0.15866116 0.2435639 0.17809652 0.2401293 0.22779757 0.15339258
0.21852064 0.25112766 0.19786279 0.17033608 -0.013649583 0.16600691 0.17785539 0.22040933
0.1650971 0.15694563 0.16874479 0.18695244 0.22960106 0.15171595 0.16506732 0.18306951
0.17525639 0.16782512 0.19653681 -0.026611185 0.26480937 0.27309525 0.14498912 0.14630648
0.2259944 0.17234033 0.24025294 0.18187942 0.22505802 0.15168777 0.15874583 0.18573084
